models/meta_classifier.pth (torch, 7882 bytes, 9 tensors)

fc1.weight f4 [32, 5]
000000 51 b9 25 bd af 46 0d be 29 65 aa be c3 4d cc be
       -0.040459935 -0.13796495 -0.33280304 -0.39903077
000010 6a 5d 82 bd 1b b1 97 be 20 3c 2b bd 87 5b 99 be
       -0.063654736 -0.29627308 -0.041805387 -0.29952642
000020 92 7b 8c be 62 4c ba be 11 ac 71 3e 5f 0f 8f 3e
       -0.27438027 -0.363864 0.23600794 0.27941415
000030 6e eb 87 bd e7 6b ce 3e 8b 93 45 3e a5 97 35 be
       -0.066367015 0.40316698 0.19294564 -0.17733629
000040 20 f6 88 3c 80 4b ae bd 6b 45 cd be cb 39 81 be
       0.016718924 -0.08510494 -0.40092024 -0.25239405
000050 a8 cf c6 3e 7c df bb 3e 22 b4 86 ba 20 ac 5a 3d
       0.38830304 0.36693943 -0.0010277072 0.053386807
000060 a3 ed 0c 3f 2f 82 85 3e 34 83 cf 3e b3 d1 5f 3e
       0.55050105 0.26075885 0.40529788 0.21857338
000070 4c 47 a1 bd cf 01 8b 3e 22 aa 81 be ff ba 05 be
       -0.07874927 0.27149817 -0.25325114 -0.13059615
000080 33 39 a7 bd c9 29 6b 3e fd 13 b2 be 8c bd 6a 3c
       -0.08165207 0.22965159 -0.34780875 0.014327418
000090 a2 fd e7 bd a1 96 de be 0a 25 5b be e4 1a 28 be
       -0.113276735 -0.43474296 -0.21400848 -0.16416508
0000a0 ed 30 8e be 94 6d f4 be b5 2d e9 bd c2 9a 97 bd
       -0.27771702 -0.4773985 -0.11385671 -0.074025646
0000b0 b1 1b 4b bd 9f 44 a1 3c 7f 2f a5 bd 49 1d c9 3e
       -0.049586955 0.019686041 -0.080657 0.39280155
0000c0 e9 d8 8b 3e 54 b4 a7 3e 09 ed 06 3f cf b4 c7 ba
       0.27313927 0.32754767 0.52705437 -0.001523638
0000d0 99 59 82 3e 77 04 78 3e c8 d2 4b bb fa 25 b9 3e
       0.25458983 0.24220453 -0.0031100977 0.36161786
0000e0 7f 6a 8e bd 59 d8 cd 3e f3 74 65 be 25 f6 63 3a
       -0.06953906 0.40204123 -0.22407894 0.0008696041
0000f0 7a 2d 02 be 28 44 6e 3c ab 76 2f be 33 97 69 3e
       -0.1271266 0.014542617 -0.17135112 0.22811584
000100 e8 11 ef be d4 b6 ba bd 9d 81 16 be 16 a3 3a be
       -0.4669335 -0.09116903 -0.14697881 -0.18226275
000110 f4 83 11 bd 24 ee 19 be 18 af 1d 3e ea 7c c8 3e
       -0.03552623 -0.1503225 0.15398824 0.39157802
000120 d9 b8 bd 3d fa 2e b9 bd e0 84 e6 3e 03 c6 6f 3e
       0.092637725 -0.09042163 0.4502325 0.23415379
000130 e2 ba 3e bd 3d 32 b4 bd 97 9c cf 3e 72 35 18 3f
       -0.046564944 -0.08798645 0.40549156 0.5945655
000140 95 23 ae be 82 c2 b3 be c8 06 00 be 34 af 1c be
       -0.34011522 -0.35109335 -0.12502587 -0.1530121
000150 31 81 a5 be 53 09 1c 3e 20 bc 4e 3e fa 11 5f 3e
       -0.32325128 0.15237932 0.20188951 0.21784201
000160 4c 6d d9 3d 0b f3 8c 3e 13 00 cb 3e 2a ba fc 3d
       0.1061655 0.27529177 0.39648494 0.123401955
000170 98 d6 9e 3c 5a 0a a1 3c 55 c1 81 3e 6f 36 06 3e
       0.019389436 0.019658256 0.25342813 0.13106702
000180 be 6a e9 3e 6e 6a b1 bd 99 6e 04 be d3 85 0f 3f
       0.4558925 -0.08662878 -0.12932815 0.56063575
000190 5d 42 e9 3e 84 18 cd 3e 76 86 cb 3e 59 c8 24 3d
       0.45558444 0.40057766 0.39751023 0.04023013
0001a0 11 30 b7 bd 80 55 77 be 33 0a 16 be 2a d4 cd be
       -0.08944715 -0.2415371 -0.14652328 -0.4020093
0001b0 30 1a 94 3d 78 e4 a3 bd 9a c4 cf be da fa 01 be
       0.07231557 -0.08002561 -0.40579683 -0.12693349
0001c0 d7 84 e2 be 1c 1a 89 be 9b 8c bc bd b8 01 b6 3e
       -0.44241974 -0.26777732 -0.09206506 0.35548186
0001d0 18 1f 24 be 4f 6d 83 3e 48 a5 65 3e 82 67 ea 3e
       -0.16027486 0.25669333 0.22426331 0.45782095
0001e0 f7 74 a4 be 95 26 ec 3d 5b 34 2f be ee fc ab be
       -0.32120487 0.115307964 -0.17109816 -0.33591408
0001f0 85 1a be be 49 9b 09 bd af 74 ca bb c0 e8 9a bd
       -0.37129608 -0.033595357 -0.0061784605 -0.07563925
000200 9c 6e 1b bf 81 b7 b2 be 44 11 86 3e 83 56 2b 3e
       -0.6071565 -0.34905627 0.26185048 0.1673222
000210 42 6f d0 3e c8 31 58 3e 09 6e 88 3e ca ed 95 3e
       0.40709883 0.2111274 0.2664645 0.2928298
000220 07 9f d8 3e 7f 01 15 3f 96 ea 83 3d e5 79 44 bd
       0.42308828 0.5820541 0.06441228 -0.04796781
000230 cd b3 14 3f 10 79 4b 3e ec 73 13 3f de a2 be 3e
       0.58086854 0.198704 0.5759876 0.37233633
000240 b1 61 fd ba 05 3a 86 3e 2e 42 fe 3d a0 73 64 3e
       -0.0019331482 0.2621614 0.124149665 0.22309732
000250 8d 3d 84 3e c2 49 1f 3e 89 2a ec 3e 81 67 32 3e
       0.2582821 0.1555548 0.46126202 0.17422296
000260 ea 0c 07 3e 67 e3 bf 3d 3e 8a e7 3e c8 93 c5 be
       0.1318852 0.093695454 0.45222658 -0.3858931
000270 ed b3 2e be b1 5d 2c be d7 1a 54 be 7f 44 bb be
       -0.17060824 -0.16832615 -0.20713364 -0.36575696

fc1.bias f4 [32]
000000 39 59 79 3d 36 76 c2 3e c4 8e 8f be 49 19 81 be
       0.060876105 0.37980813 -0.2803861 -0.25214604
000010 eb 9c c7 3d 58 d6 b1 be 8d 1e bd 3e 0e d3 b7 3e
       0.097467266 -0.34733844 0.3693737 0.3590321
000020 ad 37 3c bd 53 09 e1 bd a0 bc 9a be fd 67 80 be
       -0.045951534 -0.109881066 -0.30222034 -0.25079337
000030 01 4e 07 bf 02 52 c6 be 54 50 44 3c e1 13 9e be
       -0.528534 -0.38734442 0.011982042 -0.3087454
000040 fc b8 b8 bd f6 2c 7d be ba 74 02 3c 55 89 cf 3e
       -0.09019658 -0.24724182 0.0079624 0.40534464
000050 36 ef 89 3e 8d 37 02 be be 17 c5 3e b0 2c a4 be
       0.26940316 -0.12716503 0.38494676 -0.32065344
000060 65 65 cc 3e 39 28 9e bd 7b b2 28 3e 17 6a cb 3d
       0.39921108 -0.077225156 0.16474335 0.099323444
000070 33 8d f7 bd a6 58 93 3d 9d 00 6c 3e 9e 58 ce 3d
       -0.120874785 0.07194643 0.23047109 0.10075496

bn1.weight f4 [32]
000000 f0 d3 8d 3f e3 62 94 3f 07 3e 93 3f 35 d1 97 3f
       1.1080303 1.1592678 1.1503304 1.186072
000010 72 5a 96 3f 92 8e 93 3f 3f 18 9b 3f 52 2d 93 3f
       1.1746352 1.1527884 1.2116774 1.1498206
000020 2b 20 9e 3f 2b cc 93 3f 8d 7e 8e 3f 68 00 96 3f
       1.2353567 1.1546682 1.113237 1.1718874
000030 24 83 80 3f 7a 77 98 3f 92 3c 8d 3f d5 25 94 3f
       1.0040021 1.1911461 1.103411 1.1574045
000040 4b b8 99 3f d5 89 9a 3f f0 c6 94 3f 5b 28 8e 3f
       1.2009367 1.2073313 1.1623211 1.1106066
000050 a8 6e 8c 3f aa 8e 97 3f e5 1b a0 3f c9 97 95 3f
       1.097127 1.1840413 1.2508513 1.1686946
000060 25 6f 97 3f 85 07 8f 3f 6b 5e 9a 3f 30 42 91 3f
       1.1830794 1.117417 1.2060064 1.1348324
000070 cd eb 93 3f 08 5c 93 3f 3a 18 94 3f d9 f3 9a 3f
       1.1556336 1.1512461 1.1569893 1.2105666

bn1.bias f4 [32]
000000 63 02 b9 3c af cc f2 3d 9d 92 4d 3e 5d ef c3 3d
       0.022584146 0.118554465 0.2007546 0.09567139
000010 30 e1 3e 3e b3 c6 5e 3e d4 23 db 3d b9 23 cb 3d
       0.1864059 0.21755485 0.10700193 0.09918923
000020 e9 49 a1 3c 46 4c 91 3d 28 e9 3f 3e 0c e2 59 3e
       0.019688563 0.07094626 0.18741286 0.21277636
000030 12 c3 93 3c 81 a8 84 3d ae d5 57 3e d5 2f 55 3e
       0.018037353 0.06477452 0.21077606 0.20819028
000040 cc e4 27 3d 04 78 58 3e d9 89 2a 3e 15 e3 53 3e
       0.040989682 0.21139532 0.16654147 0.20692094
000050 b4 8e cd 3d ca 65 c8 3d 43 af e8 3d df 0e f3 3d
       0.10036984 0.0978504 0.113615535 0.11868071
000060 79 ce 2f 3e dd 48 24 3d 52 5e 51 3e 79 71 95 3d
       0.17168607 0.04010855 0.20446137 0.07297034
000070 be bb e7 3d 56 ec cb 3d 53 b3 10 3e 5e b1 ac 3d
       0.11315106 0.09957187 0.14130907 0.084322676

bn1.running_mean f4 [32]
000000 12 9b ca be 98 40 70 be 9b d0 5d 3e 53 84 2d bf
       -0.39571434 -0.2346214 0.21661608 -0.67780036
000010 bc af 42 3f 3d e0 33 3e b4 13 98 3d 36 61 8c bd
       0.760494 0.17566009 0.07425633 -0.06854479
000020 63 33 05 bf aa 50 ab 3e 8d c1 3e 3e 30 93 4f bc
       -0.52031535 0.3345998 0.18628521 -0.01266937
000030 01 41 4b bf 97 00 2e bf b5 60 00 3f 90 8b 64 3e
       -0.79396063 -0.6796965 0.50147563 0.22318864
000040 0a 16 37 bf 79 0b 58 3e 03 b5 d0 3e 37 df 5c 3f
       -0.71518004 0.21098126 0.407631 0.862781
000050 25 29 59 3f cc 02 04 bf 7b 03 82 be 0d ec 72 3e
       0.84828407 -0.5156677 -0.2539328 0.23722859
000060 0d 51 f8 bd be 69 14 bf c9 48 4c 3f 57 d5 39 3f
       -0.12124834 -0.5797385 0.7979856 0.72591156
000070 84 43 34 3f 95 2b 0f 3f cd eb 5f 3f ff ac 07 bf
       0.7041552 0.55925876 0.8746918 -0.52998346

bn1.running_var f4 [32]
000000 1e de ec 3c 9d e6 7b 3d 99 98 11 3d 39 36 f0 3c
       0.028914507 0.061499227 0.03554592 0.02932273
000010 d5 8b a0 3d e2 de 43 3d 2f 39 ca 3c dd 08 f3 3c
       0.07839171 0.04781998 0.02468547 0.029667312
000020 c6 69 11 3d db 00 16 3d f8 dc 36 3d 86 0d c5 3c
       0.035501264 0.03662191 0.044644326 0.0240543
000030 81 82 ce 3c 22 fb 5c 3c c0 c0 37 3d b2 bf 63 3d
       0.025208713 0.013487609 0.044861555 0.055602737
000040 e2 3d 76 3d 67 2b 05 3d a4 5a 00 3d 94 aa 41 3d
       0.06011761 0.032512095 0.03133644 0.047281817
000050 76 8e 6c 3d 1e d2 f4 3c 61 f1 84 3d 76 42 7d 3d
       0.05775305 0.029885348 0.06491352 0.06183096
000060 f6 48 4d 3d fb 70 28 3d f8 7d 7c 3d 98 20 86 3d
       0.05011841 0.04112337 0.06164357 0.065491855
000070 94 e7 dd 3d 7a e6 10 3d e1 1b 96 3d bd 0e 82 3d
       0.10835186 0.03537605 0.07329536 0.06350467

fc2.weight f4 [16, 32]
000000 9f 46 f8 bc 26 69 f6 bd e3 5c 5c 3e 6d ce 59 3d
       -0.030307112 -0.12031774 0.21519808 0.05317538
000010 48 26 a4 3e 20 b1 1d 3e e4 2b 77 3d 0c 92 d9 3d
       0.32060456 0.15399599 0.06034459 0.10623559
000020 c7 c9 41 3d a5 3a 21 3e 24 54 42 3e 3d 6c 86 3c
       0.04731157 0.15745027 0.1897741 0.016409034
000030 3e 9a ab bd 60 58 1b 3c 1c 4a 2f 3d f0 49 6a 3e
       -0.08379029 0.009481519 0.042795286 0.22879767
000040 17 13 8f bd 86 31 78 3e 6a 23 36 3e 3b 42 a9 3e
       -0.06986063 0.24237642 0.17786947 0.33058342
000050 b1 74 8a 3c 5f 21 0a be b0 b0 e3 bd 63 5e a0 3e
       0.016901346 -0.13489293 -0.11117685 0.3132201
000060 37 13 cb 3d 34 52 bd bc f9 96 8d 3e 84 4c ca 3d
       0.09915774 -0.023110487 0.27654245 0.098778754
000070 8c 7d 0e 3e a2 63 e9 3e d0 56 9c 3e b4 ba 07 be
       0.1391508 0.45583826 0.30534983 -0.13254815
000080 72 b0 01 3e f7 de 8b 3e 2d 0c e0 bd 29 79 9c 3e
       0.12664965 0.27318546 -0.10939822 0.30561188
000090 90 62 9b 3c a9 14 ae bb 04 7e bf 3d c4 49 d6 3d
       0.018967897 -0.0053125215 0.093502074 0.104632884
0000a0 87 c1 98 3e b0 ac 81 bd e5 02 01 3c e2 17 23 3e
       0.2983515 -0.06331766 0.007874225 0.1592708
0000b0 92 87 29 3e 2b bf 25 3e ee 65 ec 3c 48 ec ac bc
       0.16555622 0.16186206 0.028857198 -0.021108761
0000c0 09 09 a9 3e d9 ba df bd 48 81 01 bd ae 79 e0 3b
       0.33014706 -0.1092431 -0.031617433 0.006850443
0000d0 bc f1 c9 bd 92 d7 e3 3d 39 95 05 3e 38 af 53 3d
       -0.0986056 0.11125101 0.13045205 0.051680773
0000e0 0c 63 62 3e 38 58 94 3e 54 d4 1b be c1 fb b4 bc
       0.22108096 0.28973556 -0.15217716 -0.022092702
0000f0 4f 24 5a be ad cc 9a be 4c 57 11 be 76 37 88 3d
       -0.21302913 -0.3023428 -0.14193457 0.06651203
000100 d8 f2 48 be cf 48 54 be d8 17 55 3e 4b 9e fd 3d
       -0.19623888 -0.207309 0.20809877 0.123837076
000110 88 bf 35 3d 57 47 98 3e 6c 91 a2 3d 00 f0 44 3d
       0.04437211 0.29741928 0.07937893 0.048080444
000120 0e 07 92 3d 7c 45 82 3d 88 ba 07 3e af b8 a3 3d
       0.07130252 0.06360909 0.1325475 0.0799421
000130 04 13 67 be 92 c2 81 3d 11 28 b9 3d 24 28 3b 3d
       -0.22565848 0.063359395 0.09040845 0.045692578
000140 8c 9b 5f be 2e 15 c5 3e a6 91 d5 3c 87 8b e3 3c
       -0.2183668 0.3849272 0.026070427 0.027776493
000150 ca ef 0c 3e 0d e8 8b bd c2 09 9b bc e0 36 a1 3d
       0.13763347 -0.068313695 -0.018925551 0.07871795
000160 84 a2 15 3d 8f 51 ca 3c 18 52 82 3d d1 80 ef 3d
       0.03653194 0.024697093 0.063633144 0.11694492
000170 1f 03 f8 3d 22 2a 8d 3e f6 04 8c 3e e9 c8 c3 bd
       0.1210997 0.27571207 0.27347535 -0.09559805
000180 82 ee 0f 3e 34 12 92 3e 7a a1 16 3e c5 b4 aa 3e
       0.14055827 0.28529513 0.14710036 0.3334104
000190 35 0c 62 3b 9d 6f dc bd ad 2a 53 3e 60 f1 6c 3e
       0.003449214 -0.10763476 0.20621748 0.23138952
0001a0 84 5a 9f 3e 07 6e 47 3d 31 37 5b 3d 72 13 b1 3d
       0.31123745 0.048688915 0.05351943 0.08646287
0001b0 02 b5 e4 3d f1 c6 2e 3e 6e 8e 9f 3d f9 24 bb bc
       0.11167337 0.17068078 0.07790838 -0.022844778
0001c0 a3 dd a0 3e ac 14 27 be 8a a4 27 3d 95 8c 06 3e
       0.31419095 -0.1631648 0.0409284 0.13139565
0001d0 3c 9f 21 3e c0 e4 52 3e b9 aa 4c 3e df a4 be bc
       0.157834 0.20595074 0.19987 -0.023271976
0001e0 d5 f4 01 3e c0 80 64 bc 82 c0 22 bc 8d 77 0a 3e
       0.12691052 -0.013946712 -0.009933593 0.13522168
0001f0 51 c4 b6 bd a6 cc 2f bd 05 a9 13 be 09 4f e9 3d
       -0.08924163 -0.042919777 -0.14419945 0.11392028
000200 2e f5 57 be e7 20 1c bc c7 bb 8d 3e 8a 4e ca bd
       -0.21089622 -0.009529329 0.27682325 -0.098782614
000210 e7 9e 9f 3d ed c5 0f 3b 4b 36 62 bd 84 b5 1d bb
       0.0779398 0.0021938041 -0.05522756 -0.002406449
000220 ff da e1 bb 11 be 6d 3e 27 45 79 3e 2a 94 86 3e
       -0.0068925614 0.23217036 0.24342786 0.26284915
000230 c2 74 30 be 4a 00 57 3c b5 33 45 3d 96 3e 11 3e
       -0.1723204 0.0131226275 0.048145015 0.14184031
000240 b3 a2 ff bd 64 f5 56 3e 7b 00 48 3e 10 de 44 3e
       -0.12482204 0.20992047 0.19531433 0.19225335
000250 3f fa 07 3e 61 0a a2 3c 94 02 d4 3d 65 2b eb 3d
       0.13279055 0.01978034 0.10352054 0.11482886
000260 df bd e8 3d f0 df 75 bc 14 ea 99 3e f6 18 a5 3d
       0.1136434 -0.015007004 0.300614 0.080614015
000270 31 d5 75 3e c8 38 9e 3e 02 f0 8c 3e 96 67 f4 bd
       0.24007107 0.30902696 0.2752686 -0.1193382
000280 ce 33 2e 3c fd 8a 7d 3e df f2 22 3e 0e f7 5d 3e
       0.010632468 0.24760051 0.1591296 0.21676275
000290 56 55 19 bd b2 4d 2a 3d 3f 02 84 3e 7f 56 97 3e
       -0.0374349 0.041578002 0.25782964 0.2955818
0002a0 75 9b fc 3d 92 bf d3 3d 0e fb f0 bc d9 94 e5 3d
       0.123343386 0.103392735 -0.029416587 0.11210031
0002b0 67 8e e9 3d b7 e0 86 3e 07 52 b0 3d f7 3f 67 3d
       0.11404114 0.2634332 0.086093955 0.056457486
0002c0 b5 48 f7 3d 1c be 56 be a6 e8 bf 3d 79 79 b6 bd
       0.12074415 -0.20970958 0.09370546 -0.08909888
0002d0 aa 08 6b bc 54 13 36 3e db 3b a2 3d ff 33 0d be
       -0.014345327 0.1778081 0.07921573 -0.13789366
0002e0 01 06 32 3e 57 bd 8e 3e a5 80 5e be 9f d0 4f bd
       0.17385103 0.2787883 -0.21728761 -0.050736066
0002f0 79 00 e3 bb e5 d1 a5 bd 90 d5 1e be eb e8 d0 3d
       -0.0069275466 -0.08096675 -0.15511155 0.102006756
000300 e7 2f 91 3e 0e 0f 38 3d fa bc a6 3d 7b 09 ec 3d
       0.2835686 0.044936232 0.08141513 0.11525246
000310 cc 80 eb bb 6e 23 bf 3c dd 9a 87 3e 35 07 69 3e
       -0.0071869846 0.023332324 0.2648534 0.22756656
000320 1c 13 49 3e 80 46 92 3c 86 ef ff 3d a7 59 2d 3e
       0.19636196 0.017855883 0.12496857 0.16928731
000330 e5 6d 91 3b b8 a6 82 3e 21 d1 1d bd 42 73 00 3d
       0.0044381493 0.2551782 -0.03852952 0.03135992
000340 9b 70 90 3e dc 93 4a be 7d b3 9e bd 50 c6 60 bd
       0.2821091 -0.19782966 -0.077490784 -0.054876626
000350 8b 1b dd 3d 08 ba 1a 3d 6f 45 17 3e 44 bd 47 3d
       0.10796269 0.03777507 0.1477258 0.048764482
000360 2b 23 e9 3c a4 8d 2c 3e 0e 06 28 be 7d 33 12 be
       0.028459152 0.16850907 -0.1640856 -0.14277454
000370 0f ea 42 bd 70 8d f6 bb d1 72 12 be 61 93 a0 3e
       -0.047586497 -0.007524185 -0.14301611 0.3136244
000380 e8 71 00 3d 88 74 08 3e 7f d1 14 be 14 96 7e 3e
       0.03135863 0.13325703 -0.14533041 0.24861938
000390 9e bb b0 bd 0e 0a 19 be 4b e4 9e 3b 26 f1 07 3e
       -0.08629535 -0.14945242 0.004848992 0.13275585
0003a0 1c cb 78 3e 80 00 31 bd ef ff 01 bd 26 57 81 3e
       0.2429623 -0.043213367 -0.031738218 0.252618
0003b0 21 5e 44 bd 3b fb 86 3e ec dd e8 3c c5 68 f3 3d
       -0.04794133 0.2636355 0.028426133 0.118852176
0003c0 8f 3c 9e 3e f5 72 8e 3d e9 b5 14 be 6d 0c 04 3e
       0.30905578 0.0695552 -0.14522518 0.12895365
0003d0 f6 b2 ab bd e0 6e 40 3e 84 80 f1 3d 49 2b 18 bd
       -0.083837435 0.18792295 0.117920905 -0.037150655
0003e0 89 0e 99 3e 1a da 94 3e 24 f2 90 3c ca 43 ef 3c
       0.29893902 0.29072648 0.017693587 0.029207129
0003f0 e0 d0 0b be 2d 3a 82 be 32 14 e4 3d 90 24 a6 3e
       -0.13653898 -0.2543501 0.111366645 0.3244977

fc2.bias f4 [16]
000000 be 78 7c 3e 09 e6 8e 3e c2 02 bb 3e 1f 84 8d 3d
       0.24655434 0.27909878 0.36525542 0.06909966
000010 1a 6f 00 3e ed 95 6a 3e e9 90 61 3d 71 57 74 3d
       0.12542382 0.22908755 0.055069838 0.059653703
000020 0c 25 fd 3c 92 13 50 3e 35 ec 56 3e 47 47 ab bd
       0.030901454 0.20319965 0.20988543 -0.083632044
000030 f9 65 83 bb 24 67 80 3e 0f 6d 19 3e f1 13 71 3e
       -0.004009959 0.2507869 0.14983009 0.23542763

fc3.weight f4 [1, 16]
000000 63 f7 56 3e c4 21 4d be 33 7f 88 3e 85 96 93 be
       0.20992808 -0.20032412 0.26659545 -0.28825775
000010 13 8e 8e 3e fa 87 95 be 5d 41 93 be 57 c4 8d be
       0.2784277 -0.29205304 -0.28760806 -0.27688858
000020 6f ed 11 3e 89 49 b7 3e bf 1e 88 3e 74 db 78 3b
       0.1425073 0.3579829 0.26585957 0.00379726
000030 62 15 a6 3e c2 4e 96 be d9 7a 71 be 55 71 85 be
       0.3243819 -0.29356962 -0.23582019 -0.26063028
