models/timeseries_lstm.pth (torch, 569649 bytes, 19 tensors)

lstm.weight_ih_l0 f4 [256, 8]
0	0xbe6c71f1	-0.2309034
1	0xbe8fdbab	-0.2809728
2	0xbe84ed85	-0.25962463
3	0xbe2ff41c	-0.17182964
4	0xbe7fcde2	-0.24980882
5	0xbe6e11c6	-0.23248968
6	0xbe538019	-0.20654334
7	0xbe211c4a	-0.15733448
8	0xbd941222	-0.07230021
9	0xbe020f52	-0.12701157
10	0xbdee2052	-0.11627258
11	0xbde2186e	-0.11039816
12	0xbdd69020	-0.104767084
13	0x3d75d864	0.06002082
14	0xbd515476	-0.05110594
15	0xbd58b7d2	-0.05290968
16	0xbe1344cd	-0.14381714
17	0xbe920b4a	-0.28524238
18	0xbe6fc8f9	-0.23416509
19	0xbdba35f0	-0.09092319
20	0xbceb933f	-0.028756736
21	0xbda10dec	-0.078639835
22	0xbde1f0bb	-0.11032244
23	0xbc1a5678	-0.00942003
24	0xbe411b32	-0.1885803
25	0x3bff029c	0.0077822935
26	0xbe0b4d7d	-0.13603778
27	0xbd6fb7f2	-0.058525033
28	0xbe492772	-0.19643953
29	0xbccf26ad	-0.025286997
30	0xbd2c906c	-0.04212992
31	0xbe12ee4b	-0.14348714
32	0xbe61ee72	-0.22063616
33	0x3d4e70f9	0.050400708
34	0xbdba2d26	-0.09090643
35	0xbdc8e584	-0.09809402
36	0xbdb77851	-0.089584954
37	0xbe3747b4	-0.17898446
38	0xbd3f1559	-0.046651218
39	0xbe09ad04	-0.13444906
40	0xbe131954	-0.1436513
41	0xbc887819	-0.01665883
42	0xbd628ff6	-0.055313073
43	0xbd7b7b98	-0.061397165
44	0xbe7b0b8a	-0.2451612
45	0xbe958229	-0.29200867
46	0xbe63480f	-0.22195457
47	0xbe369d63	-0.17833476
48	0xbe238a6e	-0.15970775
49	0x3b9d6958	0.0048038177
50	0xbc2f4c5d	-0.010699359
51	0xbc76f4ce	-0.015073014
52	0xbe656990	-0.2240355
53	0xbdc305b3	-0.095225714
54	0xbe0ed4a4	-0.13948303
55	0xbc2cfbae	-0.010558052
56	0xbe052ce8	-0.13005412
57	0xbecc9928	-0.399606
58	0xbd982e48	-0.074307024
59	0xbdd1f6e0	-0.10252166
60	0xbe0d5f90	-0.13805985
61	0xbdadb336	-0.084814474
62	0xbe5c5c42	-0.21519569
63	0xbca1d330	-0.019754022
64	0x3c340753	0.010988074
65	0xbd0b93a9	-0.034076367
66	0xbc380635	-0.011231949
67	0xbd7ff69d	-0.062491048
68	0x3c630da3	0.013858232
69	0x3c053fd6	0.008132895
70	0x3de997fc	0.11405942
71	0xbe043856	-0.12912115
72	0xbdaadd60	-0.08343005
73	0x3cfc6336	0.030809026
74	0xbe734cc9	-0.2375976
75	0xbe850a25	-0.25984302
76	0xbe3d07cd	-0.18460007
77	0xbe35e87b	-0.17764466
78	0xbe9bd34a	-0.30434638
79	0xbe8c5440	-0.27408028
80	0xbdccc14e	-0.099978074
81	0xbe1fe6a6	-0.15615329
82	0x3c8632cd	0.016381646
83	0x3c93c601	0.018038752
84	0xbcf6c7c3	-0.03012455
85	0xbde22793	-0.110427044
86	0xbd8dcc28	-0.06923705
87	0x3bb2a82c	0.0054521766
88	0x3d7b8660	0.061407447
89	0x3e0521d6	0.13001189
90	0x3ca15e2c	0.019698225
91	0x3c8b57e6	0.017009687
92	0x3d2219ee	0.03957551
93	0xbc97590f	-0.018475084
94	0xbdc272b9	-0.09494538
95	0x3c812c6f	0.015768258
96	0xbe49314c	-0.19647712
97	0xbec3986a	-0.3820222
98	0xbe069d12	-0.13145855
99	0xbd1536c3	-0.036429178
100	0xbdb3c561	-0.087778814
101	0xbe67d8cc	-0.22641295
102	0xbe820aec	-0.25398958
103	0xbdb807b8	-0.08985847
104	0xbd92bacc	-0.07164535
105	0xbcb8d006	-0.02256013
106	0xbe2369f7	-0.15958391
107	0xbe84b91b	-0.25922474
108	0xbdd1f14d	-0.102511026
109	0xbe462b03	-0.19352345
110	0xbe87a9a8	-0.26496625
111	0xbe8fa9d3	-0.28059253
112	0xbdfd2b72	-0.12361802
113	0xbd38c92a	-0.04511372
114	0xbe84fdd5	-0.25974908
115	0xbe8d8c80	-0.27646255
116	0xbe01f047	-0.12689315
117	0xbe18e150	-0.149297
118	0xbe85c534	-0.26127017
119	0xbdbe8b88	-0.09303957
120	0xbc3e5271	-0.011616335
121	0xbe119c65	-0.14219816
122	0xbd09dfca	-0.033660688
123	0xbaaf15c9	-0.0013357933
124	0x3d2e18e4	0.042504206
125	0xbc8c19f6	-0.017102223
126	0xbc972623	-0.018450802
127	0xbd24b5a1	-0.040212277
128	0xbe246169	-0.16052784
129	0x3e0b32fe	0.1359367
130	0xbd8ffecc	-0.070310205
131	0x3a883645	0.001039215
132	0xbe348a24	-0.17630821
133	0x3c7b0b85	0.015322571
134	0xbda2368c	-0.0792056
135	0xbe236dbc	-0.15959829
136	0xbdf109ee	-0.11769472
137	0xbe8466f7	-0.25859806
138	0xbda92d67	-0.08260613
139	0xbcefd9c4	-0.029278643
140	0xbe3a0f5c	-0.18169922
141	0xbe84127b	-0.2579535
142	0xbd47bc08	-0.048763305
143	0xbe6e09d3	-0.23245935
144	0x3c958241	0.018250586
145	0x3e67d45f	0.22639607
146	0xbd1ed057	-0.038772907
147	0xbd6e3cd7	-0.05816349
148	0xbdc9ee2e	-0.09859882
149	0xbcd5e52b	-0.026110252
150	0xbdb33632	-0.08750571
151	0xbdb69caa	-0.089166
152	0x3e6326c3	0.22182755
153	0xbe00bc78	-0.12571895
154	0x3ddae703	0.10688593
155	0x3e529836	0.20565876
156	0x3e108dc3	0.14116578
157	0x3e071ff0	0.13195777
158	0x3e2dc467	0.16969453
159	0xbb5e1567	-0.0033887269
160	0x3d473eba	0.048643805
161	0xbcd6e61b	-0.02623277
162	0xbcfa1b58	-0.030530617
163	0xbc8b870d	-0.01703217
164	0xbd1c40cc	-0.038147733
165	0x3d1fd87c	0.039024815
166	0xbe2fdd16	-0.17174181
167	0x3c19dd1a	0.009391094
168	0xbd247955	-0.040154774
169	0x3dabc904	0.0838795
170	0x3d8ff1a9	0.07028515
171	0xbdf5fbe8	-0.12010938
172	0xbdc43e10	-0.0958215
173	0xbcbcfbbd	-0.023069257
174	0xbe1ab9b0	-0.15109897
175	0xbc02d82e	-0.007986112
176	0xbe2c5c16	-0.16832003
177	0xbe36d9d9	-0.1785654
178	0xbe569b9b	-0.20957796
179	0xbe0ee5ba	-0.13954821
180	0xbe681b79	-0.2266673
181	0xbd3a5cce	-0.04549866
182	0xbe8a05e2	-0.26957613
183	0xbddd0c4c	-0.10793361
184	0xbe35ed72	-0.1776636
185	0xbd39811e	-0.04528915
186	0xbc8394bb	-0.016062131
187	0xbd24953e	-0.04018139
188	0xbd9ccc70	-0.07656181
189	0xbe0214e3	-0.1270328
190	0xbd14983d	-0.036278
191	0xbd34a212	-0.044099875
192	0xbe462846	-0.193513
193	0xbc91cb5d	-0.017797166
194	0xbdbacd91	-0.0912124
195	0xbdbc6296	-0.09198491
196	0xbe19c5cb	-0.15016858
197	0xbe0cb509	-0.13740934
198	0xbe9a3c98	-0.30124354
199	0xbe27c8a4	-0.16385132
200	0x3d51c8f4	0.051217034
201	0xbbe91492	-0.007113048
202	0xbd473d72	-0.048642583
203	0xbdf139a7	-0.117785744
204	0xbc88f9d7	-0.016720695
205	0xbd965dcf	-0.07342111
206	0x3d0a05a1	0.033696774
207	0x3d1cecf5	0.038311917
208	0xbdf0e9bf	-0.117633335
209	0xbe149b93	-0.14512472
210	0xbd9c416f	-0.07629668
211	0xbd71c0de	-0.059021823
212	0x3e3964c3	0.18104844
213	0xbd14f75f	-0.036368724
214	0xbdd67033	-0.10470619
215	0xbd9aeea0	-0.07565045
216	0x3ddcf22e	0.107883796
217	0x3c2bfd44	0.010497395
218	0xbdf0f0c0	-0.117646694
219	0xbc45e1af	-0.012077733
220	0xbda1f598	-0.079081714
221	0xbcc6ff6e	-0.02429172
222	0xbd356c47	-0.044292714
223	0x3d5961d3	0.053071808
224	0xbdf96959	-0.121782966
225	0xbe044b68	-0.1291939
226	0xbde2c1e9	-0.11072142
227	0x3daefef6	0.08544724
228	0xbddcc1ba	-0.10779138
229	0x3d97aa77	0.074055605
230	0x3db74784	0.089491874
231	0xbd953e07	-0.072872214
232	0xbd1c915c	-0.038224563
233	0xbd9e3871	-0.07725609
234	0xbe594ee0	-0.21221495
235	0xbe60f5d7	-0.2196878
236	0xbd73b108	-0.059495002
237	0xbd8521fa	-0.06500621
238	0xbd99567b	-0.07487198
239	0xbe715a50	-0.23569608
240	0xbe220e7e	-0.15825841
241	0x3eb9690d	0.3621296
242	0x3d5adb1b	0.05343161
243	0x3d52f44f	0.051502522
244	0xbe010280	-0.1259861
245	0xbd9723b2	-0.07379855
246	0xbdc7bdbd	-0.097529866
247	0xbda1e825	-0.07905606
248	0x3db5d9ad	0.08879409
249	0xbd77690b	-0.06040291
250	0x3dd0bb32	0.10191955
251	0x3c71f2c9	0.014767357
252	0xbcb61868	-0.022228435
253	0x3cdea7d5	0.027179638
254	0x3e146c72	0.14494494
255	0x3e0a44ed	0.13502856

lstm.weight_hh_l0 f4 [256, 64]
0	0x3dbce257	0.092228584
1	0xbd6af21c	-0.0573598
2	0xbe121318	-0.14265096
3	0x3dcc9c77	0.09990781
4	0xbd6bd32f	-0.057574447
5	0xbd5afd42	-0.05346418
6	0xbd3761ec	-0.04477112
7	0x3e008408	0.12550366
8	0xbe0a9125	-0.1353193
9	0xbdaad9c6	-0.08342318
10	0xbd82d23d	-0.06387756
11	0xbd56eef1	-0.052473966
12	0x3e201a94	0.15635139
13	0x3d6287d1	0.055305306
14	0xbdd3928b	-0.10330685
15	0x3d26efc1	0.04075599
16	0x3cb2ec85	0.021841297
17	0x3db5e279	0.08881087
18	0x3e090601	0.13381197
19	0xbe4480db	-0.1918978
20	0x3d06d297	0.032915678
21	0xbdec43b0	-0.11536348
22	0x3d7c422f	0.061586555
23	0xbd8ae30e	-0.067815885
24	0xbdb9a5e7	-0.090648465
25	0x3de5ae75	0.11214916
26	0x3e3a4e39	0.18193902
27	0x3db1b9f0	0.08678043
28	0x3db06425	0.08612851
29	0xbd6aa157	-0.057282772
30	0x3cebd230	0.028786749
31	0xbd8a141e	-0.06742118
32	0xbd26e29c	-0.040743455
33	0xbadaac70	-0.001668347
34	0x3c9e580e	0.019329097
35	0x3c896a4e	0.016774323
36	0x3d715b91	0.058925215
37	0xbc6931be	-0.014233051
38	0x3e05f35e	0.13081118
39	0x3df8be5d	0.12145684
40	0xbdadf56a	-0.08494075
41	0x3ca443f5	0.020051936
42	0x3cae64d1	0.021288307
43	0xbdc45c29	-0.09587891
44	0x3e58178f	0.21102737
45	0xbe629bb5	-0.2212971
46	0x3d65cdee	0.056104593
47	0x3d08e24f	0.03341895
48	0x3db169eb	0.086627804
49	0x3dd9c90d	0.106340505
50	0x3d686d40	0.056744814
51	0xbe77e22a	-0.24207368
52	0x3d5acc3b	0.053417426
53	0x3e2d4faf	0.16924928
54	0x3e1b2b88	0.15153325
55	0xbdbe03b5	-0.09278051
56	0x3b90ec5f	0.004422709
57	0x3d66a2d2	0.05630762
58	0x3e050164	0.12988812
59	0xbca4d1d9	-0.020119594
60	0xbdb523ee	-0.08844744
61	0x3e21a069	0.15783848
62	0x3d8bb5fb	0.068218194
63	0x3e59eb37	0.21281134
64	0x3d0e752e	0.03477972
65	0x3d5584af	0.05212849
66	0x3d308c71	0.043102685
67	0xbd260cda	-0.0405396
68	0xbb34f6cf	-0.002761293
69	0x3dadfeb6	0.08495848
70	0x3ddefb7b	0.1088781
71	0x3d8331cf	0.064059846
72	0x3e13b390	0.14423966
73	0x3d81d906	0.06340222
74	0xbda985aa	-0.082774475
75	0xbbe934ed	-0.007116905
76	0x3d0f46c4	0.034979597
77	0x3dda925f	0.10672449
78	0xbd68353e	-0.0566914
79	0x3e06296e	0.13101742
80	0xbdaf427a	-0.08557601
81	0xbc99975e	-0.018748935
82	0xbe03bbc6	-0.12864599
83	0x3d8f3af2	0.06993665
84	0xbdbff37b	-0.09372612
85	0xbdd7285f	-0.10505747
86	0x3e222b89	0.1583692
87	0x3de1f149	0.110323496
88	0xbc6650f3	-0.014057386
89	0x3d829332	0.063757315
90	0x3e1a54ec	0.15071458
91	0xbc8dc6ad	-0.01730665
92	0xbd5f3bed	-0.05450051
93	0xbda093be	-0.078406796
94	0xbe21213b	-0.15735333
95	0xbbb0df46	-0.00539771
96	0x3d9ffcbb	0.078118764
97	0x3e1ffbe8	0.15623438
98	0xbe113a15	-0.14182313
99	0xbd256cb1	-0.04038686
100	0xbd989497	-0.07450216
101	0xbdc1def4	-0.09466353
102	0x3c405307	0.011738545
103	0x3d864bb5	0.06557409
104	0x3e0303c9	0.12794413
105	0xbe141157	-0.1445974
106	0x3c882eae	0.016623821
107	0x3cc99370	0.024606436
108	0xbc93a8ec	-0.018024884
109	0x3dc6b3c4	0.09702256
110	0x3d7c57b9	0.061607096
111	0x3da8e71b	0.08247205
112	0x3e05094a	0.12991825
113	0x3dc881b7	0.09790366
114	0xbd4c3766	-0.04985752
115	0xbe3b659d	-0.18300481
116	0xbd807c2d	-0.06273685
117	0xbdebe6d7	-0.115186386
118	0x3c512f7e	0.012767671
119	0xbc578f58	-0.013156734
120	0xbd76b99e	-0.060235612
121	0xbdf8e007	-0.12152105
122	0x3e3e15be	0.18562981
123	0xbdb1d444	-0.086830646
124	0xbdad1e85	-0.08453087
125	0xbd96dcaa	-0.07366307
126	0x3d69ebd5	0.057109673
127	0x3da9f38e	0.082984075
128	0xbd5b7b91	-0.05358464
129	0x3d889347	0.06668716
130	0xbdfb5d60	-0.12273669
131	0x3db58af4	0.08864394
132	0xbe072a88	-0.13199818
133	0xbca0393b	-0.01955854
134	0x3d827677	0.063702516
135	0x3d4a410e	0.049378447
136	0x3ce8726e	0.028374877
137	0x3c6c528d	0.0144239785
138	0xbcaae168	-0.020859435
139	0xbd8ad2e7	-0.06778508
140	0xbd19b038	-0.03752157
141	0xbd4d6815	-0.05014809
142	0x3dde782f	0.10862767
143	0x3e05a88d	0.13052578
144	0xbcd22365	-0.025651643
145	0x3d09d837	0.033653464
146	0xbda49a90	-0.08037293
147	0x3ddbfee5	0.10741977
148	0xbdbf2888	-0.093339026
149	0xbcb9183f	-0.02259457
150	0x3e16edad	0.14739104
151	0xbcd27fbd	-0.025695676
152	0xbde1196e	-0.109911785
153	0xbdbf5dc7	-0.093440585
154	0x3d7c9026	0.06166091
155	0xbd421aa7	-0.0473887
156	0x3d5f50a4	0.054520264
157	0x3dd4d27e	0.10391711
158	0x3e03a1d0	0.12854695
159	0xbce23875	-0.027614811
160	0x3e1dc715	0.15407975
161	0x3dd01745	0.10160688
162	0xbdb45ee6	-0.08807163
163	0x3c0158cd	0.007894707
164	0xbd31f0f0	-0.043442667
165	0x3dc8a044	0.09796193
166	0x3c3c9384	0.01150978
167	0xbc04a516	-0.008096
168	0xbdb667bb	-0.08906504
169	0x3d95a90a	0.07307632
170	0x3e20288d	0.15640469
171	0xbdda003d	-0.10644577
172	0x3c7c9ed7	0.01541873
173	0x3d9ea31b	0.07745954
174	0x3e03e92c	0.12881917
175	0xbb6c3990	-0.0036045052
176	0x3e33dd5b	0.17564909
177	0xbd0cb454	-0.03435166
178	0xbe21e3f3	-0.15809612
179	0xbe3cdb62	-0.18443063
180	0xbe1af80e	-0.15133688
181	0x3d213f4c	0.039367005
182	0x39b70198	0.00034905667
183	0xbdf12ebb	-0.11776491
184	0xbd04d50e	-0.032429747
185	0xbdb48abf	-0.08815526
186	0x3d4d1f37	0.050078597
187	0x3dff69e1	0.12471367
188	0xbda0f213	-0.07858672
189	0x3d900146	0.07031493
190	0xbc41ea5e	-0.011835663
191	0xbcb2cbaa	-0.02182563
192	0xbd18536f	-0.037188943
193	0x3d85bb02	0.065298095
194	0x3dd99757	0.10624569
195	0xbd19b673	-0.037527513
196	0xbd889bc0	-0.06670332
197	0xbc2fca9d	-0.010729459
198	0xbcd75781	-0.026286842
199	0x3d6f68f1	0.05844969
200	0xbc985482	-0.018594984
201	0x3cac8696	0.02106027
202	0x3e56fe05	0.20995338
203	0xbd8e64f6	-0.069528505
204	0x3d7b4116	0.061341368
205	0x3dad48ab	0.08461126
206	0xbd56e845	-0.052467603
207	0xbd973c68	-0.073845685
208	0xbe023724	-0.12716347
209	0x3e1aabf5	0.15104659
210	0x3ca6486a	0.020298202
211	0x3d732e18	0.05937013
212	0xbd889c70	-0.06670463
213	0xbe0c842b	-0.13722293
214	0x3d513679	0.05107734
215	0x3d8c7f4b	0.06860217
216	0xbd9e6fb0	-0.077361465
217	0x3d81734a	0.06320818
218	0xbcc3cadb	-0.02390044
219	0x3e0d9631	0.13826825
220	0xbdd11b7a	-0.10210319
221	0x3cef165d	0.029185468
222	0xbdfacff8	-0.12246698
223	0xbe2eb297	-0.17060314
224	0xbd9281c8	-0.0715366
225	0xbdcb02cb	-0.09912642
226	0x3d7b7383	0.061389457
227	0x3c528652	0.012849407
228	0xbd0c0213	-0.034181666
229	0xbda726d1	-0.081617005
230	0x3e1ee1d7	0.15515839
231	0xbdcba67f	-0.09943866
232	0x3b388348	0.0028154422
233	0xbe422bbe	-0.18961999
234	0x3e183ced	0.14866991
235	0x3d2b49c0	0.04181838
236	0x3e51bf7c	0.20483202
237	0xbe13396e	-0.14377376
238	0x3dc82ce5	0.09774188
239	0xbdeb51fa	-0.11490245
240	0xbca6feb6	-0.020385128
241	0xbda96880	-0.08271885
242	0x3db00b5d	0.085959174
243	0xbd27b61f	-0.04094517
244	0xbe61ad0d	-0.2203867
245	0xbc2962d6	-0.010338506
246	0x3e068f42	0.13140586
247	0xbd3805f1	-0.04492754
248	0x3d2d1864	0.04225959
249	0xbd90ca65	-0.07069854
250	0x3c7f5c96	0.015586039
251	0x3c1b1ec7	0.009467787
252	0x3db68c4c	0.08913478
253	0xbd942fea	-0.072357014
254	0x3db3b773	0.087752245
255	0xbc1bbccb	-0.009505461

lstm.bias_ih_l0 f4 [256]
0	0xbe814a76	-0.25252122
1	0x3de6398b	0.11241444
2	0xbdb4997b	-0.088183366
3	0xbde93f78	-0.11389059
4	0xbe0486ab	-0.12941997
5	0xbe4d51b2	-0.20050696
6	0xbce7ddb0	-0.028303951
7	0xbe2f96e0	-0.17147398
8	0xba3033f4	-0.0006721609
9	0xbe5ead93	-0.21745901
10	0xbdf15c76	-0.11785214
11	0x3da49ad2	0.08037342
12	0xbe1663b7	-0.14686476
13	0xbe8f49c8	-0.27985978
14	0xbe29b91f	-0.16574524
15	0x3c7c6a41	0.015406192
16	0xbd538c9a	-0.05164776
17	0xbe0015d6	-0.1250833
18	0xbcc21873	-0.023693299
19	0x3e4495a6	0.19197711
20	0xbd4f83e3	-0.050662886
21	0xbd93f7c3	-0.07224991
22	0xbe4ac9ca	-0.19803539
23	0xbe538faa	-0.20660272
24	0xbe28f643	-0.16500191
25	0xbe021ff1	-0.12707497
26	0x3e022b61	0.1271186
27	0xbd102f23	-0.035201203
28	0x3dbbab70	0.091635585
29	0xbce9695d	-0.028492624
30	0x3c424374	0.011856902
31	0x3d6e6c50	0.058208764
32	0xbe35a722	-0.17739537
33	0xbd96f6f8	-0.07371324
34	0xbc0cc90d	-0.008592856
35	0xbd28e9dd	-0.041238654
36	0xbe6d0b1a	-0.23148766
37	0xbceaf544	-0.028681405
38	0x3decebcd	0.11568413
39	0xbd18b1fd	-0.037279118
40	0xbe643d5a	-0.22289029
41	0xbd85a234	-0.065250784
42	0xbd0a6df0	-0.03379625
43	0x3d24f330	0.040270984
44	0xbe14c59d	-0.14528508
45	0x3c897253	0.016778147
46	0xbdfe4fbc	-0.12417552
47	0x3d640efa	0.055678345
48	0x3d39e7df	0.045387145
49	0x3dc530fb	0.09628483
50	0xbd67caf0	-0.05659002
51	0x3dc844b1	0.09778727
52	0xbda21b85	-0.07915405
53	0xbaf87f93	-0.0018958919
54	0x3c6d44e2	0.014481755
55	0xbd918fb7	-0.071074896
56	0xbd47f132	-0.048814006
57	0xbdb65f1a	-0.08904858
58	0x3d4e5f98	0.050384134
59	0xbe3bd104	-0.18341452
60	0xbc1480b6	-0.00906389
61	0x3df1cbbc	0.118064374
62	0xbdd6dadd	-0.104909636
63	0xbcff5eb2	-0.031173084
64	0xbe108c79	-0.14116086
65	0xbd7999c9	-0.060937677
66	0xbddace43	-0.106838726
67	0xbe547f73	-0.20751743
68	0xbe21cc54	-0.15800601
69	0xbdc7fc03	-0.09764864
70	0xbe465a32	-0.19370344
71	0xbe0695f2	-0.13143137
72	0x3dd0e8ba	0.10200639
73	0xbd6e651d	-0.058201898
74	0x3dee2f93	0.11630168
75	0x3d3666d4	0.04453166
76	0xbe3de32f	-0.18543695
77	0xbe61f6f3	-0.2206686
78	0xbe68c0dd	-0.22729822
79	0xbbf88732	-0.007584476
80	0xbde3a87b	-0.111161195
81	0xbe583211	-0.21112849
82	0xbc9fb754	-0.019496597
83	0x3e136a25	0.1439596
84	0xbc070631	-0.008241222
85	0xbdfe63a1	-0.124213465
86	0xbe0ada5c	-0.1355986
87	0x3d0de952	0.03464634
88	0xbe5d0c70	-0.21586776
89	0xbd9933bb	-0.0748057
90	0xbd2ef058	-0.04270968
91	0x3d8a37f4	0.067489535
92	0x3e3c1a58	0.18369424
93	0xbe141182	-0.14459804
94	0xbde11f95	-0.10992352
95	0xbc35ea9f	-0.011103301
96	0xbe2fffe8	-0.17187464
97	0xbe15c466	-0.14625701
98	0xbe12ad79	-0.14323987
99	0x3b12139d	0.0022289522
100	0xbde2d518	-0.11075801
101	0xbdd96305	-0.106145896
102	0x3dd71e5b	0.10503837
103	0x3d9ecdb9	0.07754082
104	0xbe3bf852	-0.18356445
105	0xbd23e349	-0.040011678
106	0xbdb29bec	-0.08721146
107	0x3e061455	0.13093694
108	0xbdc1f5ad	-0.09470687
109	0x3d2bef49	0.041976247
110	0xbe18b102	-0.14911273
111	0xbd0a7f63	-0.03381289
112	0x3dc85d2c	0.09783396
113	0x3dc3e3ea	0.095649555
114	0xbe57abcf	-0.21061634
115	0x3e01ccb6	0.12675747
116	0xbd650279	-0.05591056
117	0x3dd91af4	0.10600844
118	0xbd425db4	-0.047452644
119	0x3e4512fe	0.19245526
120	0xbd7d663a	-0.06186507
121	0xbe5bcfe8	-0.21466029
122	0x3de73e58	0.11291188
123	0xbe5c7c9e	-0.21531913
124	0x3dc601c3	0.09668305
125	0xbd9c1836	-0.07621805
126	0x3d601298	0.054705232
127	0x3e8b8511	0.2724996
128	0x3cefcd7a	0.029272784
129	0x3d2fa5cf	0.042882737
130	0x3c52fba7	0.012877381
131	0x3dc701a5	0.097171105
132	0xbd6bde83	-0.05758525
133	0x3d9103f4	0.07080832
134	0xbbbd61ba	-0.005779472
135	0x3d33902f	0.043838676
136	0xbd10adc3	-0.035321962
137	0x3d7e56a1	0.062094335
138	0x3d557be7	0.052120116
139	0x3c907584	0.01763416
140	0xbd8eb7dd	-0.06968663
141	0x3d89b3e6	0.06723766
142	0xbc2a4f13	-0.010394829
143	0x3d9915dc	0.074748725
144	0x3d196c03	0.037456524
145	0x3da16a92	0.07881655
146	0xbc2ae8ee	-0.010431511
147	0x3d645f4a	0.055754937
148	0x3dacc324	0.084356576
149	0xbc3e3e6a	-0.01161156
150	0xbc0a0321	-0.008423598
151	0xbdc26455	-0.09491793
152	0xbd15c85d	-0.036568034
153	0xbd40b736	-0.047049724
154	0xbdbee196	-0.09320371
155	0xbdd0fbb2	-0.10204257
156	0xbdc4bf10	-0.09606755
157	0x3e0dc543	0.1384478
158	0x3b3c7e11	0.0028761665
159	0xbce9d9d0	-0.028546244
160	0xbd54e8dd	-0.05197989
161	0x3da5713f	0.080782406
162	0xbc9a5a79	-0.018841969
163	0xbd93f9ac	-0.072253555
164	0x3d0a7231	0.033800308
165	0xbd91f3a5	-0.0712655
166	0xbd85a8b9	-0.06526322
167	0x3c5b9b43	0.0134037165
168	0xbc804ff9	-0.015663134
169	0x3db2feb9	0.08739991
170	0xbd953c0b	-0.07286843
171	0x3dab6ce4	0.083703786
172	0xbdb1bf1d	-0.0867903
173	0x3dc09e73	0.09405222
174	0xbdc95450	-0.098305345
175	0x3d2bf127	0.041978028
176	0x3d9f9af9	0.077932306
177	0x3d2dfb24	0.042475834
178	0xbbc315f1	-0.0059535434
179	0xbd93436b	-0.07190593
180	0xbd5104fb	-0.05103014
181	0x3bb47da9	0.005508144
182	0xbd317da0	-0.043332696
183	0x3db97403	0.090553306
184	0x3d0edb7c	0.034877285
185	0xbbfff3eb	-0.0078110597
186	0xbdf93a59	-0.12169332
187	0xbdaaadb0	-0.083339095
188	0x3dbbd552	0.09171547
189	0xbd2d4621	-0.04230321
190	0x3dcb66a0	0.099316835
191	0xbd125f17	-0.035735216
192	0xbe2ef290	-0.17084718
193	0x3d31a990	0.043374598
194	0x3badee7e	0.0053079715
195	0xbc5af406	-0.013363844
196	0xbe19be36	-0.15013966
197	0xbe245552	-0.16048172
198	0xbe159e58	-0.14611185
199	0xbd43425c	-0.047670707
200	0x3d9e8635	0.07740442
201	0xbdaeb32e	-0.085302696
202	0x3da4a54e	0.08039342
203	0xbe144b5f	-0.14481877
204	0xbe4fdc49	-0.20298876
205	0xbd886b7e	-0.066611275
206	0xbdfa79f9	-0.12230296
207	0xbd079ae9	-0.03310672
208	0xbe35e8b1	-0.17764546
209	0xbe829b91	-0.25509313
210	0xbda1c950	-0.078997254
211	0x3dde4cfa	0.10854526
212	0x3d34c87a	0.0441365
213	0x3c119ee2	0.008887978
214	0xbe3f1f1c	-0.18664211
215	0xbc21bf71	-0.009872303
216	0xbe2d5cbc	-0.16929907
217	0xbd17b8c0	-0.037041426
218	0x3d409cbc	0.047024474
219	0xbd808edb	-0.062772475
220	0xbd6274a3	-0.055287015
221	0xbe1dd970	-0.15414977
222	0xbd4ddfff	-0.050262447
223	0x3bcdc94a	0.006280099
224	0xbe515847	-0.20443831
225	0xbe88f6f2	-0.26750904
226	0xbdef3c3e	-0.11681412
227	0xbd9f8950	-0.07789862
228	0xbe843e61	-0.2582884
229	0x3d9667dc	0.07344028
230	0x3d336369	0.043795977
231	0xbdf62afb	-0.120199166
232	0xbe712a02	-0.23551181
233	0xbe8dad5c	-0.27671325
234	0xbe45d105	-0.19318016
235	0xbbb18022	-0.005416886
236	0xbda835ab	-0.08213361
237	0x3c177e3a	0.009246403
238	0x3ca38c16	0.01996426
239	0xbdb8ed89	-0.09029681
240	0xbcd0bef5	-0.02548168
241	0x3dab46dc	0.08363125
242	0xbe41374f	-0.18868755
243	0x3e11cc2d	0.14238043
244	0xbc6d3386	-0.014477616
245	0xbd9803e4	-0.07422617
246	0xbdbe67f9	-0.09297175
247	0xbc3edc1f	-0.011649161
248	0xbdd5ab21	-0.10433031
249	0xbe4f8f9b	-0.20269625
250	0x3d859f92	0.06524576
251	0xbd905199	-0.070468135
252	0xbd2882db	-0.04114042
253	0xbdf30e01	-0.118679054
254	0x3d5d4db4	0.05402918
255	0x3da6324a	0.081150606

lstm.bias_hh_l0 f4 [256]
0	0xbe95bdba	-0.29246312
1	0xbcb22e9a	-0.021750737
2	0xbd44dcc6	-0.04806211
3	0xbda0b406	-0.07846837
4	0xbe6615c3	-0.22469239
5	0xbdd435cf	-0.10361826
6	0xbde67502	-0.11252786
7	0xbe6016b4	-0.2188366
8	0xbdc93bc5	-0.09825853
9	0xbe241562	-0.16023782
10	0x3d77d7b6	0.060508452
11	0xbe19f319	-0.1503414
12	0xbe596353	-0.21229295
13	0xbe918399	-0.28420714
14	0xbe5eb304	-0.21747977
15	0xbe252c66	-0.16130218
16	0x3bbdb485	0.005789342
17	0xbe1e7fc6	-0.15478429
18	0xbc863ece	-0.01638737
19	0x3df0865c	0.11744377
20	0xbe42776b	-0.18990867
21	0x3d079421	0.03310025
22	0xbdf40cf5	-0.11916534
23	0xbe6b9e68	-0.23009646
24	0xbe9267a8	-0.28594708
25	0x3bbcad51	0.0057579656
26	0x3cc4aaf0	0.02400729
27	0xbd8bca51	-0.06825698
28	0xbdeee284	-0.11664298
29	0xbda23a2c	-0.07921252
30	0xbdd5568c	-0.10416898
31	0x3d1223e0	0.035678744
32	0xbe08adec	-0.13347596
33	0xbe422ab4	-0.18961602
34	0x3bd1994f	0.0063964496
35	0xbce5cb6b	-0.028051099
36	0xbd341e80	-0.0439744
37	0x3daef5e4	0.08542994
38	0xbd905759	-0.0704791
39	0xbe083861	-0.13302757
40	0xbe3aeedc	-0.1825518
41	0xbe3d014a	-0.18457523
42	0xbe847f87	-0.25878546
43	0xbe1f3dba	-0.1555089
44	0xbd98a433	-0.074531935
45	0xbe254c22	-0.16142324
46	0xbb2a9bd7	-0.002603283
47	0xbbe033e4	-0.0068421233
48	0x3cb74e91	0.02237633
49	0x3cd75431	0.026285263
50	0xbdeb0ad7	-0.11476677
51	0xbd94cbaa	-0.07265408
52	0xbe094956	-0.13406882
53	0x3c4e09d4	0.012575585
54	0xbe1ece36	-0.1550835
55	0x3df0f914	0.11766258
56	0xbe53daff	-0.20689009
57	0xbcd57c9b	-0.026060393
58	0x3c39695c	0.011316624
59	0xbd856cc4	-0.06514886
60	0x3cbb836f	0.02288982
61	0x3d188fc0	0.037246466
62	0x3d575dee	0.052579813
63	0x3de2e2a4	0.110783845
64	0xbead46e1	-0.3384314
65	0x3ca8604d	0.020553732
66	0xbe51caa7	-0.20487462
67	0xbcde47aa	-0.027133781
68	0x3b632598	0.0034659859
69	0xbd07ffce	-0.03320294
70	0xbe4fc247	-0.20288955
71	0xbe3d2b7e	-0.18473622
72	0xbd0807ee	-0.033210687
73	0xbe7c015b	-0.24609892
74	0xbd27e333	-0.04098816
75	0x3d86c524	0.0658057
76	0x3b0889a5	0.0020833996
77	0xbe062894	-0.13101417
78	0xbe0e8b1f	-0.13920258
79	0xbe07cc83	-0.13261609
80	0xbd92034f	-0.07129537
81	0xbe122752	-0.14272812
82	0xbc65f630	-0.014035746
83	0x3dae50db	0.08511516
84	0xbdecf7c3	-0.11570694
85	0x3dc4935b	0.09598418
86	0xbe4c3e23	-0.19945578
87	0xbe4f3827	-0.20236264
88	0xbe57a9e0	-0.21060896
89	0xbe17aa29	-0.14811005
90	0xbd8c205f	-0.06842112
91	0xbd508dc8	-0.050916463
92	0x3e5f2a00	0.21793365
93	0xbe1f91bb	-0.15582936
94	0x3da1e2fb	0.07904621
95	0x3e308b54	0.1724065
96	0xbdfb6fa5	-0.12277154
97	0xbddf2f77	-0.10897725
98	0xbe44057c	-0.19142717
99	0xbdf555f2	-0.119792834
100	0xbdce784c	-0.100815386
101	0xbd87d142	-0.0663171
102	0x3da6a2bc	0.08136508
103	0xbc8d9a8e	-0.017285611
104	0xbe8fc141	-0.2807713
105	0xbcdc4c09	-0.026891725
106	0xbe662ab3	-0.22477226
107	0xbc356d36	-0.011073401
108	0x3d26bc9f	0.040707227
109	0xbd72c13b	-0.05926631
110	0x3c59a5ed	0.013284189
111	0x3b73b817	0.0037188584
112	0x3e038ab6	0.12845883
113	0x3c87d6fc	0.016582005
114	0xbe3dee8f	-0.18548034
115	0x3dae2c38	0.08504528
116	0xbe2e42fa	-0.17017737
117	0x3cc345a9	0.023836927
118	0x3d7eea47	0.062235143
119	0x3cf9280b	0.030414602
120	0x3c61cd1a	0.01378181
121	0xbe0587e4	-0.1304012
122	0x3ddf9feb	0.10919174
123	0xbe20be9f	-0.15697716
124	0x3dad210a	0.08453567
125	0xbd60ea9b	-0.054911237
126	0x3d608223	0.054811608
127	0x3e1404f3	0.14455013
128	0x3d8779d8	0.06615037
129	0x3dabcf5c	0.0838916
130	0x3da3f0dd	0.080049254
131	0xbd6c3585	-0.057668228
132	0x3e0df5a1	0.13863231
133	0xbd9c2465	-0.07624129
134	0x3c97b611	0.018519433
135	0xbc948abb	-0.018132558
136	0xbc44145c	-0.011967745
137	0xbd65745e	-0.05601918
138	0xbdf3c3d6	-0.11902587
139	0x3cbfac34	0.023397543
140	0xbc883274	-0.01662562
141	0xbbf10785	-0.0073556327
142	0x3d882779	0.06648154
143	0xbd8abc01	-0.0677414
144	0xbc5a33e0	-0.013318032
145	0xbcfe76c4	-0.031062491
146	0x3d84ad46	0.06478362
147	0xbae0be09	-0.0017146479
148	0xbdc0db92	-0.0941688
149	0x3d64f3e2	0.055896647
150	0xbe0112ac	-0.12604779
151	0x3d76e35a	0.060275413
152	0xbdc14eb2	-0.09438838
153	0x3bc80a75	0.006104762
154	0x3b164b15	0.0022932936
155	0x3d798662	0.060919173
156	0x3de8b4c4	0.11362603
157	0xbdcc54ac	-0.099770874
158	0xbdd2d757	-0.10294979
159	0x3d876e60	0.06612849
160	0x3d30d572	0.043172307
161	0x3d4a67df	0.049415465
162	0xbd2aaea0	-0.04167044
163	0xbc18d0fd	-0.00932717
164	0x3c04961b	0.008092429
165	0xbd12677d	-0.035743225
166	0x3cb1c55f	0.02170056
167	0xbdd91c25	-0.10601071
168	0x3d31595c	0.04329811
169	0x3ceee6da	0.029162813
170	0x3c24b814	0.010053653
171	0x3b0aebc8	0.0021197665
172	0xbcd61bf9	-0.026136385
173	0x3da62e37	0.081142835
174	0x3d4798c4	0.048729673
175	0xbd672694	-0.056433275
176	0xbda3e221	-0.08002115
177	0xbd2f02a7	-0.04272714
178	0x3c00b756	0.007856211
179	0x3dc4efcb	0.096160494
180	0x3decfbe8	0.11571485
181	0xbcc4f6ce	-0.024043467
182	0xbc914d74	-0.017737128
183	0x3d1a1bf3	0.03762431
184	0xbd20efd7	-0.03929123
185	0xbd37d4e5	-0.044880766
186	0x3d23f40b	0.04002766
187	0xbdc779e8	-0.09740049
188	0xbd9ca894	-0.07649341
189	0xbd2e5155	-0.042558033
190	0xbd68f017	-0.056869593
191	0x3dbbd7de	0.09172033
192	0xbe938033	-0.28808746
193	0xbdae93b5	-0.08524267
194	0xbdbe7a8c	-0.09300718
195	0xbe223cff	-0.1584358
196	0xba78ea7a	-0.0009495389
197	0xbe87146c	-0.26382768
198	0x3bb7ab85	0.0056051635
199	0xbe3036f7	-0.17208467
200	0x3ade471b	0.0016958447
201	0xbe22c453	-0.15895204
202	0x3d8ea104	0.06964305
203	0x3d6b61ff	0.057466503
204	0xbdfdea52	-0.12398209
205	0xbe6e698e	-0.23282453
206	0xbe2378ff	-0.15964125
207	0x3d58df16	0.052947126
208	0xbda9067c	-0.0825319
209	0xbe691e15	-0.22765382
210	0x3d1cba6d	0.038263727
211	0x3b811619	0.003939402
212	0xbc8bbafc	-0.017056935
213	0x3ce9f5b7	0.028559549
214	0xbd1c4ae6	-0.038157366
215	0xbd90a3a8	-0.07062465
216	0xbe1bf824	-0.15231377
217	0xbd5a50d0	-0.053299725
218	0x3d35652b	0.044285934
219	0x3dcafc81	0.099114425
220	0x3dcc1653	0.099651955
221	0xbe17399a	-0.14768067
222	0xbd40a0a8	-0.047028214
223	0xbd8f75b5	-0.07004873
224	0xbe33a58e	-0.17543623
225	0xbe474557	-0.19460045
226	0xbdb1baef	-0.08678233
227	0xbe17042d	-0.14747687
228	0xbe6affce	-0.22949144
229	0xbd0a5ab3	-0.033777904
230	0xbd91f33e	-0.07126473
231	0x3c92b2e7	0.017907573
232	0xbe291e74	-0.16515523
233	0xbdd373b8	-0.10324806
234	0xbe3086d3	-0.17238931
235	0x3d9c237f	0.07623958
236	0xbd84f43e	-0.06491898
237	0xbe193408	-0.14961255
238	0xbdedffa6	-0.11621027
239	0xbd1daeb1	-0.038496677
240	0xbd944cea	-0.07241233
241	0xbde9c76b	-0.11414989
242	0xbd497000	-0.049179077
243	0xbd71ed17	-0.059063997
244	0xbdbd133f	-0.092321865
245	0xbd0408e3	-0.032235038
246	0xbe1954b1	-0.14973713
247	0x3dd716af	0.105023734
248	0xbd9dc6b9	-0.07703919
249	0xbe53e1ce	-0.20691606
250	0x3e0d47c1	0.13796903
251	0xbdde7b24	-0.10863331
252	0x3d9b06a7	0.07569628
253	0xbd52a20f	-0.051424082
254	0x3ca58450	0.020204693
255	0x3d38f9ac	0.04515998

lstm.weight_ih_l0_reverse f4 [256, 8]
0	0x3d10646d	0.035252023
1	0x3e580431	0.21095349
2	0x3b15d862	0.002286457
3	0x3dc1b287	0.094578795
4	0x3cbf9432	0.023386095
5	0x3d156427	0.036472466
6	0xbd8d806e	-0.06909262
7	0x3da9474c	0.08265552
8	0x3e2e254a	0.17006412
9	0xbd8af014	-0.067840725
10	0x3e1a895b	0.1509146
11	0x3d148e37	0.03626844
12	0x3ddbb2a3	0.107274316
13	0xbb74816c	-0.0037308587
14	0x3de9093f	0.11378717
15	0x3e105e24	0.14098412
16	0x3d053100	0.032517433
17	0xbe87c0eb	-0.26514372
18	0xbd309deb	-0.043119352
19	0xbddc9c02	-0.10771944
20	0xbd9527df	-0.072829954
21	0xbb88f896	-0.0041800244
22	0x3d313796	0.0432659
23	0x3c3ab66a	0.01139603
24	0xbe0293d4	-0.12751704
25	0x3e023af4	0.12717801
26	0xbdcd606e	-0.10028158
27	0xbdef0288	-0.11670405
28	0xbbb612f9	-0.005556461
29	0xbdd4ab6d	-0.103842594
30	0xbe1c9a56	-0.1529325
31	0xbc6bb234	-0.014385749
32	0x3b9e3360	0.0048279017
33	0xbe280253	-0.16407137
34	0x3d66e4a3	0.05637039
35	0xbdb5b2da	-0.08872004
36	0xbb969503	-0.0045954003
37	0x3da95bc6	0.082694575
38	0x3df60705	0.120130576
39	0x3a441d06	0.00074811315
40	0x3d7ca87a	0.06168411
41	0x3dc01b56	0.09380214
42	0xbdf55147	-0.11978393
43	0x3db2afff	0.08724975
44	0x3da43fe2	0.08019997
45	0xbd58d68b	-0.05293898
46	0x3bb95626	0.0056560216
47	0x3a5a78fd	0.00083340687
48	0xbdcd17e8	-0.100143254
49	0x3e7bd7ec	0.24594086
50	0xbd1b6916	-0.037942015
51	0xbc7f5ad6	-0.015585622
52	0xbdde7676	-0.108624384
53	0xbdace50d	-0.084421255
54	0x3c8d0ae7	0.017217113
55	0xbe0a68de	-0.13516566
56	0xbd2b88d5	-0.04187854
57	0x3e78fb34	0.24314576
58	0xbd549754	-0.05190213
59	0xbe0648cc	-0.13113707
60	0xbe52f599	-0.206015
61	0x3d4879d4	0.04894431
62	0xbc16c42d	-0.009202045
63	0x3d61cc58	0.055126518
64	0xbdf88b7a	-0.12135978
65	0x3e5dcbeb	0.2165982
66	0xbe09bd4e	-0.1345112
67	0xb99204d2	-0.0002785088
68	0xbcd99702	-0.026561264
69	0x3c081c50	0.0083075315
70	0x3d9623ae	0.07331024
71	0xbdcfc9fe	-0.10145949
72	0x3e6c3db1	0.23070408
73	0x3ed283b8	0.41116118
74	0x3c9a8701	0.018863203
75	0x3e669681	0.2251835
76	0x3ded0497	0.11573141
77	0x3de0108b	0.10940655
78	0x3dfe2351	0.1240908
79	0x3e395f95	0.18102868
80	0xbc999774	-0.018748976
81	0xbe165c22	-0.14683583
82	0xbca4845b	-0.020082643
83	0xbd1cd4bd	-0.03828882
84	0xbe08314d	-0.13300057
85	0xbdd1d12e	-0.10244976
86	0xbe11e14f	-0.14246105
87	0xbd14c88a	-0.03632406
88	0x3d3594f2	0.0443315
89	0x3e2118b6	0.15732083
90	0xbd5b891a	-0.053597547
91	0x3e0c8d07	0.13725673
92	0xbd5f07d7	-0.054450836
93	0xbd46f52b	-0.048573654
94	0xbd638066	-0.055542372
95	0x3e07be4b	0.13256185
96	0x3e1fe085	0.15612991
97	0x3ea97720	0.33098698
98	0x3b797374	0.00380632
99	0xbd841fd1	-0.06451381
100	0xbdf0b5f6	-0.11753456
101	0x3d57b0a5	0.052658696
102	0x3e3412e7	0.17585336
103	0x3d2c3450	0.042042077
104	0xbe2d40bf	-0.1691923
105	0xbd1836d4	-0.037161663
106	0xbdff50ba	-0.12466569
107	0xbe58a7a8	-0.21157706
108	0xbe34431f	-0.1760373
109	0xbe53b827	-0.20675717
110	0xbe7dbe74	-0.24779683
111	0xbd93b88a	-0.072129324
112	0x3e542377	0.20716654
113	0x3ecb6659	0.39726523
114	0x3deaf1d9	0.1147191
115	0x3dd81111	0.1055013
116	0x3e4488f3	0.19192867
117	0x3d80413b	0.06262442
118	0x3de63f7b	0.11242577
119	0x3e0321a0	0.12805796
120	0xbe3df13b	-0.18549053
121	0x3e89b8a5	0.26898685
122	0xbe2f808d	-0.17138882
123	0xbdd6e3f0	-0.104926944
124	0xbe2ab5f9	-0.1667098
125	0xbe3f65d3	-0.18691187
126	0xbda252a2	-0.07925917
127	0x3bc5a3d8	0.0060314946
128	0xbd04d1b5	-0.032426555
129	0x3dd353d1	0.10318721
130	0x3d469a4a	0.048486985
131	0x3d4ad5f7	0.04952046
132	0xbd608ec2	-0.054823644
133	0x3d4343e0	0.047672153
134	0xb85d2981	-5.272916e-05
135	0x3d9ad004	0.07559207
136	0x3da697ed	0.08134446
137	0x3e7e2596	0.24819025
138	0x3dcac7af	0.09901368
139	0xbc606a1e	-0.013697175
140	0x3d9a5770	0.07536209
141	0xbd9ff5c1	-0.07810546
142	0x3e044310	0.12916207
143	0x3c15b7f9	0.009138101
144	0xbe0c6a8f	-0.13712524
145	0x3e11ec9b	0.14250414
146	0xbd97f353	-0.07419457
147	0xbd849b07	-0.064748816
148	0xbe4b2f73	-0.19842319
149	0xbdeb2b0b	-0.11482819
150	0xbdc9897b	-0.098406754
151	0xbc261c9d	-0.010138658
152	0xbe61a790	-0.22036576
153	0x3d0fa228	0.035066754
154	0xbe6b71a1	-0.22992565
155	0xbe257d9c	-0.16161197
156	0xbcaea9f9	-0.021321284
157	0xbe38fa09	-0.18064131
158	0xbdb9b8d7	-0.090684585
159	0xbe17100b	-0.14752214
160	0xbd373346	-0.044726633
161	0x3e864cad	0.26230374
162	0xbe33238f	-0.17494033
163	0xbe0a8c0e	-0.13529989
164	0xbe063013	-0.13104276
165	0xbdffa63e	-0.1248288
166	0x3d0f1857	0.03493532
167	0xbe05c148	-0.13062012
168	0xbeadfa93	-0.33980235
169	0x3d4f1f0b	0.050566714
170	0xbe2d5fe4	-0.1693111
171	0xbe3f7a0a	-0.18698898
172	0xbeab28a7	-0.33429453
173	0xbe95f15a	-0.292857
174	0xbe283039	-0.16424645
175	0xbe7b1d9e	-0.24523017
176	0xbd747630	-0.059683025
177	0x3b6b20de	0.0035877745
178	0x3db739c8	0.08946568
179	0xbd1df470	-0.038563192
180	0xbd2cbc3a	-0.042171694
181	0xbdfa8c11	-0.12233747
182	0xbdc8185f	-0.097702734
183	0x3c8749bc	0.016514651
184	0xbcee467f	-0.02908635
185	0xbe8a385e	-0.2699613
186	0xbdd79908	-0.10527235
187	0xbe290270	-0.16504836
188	0x3b99edaf	0.0046975235
189	0x3d3b3653	0.045706104
190	0xbd1aac90	-0.037762225
191	0xbd61e73a	-0.055152155
192	0xbdddaf0a	-0.10824402
193	0x3e18bf11	0.14916636
194	0xbcfb5a60	-0.030682743
195	0x3d182196	0.037141405
196	0xbc208442	-0.009797158
197	0x3d169631	0.036764327
198	0xbccd4839	-0.025058853
199	0x3c4aca94	0.0123774
200	0xbe109508	-0.14119351
201	0x3e7098f8	0.23495853
202	0xbe6b7d57	-0.22997032
203	0xbdda297d	-0.106524445
204	0xbe7c0772	-0.24612215
205	0xbe1e36be	-0.1545057
206	0xbe2412d6	-0.1602281
207	0xbe5c945b	-0.21540968
208	0xbd049ce8	-0.0323762
209	0x3ea70757	0.32622787
210	0xbe01193a	-0.1260728
211	0xbe35e83e	-0.17764375
212	0xbdc7e4d6	-0.09760444
213	0xbe0887f8	-0.13333118
214	0xbd396a8f	-0.045267638
215	0xbe7858d0	-0.2425263
216	0x3ac4e8d3	0.0015023
217	0x3efe18cb	0.4962829
218	0x3dfa781a	0.12229939
219	0x3dead9ca	0.11467321
220	0xbcc50974	-0.02405236
221	0xbcbe6b94	-0.023244657
222	0x3e45af9f	0.19305275
223	0x3e2c8b8c	0.16850108
224	0xbe38cc95	-0.18046792
225	0x3e0df5f9	0.13863362
226	0xbd84654d	-0.06464634
227	0xbd8ce939	-0.06880421
228	0xbd66f7b9	-0.05638859
229	0xbd2e1cd3	-0.042507958
230	0xbe15153c	-0.14558882
231	0xbd522e1b	-0.0513135
232	0xbe2e125b	-0.1699919
233	0x3d54b3f0	0.051929414
234	0xbcd613f4	-0.026132561
235	0xbccba978	-0.024861082
236	0xbe5ceb00	-0.2157402
237	0xbc3b0f1d	-0.0114171775
238	0xbc9e6375	-0.019334534
239	0xbe33f913	-0.17575483
240	0x3c4e82e5	0.01260445
241	0x3e904f3a	0.28185445
242	0x3cbfc26c	0.023408137
243	0x38de8e91	0.0001061234
244	0x3d59f2b5	0.05320998
245	0xbd876063	-0.06610181
246	0xbda945d0	-0.08265269
247	0x3d7a2616	0.061071478
248	0xbe4c8ad4	-0.19974834
249	0x3ebcc129	0.3686612
250	0xbe866e9a	-0.26256257
251	0xbdb27017	-0.08712786
252	0xbeb10933	-0.3457733
253	0xbe148fa2	-0.14507917
254	0xbe0c8e45	-0.13726147
255	0xbdf2dfc2	-0.11859085

lstm.weight_hh_l0_reverse f4 [256, 64]
0	0x3dbc3140	0.09189081
1	0x3cfcf7f6	0.030879956
2	0xbe38a26e	-0.18030712
3	0xbe68d968	-0.22739184
4	0xbacd0f4f	-0.0015644821
5	0xbdeda11f	-0.11602997
6	0x3d7fc654	0.062445
7	0xbe425900	-0.18979263
8	0xbd41ac00	-0.047283173
9	0x3e3eaf34	0.18621522
10	0x3cf378f7	0.029720766
11	0x3e56209f	0.20910881
12	0x3e635dff	0.22203825
13	0x3bf92ebb	0.0076044477
14	0xbe018ad2	-0.12650612
15	0x3d9781d9	0.07397813
16	0xbd830c12	-0.063987866
17	0x3dceef95	0.101042904
18	0xbdcbaf9f	-0.099456064
19	0x3cfdf49b	0.031000426
20	0xbe185778	-0.14877117
21	0x3e1b8fd9	0.15191592
22	0xbe058f15	-0.13042863
23	0xbdd84153	-0.105593346
24	0xbdef73c2	-0.11692001
25	0xbd820de9	-0.063503094
26	0xbc42822e	-0.011871858
27	0x3e6a4dcc	0.2288124
28	0x3d80e855	0.06294314
29	0xbdf08028	-0.11743194
30	0x3cf38141	0.029724719
31	0x3e4de95f	0.20108555
32	0xbe4e26dc	-0.20132011
33	0xbd7c091c	-0.061532125
34	0xbe493bef	-0.19651769
35	0xbdc6b233	-0.097019576
36	0xbdbc39c2	-0.09190704
37	0xbc04455a	-0.008073175
38	0xbd524a78	-0.05134055
39	0xbc7c4132	-0.015396403
40	0xbdf34f78	-0.11880392
41	0xbdad5e31	-0.08465231
42	0xbd049cab	-0.032375973
43	0x3969ad6c	0.00022285216
44	0xbd8da8b9	-0.06916947
45	0xbcabe563	-0.020983404
46	0xbde1dade	-0.11028074
47	0xbe1ddcc0	-0.1541624
48	0x3d94c74e	0.07264577
49	0x3dfa5903	0.12224009
50	0xbdcc63b5	-0.09979955
51	0x3e72785e	0.23678729
52	0x3cedfa5e	0.029050048
53	0x3dbb2200	0.09137344
54	0x3d127967	0.03576031
55	0x3ded9013	0.115997456
56	0xbe4de51a	-0.20106927
57	0x3d0c5495	0.03426035
58	0xbb14da9e	-0.0022713314
59	0xbdb9c1a4	-0.09070137
60	0x3c8e61c6	0.017380606
61	0x3d172aa0	0.036905885
62	0x3ccf8af8	0.02533482
63	0xbdc6dc0c	-0.09709939
64	0x3ddae4b6	0.106881544
65	0xbe037c80	-0.12840462
66	0xbe1da904	-0.15396506
67	0xbde5a99a	-0.112139896
68	0x3de33fdc	0.110961646
69	0xbd954f3d	-0.07290504
70	0xbc8ac20e	-0.016938236
71	0xbe9a7c2e	-0.30172867
72	0xbd8c9eef	-0.06866252
73	0xbe1e613e	-0.15466782
74	0x3d8e0896	0.069352314
75	0x3da9b446	0.082863376
76	0x3c9360d1	0.017990502
77	0xbd08fdba	-0.033445098
78	0x3d5e0d09	0.05421165
79	0x3e4fe94a	0.20303836
80	0x3db0ec64	0.08638838
81	0xbcfea626	-0.031085085
82	0xbc55b250	-0.013043001
83	0x3a42f0b4	0.000743638
84	0x3d34c32e	0.04413145
85	0x3df29089	0.11843974
86	0xbcaa52c9	-0.020791428
87	0x3de5b0e0	0.11215377
88	0xbd57642d	-0.05258577
89	0xbe1ad4e9	-0.15120281
90	0x3b5e00b1	0.0033874924
91	0x3c8fe2ce	0.017564204
92	0x3dc0f08f	0.09420883
93	0x3d709da7	0.0587441
94	0x3dfce32b	0.12348016
95	0x3d556002	0.052093513
96	0xbcdab4e2	-0.02669758
97	0xbe2adf5b	-0.16686766
98	0xbe2db9d6	-0.16965422
99	0xbde300d4	-0.11084142
100	0xbd1bddaf	-0.03805321
101	0x3d625f49	0.055266652
102	0x3dc93e96	0.098263904
103	0x3d8cf4b7	0.06882613
104	0x3ada35de	0.0016648134
105	0xbde5747d	-0.11203859
106	0x3d957934	0.07298508
107	0x3e2f308a	0.1710836
108	0xbcb51a58	-0.022107288
109	0xbe1bfcca	-0.1523315
110	0xbd06d83d	-0.032921065
111	0xbe4c4c01	-0.19950868
112	0xbe2378e5	-0.15964086
113	0x3c420099	0.011840963
114	0xbd9f3cc5	-0.07775263
115	0x3e13488c	0.14383143
116	0x3cc0bc06	0.023527157
117	0x3e1bf3eb	0.15229766
118	0xbcff8ff3	-0.03119657
119	0x3cb38079	0.021911846
120	0xbd46d281	-0.048540596
121	0xbc0b0a84	-0.008486394
122	0xbdf21e90	-0.118222356
123	0xbe1b9331	-0.15192868
124	0x3d00d1dc	0.031450137
125	0x3d4cc621	0.049993638
126	0xbdff4f69	-0.12466318
127	0xbe3d204d	-0.18469353
128	0xbc59c02c	-0.013290446
129	0xbd672e4e	-0.056440644
130	0xbde96385	-0.11395935
131	0xbd9ed369	-0.07755167
132	0xbc17f889	-0.009275564
133	0x3d279bcc	0.040920064
134	0xbc157774	-0.009122718
135	0xbe2751d8	-0.16339815
136	0xbdc6435a	-0.09680815
137	0xbdac67da	-0.084182456
138	0xbda9e99b	-0.0829651
139	0x3dc204a4	0.094735414
140	0xbe6d9b67	-0.23203813
141	0x3db56b29	0.0885833
142	0x3dde9ac8	0.10869366
143	0xbd8f0114	-0.069826275
144	0xbcf92629	-0.030413704
145	0xbda7e336	-0.08197634
146	0x3d4e7758	0.050406784
147	0xbdd83045	-0.10556082
148	0x3dd67c07	0.10472875
149	0x3bbbd3e8	0.0057320483
150	0xbd6c2032	-0.05764789
151	0xbcbb5178	-0.022865996
152	0xbc94fdd4	-0.018187441
153	0xbc411070	-0.011783704
154	0xbd0f1da3	-0.034940373
155	0xbd6f5bd9	-0.058437202
156	0x3d4f3e6d	0.050596643
157	0x3c79f131	0.015255258
158	0xbe02c07f	-0.12768744
159	0x3dd3e628	0.10346633
160	0x3db6d1ca	0.08926733
161	0xbdac623f	-0.084171765
162	0x3dc74f98	0.09731978
163	0x3c2266e0	0.009912223
164	0x3ce49590	0.027903348
165	0x3daa70b5	0.083222784
166	0x3db892ee	0.090123996
167	0x3d2106a7	0.039312985
168	0xbdd38d72	-0.10329713
169	0xbd226a2d	-0.03965204
170	0x3d850c0a	0.06496437
171	0xbc88e85c	-0.01671236
172	0xbcb4cded	-0.02207085
173	0xbdc5315e	-0.09628557
174	0xbd28b4bf	-0.041187998
175	0x3d274a2d	0.040842224
176	0xbe872ab9	-0.26399782
177	0x3d9782e6	0.07398014
178	0xbcbadc01	-0.022809984
179	0xbcb38f86	-0.021919023
180	0xbd5ae1e4	-0.053438082
181	0xbd138aa6	-0.036020897
182	0x3d9ede08	0.07757193
183	0x3df192f3	0.117956065
184	0xbcc59582	-0.024119142
185	0x3b836cf4	0.004010791
186	0x3e0298cd	0.12753601
187	0x3cc5dfe5	0.024154613
188	0xbe17c7f5	-0.14822371
189	0xbdf7cc18	-0.12099475
190	0x3d427979	0.047479127
191	0xbd2c6e37	-0.042097297
192	0x3e3d3370	0.18476653
193	0x3d807de5	0.062740125
194	0x3ca78a90	0.020451814
195	0x3d015cb8	0.031582564
196	0xbdc2478d	-0.094863035
197	0x3dce7957	0.100817375
198	0xbdb68b6a	-0.0891331
199	0xbe0ede17	-0.13951908
200	0xbe21677d	-0.15762134
201	0x3e15596c	0.14584893
202	0x3c958797	0.01825313
203	0x3da8895b	0.082293235
204	0x3e3a9d9f	0.1822419
205	0xbdd6e186	-0.10492234
206	0xbe602a60	-0.21891165
207	0x3de11fa8	0.10992366
208	0xbb65b6d8	-0.003505161
209	0x3e2253e9	0.15852322
210	0xbe80d85b	-0.25165066
211	0x3ce53d62	0.027983371
212	0xbe1a991e	-0.15097472
213	0xbca2cde3	-0.019873565
214	0xbd541d38	-0.051785678
215	0xbd15a9dc	-0.036538944
216	0xbe2be0cf	-0.16784976
217	0x3ca76b92	0.020437036
218	0x3e0cdee3	0.137569
219	0x3c8f0487	0.017458213
220	0x3c68cbc3	0.014208737
221	0xbda48e17	-0.08034914
222	0x3de18ebe	0.11013554
223	0x3de2e3ed	0.1107863
224	0xbe2b0483	-0.1670094
225	0xbe2aa712	-0.16665295
226	0xbdcd0309	-0.100103445
227	0xbda8a3f2	-0.08234395
228	0xbe11456e	-0.14186642
229	0x3c733d0f	0.0148461005
230	0x3dbdbc1b	0.09264394
231	0x3d9f2ce3	0.07772233
232	0xbe2a45a0	-0.16628122
233	0xbc92d1a4	-0.01792223
234	0xbd410afd	-0.04712962
235	0x3e342107	0.17590724
236	0xbdbb4e1f	-0.0914576
237	0xbcf89bcd	-0.03034773
238	0xbe8469ed	-0.25862065
239	0xbe530371	-0.20606782
240	0x3e3c7798	0.18404996
241	0x3cad1328	0.021127298
242	0xbd2d9bc2	-0.04238487
243	0x3df121e0	0.11774039
244	0x3e3f6195	0.18689568
245	0x3dbbf42d	0.09177432
246	0xbe05b743	-0.1305819
247	0xbd04c20b	-0.032411616
248	0xbe121faf	-0.14269899
249	0xbe44eb25	-0.19230326
250	0x3e0fa471	0.14027573
251	0xbd9c5d41	-0.07634974
252	0x3db125ec	0.08649811
253	0xbc26394d	-0.0101454975
254	0xbdbb33e0	-0.09140754
255	0xbcaf0dd2	-0.021368895

lstm.bias_ih_l0_reverse f4 [256]
0	0x3a76a813	0.00094092
1	0x3df261d1	0.11835063
2	0xbc547eda	-0.012969697
3	0xbde5e5e0	-0.11225486
4	0x3d5dd4d0	0.054158032
5	0xbe03bef1	-0.12865807
6	0xbe1a6111	-0.1507609
7	0x3d11de17	0.035612192
8	0xbdcc1087	-0.0996409
9	0x3e213495	0.15742715
10	0xbdb204c5	-0.08692316
11	0xbb5fcad4	-0.0034147995
12	0x3d05ac92	0.03263528
13	0xbe676f04	-0.22600943
14	0x3dbfde7d	0.09368608
15	0xbd3a2554	-0.045445755
16	0x3d9b076d	0.07569776
17	0x3d9f6ca8	0.077843964
18	0xbe315253	-0.1731656
19	0xbdc5ab1e	-0.09651779
20	0xbde24218	-0.11047763
21	0xbe814c3d	-0.25253478
22	0xbd16a26b	-0.036775988
23	0xbcb67000	-0.022270203
24	0x3da88a14	0.08229461
25	0xbe63385a	-0.22189465
26	0xbe02193b	-0.12704937
27	0x3e031f0f	0.12804817
28	0xbc9a3be5	-0.018827388
29	0x3ca51913	0.020153558
30	0x3ddd45a3	0.10804298
31	0xbe28c11d	-0.16479917
32	0x3ca2c56d	0.01986953
33	0xbeabb736	-0.33538216
34	0xbcbc0d5c	-0.022955589
35	0xbdbdf498	-0.09275168
36	0x3e01e3bf	0.12684534
37	0xbdd330c2	-0.10312034
38	0xbe9d9ff3	-0.30786094
39	0xbdcf9bfc	-0.101371735
40	0x3e0d420a	0.13794723
41	0xbdfa7f41	-0.12231303
42	0xbec0ac42	-0.37631422
43	0xbd1b6628	-0.03793922
44	0xbc1f5af5	-0.009726276
45	0xbd0aaf3a	-0.033858515
46	0xbd0aa11b	-0.03384505
47	0xbddd6b10	-0.10811436
48	0x3e5247bc	0.20535177
49	0xbd52afa0	-0.05143702
50	0xbd07e79b	-0.03317986
51	0x3c9f0d62	0.019415561
52	0xbe0f8da2	-0.14018872
53	0xbd4ea531	-0.050450508
54	0xbd355939	-0.044274542
55	0xbccae7c7	-0.024768723
56	0xbd8c9667	-0.068646245
57	0xbd341697	-0.043966856
58	0x3dc6c33a	0.09705205
59	0x3d0706b3	0.032965373
60	0xbc40cd62	-0.011767717
61	0xbe0b26a0	-0.13588953
62	0xbd3f93c7	-0.04677179
63	0xbd4386ef	-0.047736105
64	0xbd81a64f	-0.06330549
65	0x3e411e8a	0.18859306
66	0xbd8f3498	-0.06992453
67	0x38065bf8	3.2033742e-05
68	0x3d9e605b	0.07733222
69	0x3bf5b6d6	0.0074986024
70	0xbdcad381	-0.099036224
71	0xbdf5a74b	-0.11994799
72	0x3d694e05	0.05695917
73	0x3e49793d	0.19675155
74	0x3c9c34dd	0.019068176
75	0xbddcedfd	-0.1078758
76	0x3dc6cf12	0.09707464
77	0xbd9c56d0	-0.07633746
78	0x3dffb664	0.1248596
79	0xbdf71cee	-0.12066065
80	0x3d88fb99	0.066886134
81	0x3e0b6843	0.13613991
82	0xbda83773	-0.08213701
83	0xbd9250dc	-0.07144329
84	0xbcd3ed33	-0.025869941
85	0xbe91bd61	-0.28464797
86	0x3d8824c1	0.06647635
87	0xbde1e685	-0.11030296
88	0xbdb34bcf	-0.08754694
89	0xbe77730d	-0.24164982
90	0xbd557765	-0.052115817
91	0x3de1a4a8	0.11017734
92	0xbdea8b49	-0.11452348
93	0x3cb0b995	0.021572867
94	0xbd15b24c	-0.03654699
95	0xbe32dc03	-0.1746674
96	0xbc328ea0	-0.010898262
97	0xbe6d80c6	-0.23193654
98	0xbd8c73e0	-0.06858039
99	0xbe885ef2	-0.26634938
100	0x3e7387d0	0.23782277
101	0x3ce83809	0.028347032
102	0xbe3c80c2	-0.18408492
103	0xbe342bdc	-0.17594856
104	0x3dd44ed5	0.103665985
105	0xbe362099	-0.17785873
106	0xbe6ebed0	-0.23314977
107	0xbd824ec3	-0.06362679
108	0xbdbf80cb	-0.09350737
109	0x3c0fe6d7	0.008783064
110	0x3d9eb65e	0.077496275
111	0x3d283dba	0.041074492
112	0x3e306440	0.17225742
113	0x3c269043	0.010166231
114	0xbe42905d	-0.19000383
115	0x3d49698c	0.049172923
116	0xbddd4d93	-0.10805812
117	0xbce6df0d	-0.02818253
118	0xbdb3d424	-0.08780697
119	0xbe579d01	-0.21055986
120	0xbe18eec4	-0.14934832
121	0x3d35c123	0.044373643
122	0xbd50cbac	-0.050975487
123	0xbd0b1584	-0.033956066
124	0xbd8f09a1	-0.069842584
125	0xbe0f2cfd	-0.13982005
126	0xbe6db199	-0.2321228
127	0xbe087a84	-0.13327986
128	0x3da8057b	0.0820417
129	0xbdb0214c	-0.08600101
130	0x3d0ea2ea	0.034823336
131	0xbb7b3f4a	-0.0038337284
132	0x3c367d82	0.011138322
133	0x3dc49d53	0.0960032
134	0xbd334a18	-0.043771833
135	0xbd923063	-0.07138135
136	0xbce90f0a	-0.028449554
137	0xbdc7dbe0	-0.09758735
138	0x3d1c8989	0.0382171
139	0xbda2e649	-0.0795408
140	0xbd161260	-0.036638618
141	0xbc860506	-0.016359817
142	0xbd4fbde8	-0.050718218
143	0x3c7116df	0.014714926
144	0xbd9d075a	-0.07667418
145	0x3d087708	0.033316642
146	0x3dc3e197	0.09564512
147	0x3d9ef27a	0.077610925
148	0xbc009efb	-0.007850404
149	0x3db1d565	0.0868328
150	0xbd20e2b8	-0.039278716
151	0x3d45ad90	0.048261225
152	0xbd1494bb	-0.036274653
153	0xbd7247e6	-0.0591506
154	0xbd15b75d	-0.036551822
155	0x3d9a1618	0.07523745
156	0xbd2e01b7	-0.042482104
157	0xbbca0b3d	-0.0061658905
158	0xbd773e62	-0.060362227
159	0x3d82f9a2	0.0639527
160	0xbd938f9a	-0.07205124
161	0xbd9071fa	-0.07052989
162	0xbcf7ab1e	-0.030232962
163	0xbcd30bda	-0.025762487
164	0xbd4ae214	-0.04953201
165	0xbd6ac6c8	-0.05731848
166	0xbd617f9b	-0.055053335
167	0x3cd837b4	0.026393749
168	0xbd037bdc	-0.032100543
169	0xbd170896	-0.036873423
170	0x3c2cd1c0	0.010548055
171	0xbcacd62a	-0.021098215
172	0xbd3583ca	-0.044315137
173	0x3be4d07f	0.0069828625
174	0xbd54e05c	-0.05197178
175	0xbc97f499	-0.01854925
176	0x3c39ccac	0.0113403015
177	0xbdee497f	-0.11635112
178	0xbc72db34	-0.01482277
179	0xbd7404dc	-0.059574947
180	0xbd8519e3	-0.06499078
181	0xbcd735a6	-0.026270699
182	0xbd24306c	-0.04008524
183	0x3d14ca17	0.03632554
184	0x3dd02b73	0.10164537
185	0xbc3b9acc	-0.011450481
186	0x3cd5b5e9	0.026087718
187	0x3d5cfc4d	0.05395155
188	0x3dade25d	0.08490441
189	0x3d32f45c	0.04369007
190	0xbd08be97	-0.033384886
191	0x3db5e4b9	0.08881516
192	0xbc6bf3ff	-0.014401435
193	0x3de9b88b	0.11412152
194	0xbe21a3a0	-0.15785074
195	0xbdaf8afd	-0.08571432
196	0xbd2f5c54	-0.04281266
197	0xbda65e9e	-0.081235155
198	0xbdda3fb8	-0.10656685
199	0xbd825f51	-0.063658364
200	0x3b70c46b	0.0036738168
201	0x3db7b09d	0.08969233
202	0xbe0f8db7	-0.14018904
203	0x3d859649	0.06522805
204	0xbd4a4209	-0.049379382
205	0xbe8e5885	-0.2780191
206	0x3e5e0321	0.21680881
207	0xbe1e16ac	-0.15438336
208	0x3daeb3de	0.08530401
209	0xbcbbf8ed	-0.022945845
210	0xbe2168f2	-0.1576269
211	0xbe6dd61d	-0.23226209
212	0xbd04ea1d	-0.03244983
213	0xbe5debf0	-0.21672034
214	0x3d12391a	0.035698988
215	0x3d1c7424	0.038196698
216	0xbe193f0f	-0.14965461
217	0xbe4603b1	-0.19337346
218	0xbe3c03c3	-0.1836081
219	0x3c1f28cf	0.009714319
220	0xbe1489cb	-0.14505689
221	0xbe0e476e	-0.13894436
222	0xbd7d9065	-0.061905283
223	0xbe52784a	-0.20553699
224	0xbc00c8c8	-0.00786037
225	0xbe329911	-0.17441203
226	0xbdabe261	-0.08392788
227	0xbe26a195	-0.16272576
228	0x3e102a48	0.14078629
229	0x3d8b8eed	0.0681437
230	0xbe5784c2	-0.21046737
231	0x3c75c635	0.0150008695
232	0xbd2593b3	-0.04042406
233	0xbe0e8763	-0.13918833
234	0xbea63e18	-0.3246925
235	0xbcb7b24d	-0.022423888
236	0x3c8e2511	0.017351659
237	0xbe5235a7	-0.20528279
238	0x3e12459d	0.14284368
239	0xbca0dd6c	-0.019636832
240	0x3e78dc05	0.24302681
241	0x3d76ec27	0.060283806
242	0xbe45f8b2	-0.19333151
243	0xbdb69bd8	-0.089164436
244	0x3d87555e	0.066080794
245	0xbe352412	-0.17689541
246	0xbc4efa5e	-0.012632934
247	0xbbc4df2b	-0.006008049
248	0x3db0dc0c	0.086357206
249	0xbd88e444	-0.06684163
250	0x3c27274d	0.010202241
251	0x3d2cd909	0.04219917
252	0xbdbecf42	-0.09316875
253	0x398c930d	0.00026812442
254	0xbdba0112	-0.090822354
255	0x3d6c9fe1	0.05776966
