models/timeseries_lstm.pth (torch, 569649 bytes, 19 tensors)

lstm.weight_ih_l0 f4 [256, 8]
00000000: ca2f 9dbd 4965 883e d243 1b3d 3e43 e1bb
00000010: b677 153c b346 773d cc2c 923d 9ef4 fabc
00000020: b85d ac3c 3780 70bd a077 303d db63 6abc
00000030: 9e60 053e c7d7 b63d 144f 793d af3b f03d
00000040: 2c9a de3d 74f8 6f3e 285c 763d 077e c43d
00000050: fa34 303d 8eec e53d 851b a23d 044f 9f3d
00000060: 2bcc 813d 4bfc 223e 7cc4 343d 363e 98bd
00000070: d1a3 0cbe d598 59bd 8123 f0bd 8e29 e33a
00000080: d0f0 a03d 3bd1 dd3d 2fe6 dcbd 0cfc adbd
00000090: 983b e3bd 5508 cb3c f540 e73d b60e b53d
000000a0: aa5f a83b a3b0 9a3d b439 8dbd 0b80 25bd
000000b0: 8182 40bd 508a b13c 1ee0 74bd 2fe4 b43c
000000c0: be42 e7bc 6b58 5abc d6ff dcbd 0aca af3c
000000d0: 0dc9 b3bd c843 8fbc bfbc a7bd 51b8 953c
000000e0: 1c6a 0dbe cb73 32bd 4029 26bd ce46 15bd
000000f0: faee ddbd 8940 f83c f018 16be 8428 cfbd
00000100: 5c99 5b3d 76b2 053e a09c bdbd 87f6 1cbe
00000110: ddd1 29be c131 ed3c 01bb 03be 518f 943d
00000120: ade3 3abe fb9c 8dbd fb38 acbc 5fa6 31be
00000130: 5baa 0fbe 2b34 cabd 1632 16bd 3850 17be
00000140: ccf7 2abe 35d4 283d e78d adbc a312 f9bd
00000150: 0a4c efba 62c5 4dbe baf4 1cbd 19df dabd
00000160: f285 11be cc7a 46bb fde6 453d 37e5 563d
00000170: 10a4 cfbd 10c5 04be e5ca 883d 2764 d53d
00000180: 102f bd3b a7ec 83be 5009 2e3d 4667 763d
00000190: 7e15 963c d755 d43c 98dc 35bc 985a b93d
000001a0: 68aa ecbc 9452 9cbd 370e 3cbe 5b55 75bc
000001b0: 9aa2 00be f52a 233d 2bf7 cbbd d007 1bbe
000001c0: 04bf 11be b005 683e 9b69 c13c 844c ee3c
000001d0: 70c8 adbd f286 27bd 70f1 11be e6d6 1cbe
000001e0: c94c d1bd dcb0 a23e 97ad ad3c b6c9 313d
000001f0: 4a43 433d 9937 7e3b 631f a13d d605 e7bb
00000200: fb7c 963d 74d4 803e 7ccb ed3d fc96 49bd
00000210: 85f7 43bd d1af e23b c042 4a3d 181b a7bb
00000220: d715 c4bd 09c7 72be 514a 6c3d 8875 edbd
00000230: 37e2 a2bd 5ae6 8dbd 7902 a1bd da2b 8ebd
00000240: 4d97 bdbd 1ea7 603e 2301 cebd 339f d6bb
00000250: a6bf 0cbe 4110 bc3c 3462 01be daa1 713d
00000260: 703e ebbb 23a7 fdbd 9ca7 9dbd c7ec 5aba
00000270: b4b5 343c 97e9 da3c a8eb e53d 03a1 40bd
00000280: 4693 dd3c e863 18bd cc42 063d 6865 c13d
00000290: 6b3e a43d 809b 77bd 6698 0d3e d260 73bd
000002a0: 4425 7f3d 9b2b a4be 667b b0bd 4e82 993b
000002b0: 71e5 7b3d 4e91 0ebe dee8 f8bc 0dc4 4cbd
000002c0: ced3 c9bc 969c 11be 5bd3 a93b 3626 ecbd
000002d0: abf2 37be 28ea cfbd f215 21be 4af1 4cbd
000002e0: 3da8 e1bc 0d59 70bd 71a6 1e3d 9757 e4bd
000002f0: 6846 203d 1a61 533d 9a4a f03c d10e 18bd
00000300: 520a 243e a762 f83d b7fb 023e dbac 133e
00000310: 7aac 173e 8c3b 173e f3f5 cc3d 3ab8 163e
00000320: d6ae 743d c03c 7c3c 35c0 263d 3977 9fbd
00000330: 517b a1bd 937d 0dbd b94b 57bd fcb0 b7bd
00000340: 5230 a7bd 6c02 10be d7d8 eebc c65f dc3d
00000350: 3625 963d d4c6 5fbd 68c1 153e b53f 13bd
00000360: dbaf 27be e57a 35be cb8b 6dbd 8e9d 36bd
00000370: 4224 79bc 5d9b 03be 51b7 31be e4a9 2ebc
00000380: 5432 c9bd 1d9b 893e cf44 5bbc b8fe 95bd
00000390: 4e87 05be 0dcb 3ebd 8055 563d d4df d13b
000003a0: fa33 a83c 10c7 b93e 6ea1 dabd e650 45bd
000003b0: a045 86bd 9327 26bd 6c50 113d 8514 f4bd
000003c0: c363 593c 968c 8a3d fa45 103e bca2 9f3c
000003d0: ec4a 173e 0856 413e 52e6 f13d 70f8 43bc
000003e0: 68f5 a9bc bb37 f53c 6cc2 c8bd a867 20bd
000003f0: a2ba 05be b741 41bd 5814 ecbd 459c 3ebe
-0.07675131 0.26639774 0.037906475 -0.006874471 0.00912278 0.06037016 0.071374506 -0.03063422
0.021040782 -0.058716025 0.043082833 -0.014306034 0.13025138 0.08927875 0.06086643 0.11730134
0.1086925 0.23434621 0.06014648 0.0959435 0.043019272 0.1122676 0.07915405 0.07778743
0.0633777 0.15916555 0.044132695 -0.07433741 -0.13734366 -0.053124268 -0.11725522 0.001733111
0.07858431 0.10830923 -0.107860915 -0.0849534 -0.11095351 0.024784246 0.112916864 0.088406965
0.005138357 0.07553222 -0.068957716 -0.040405314 -0.04699946 0.021672398 -0.059784047 0.022081463
-0.028230067 -0.013326745 -0.10790984 0.021458644 -0.08778582 -0.017488375 -0.08190297 0.018276365
-0.13810009 -0.04356746 -0.040566683 -0.036444478 -0.10836597 0.03030421 -0.1465795 -0.101151496
0.05361305 0.13056359 -0.092583895 -0.15328418 -0.16583963 0.028954389 -0.12864305 0.07253898
-0.18250914 -0.06914707 -0.021023264 -0.17348622 -0.14029829 -0.098732315 -0.03666886 -0.14776695
-0.1669609 0.041218 -0.021185828 -0.12161758 -0.0018256914 -0.20094827 -0.038319327 -0.10687084
-0.14211252 -0.0030285595 0.04831599 0.05246469 -0.10138714 -0.12965798 0.06679324 0.10419493
0.0057734326 -0.2576649 0.04248935 0.060157083 0.018320795 0.025919838 -0.011099957 0.090504825
-0.02888985 -0.07632938 -0.18364798 -0.014973964 -0.12562028 0.03983589 -0.09959253 -0.15139699
-0.14233023 0.2265842 0.023609927 0.02908922 -0.08485496 -0.04090018 -0.14252257 -0.15316352
-0.10219724 0.31775558 0.021200938 0.043405257 0.047671594 0.0038790463 0.07867315 -0.0070502562
0.07348057 0.2516209 0.11611077 -0.049216256 -0.047843475 0.0069179316 0.049380064 -0.0050996654
-0.09574478 -0.23708738 0.05768806 -0.11594683 -0.07953303 -0.06928702 -0.078618 -0.06941958
-0.09257374 0.2193875 -0.100588106 -0.0065497397 -0.13744983 0.02295697 -0.12635118 0.058992244
-0.007179074 -0.123853944 -0.076979846 -0.00083513226 0.0110296495 0.026722712 0.112265885 -0.047028553
0.027047765 -0.037204653 0.032778546 0.0944317 0.08019718 -0.06045103 0.13827667 -0.059418507
0.0622914 -0.32064518 -0.086172864 0.004684723 0.06149811 -0.13922617 -0.030384477 -0.049991656
-0.02463713 -0.14219889 0.0051826662 -0.11530726 -0.17963664 -0.10152084 -0.15731028 -0.0500348
-0.027546043 -0.058678675 0.03873295 -0.11149519 0.039129645 0.051606275 0.029332448 -0.037123505
0.16019562 0.121281914 0.12791334 0.14421408 0.14811888 0.14768809 0.100078486 0.14718714
0.05973705 0.015395343 0.040710647 -0.07786412 -0.07884849 -0.034543585 -0.05256245 -0.08969304
-0.08163513 -0.14063424 -0.029156132 0.10760455 0.07331316 -0.054632977 0.1462456 -0.035949428
-0.16375677 -0.17722662 -0.057994645 -0.04458385 -0.015206398 -0.12852235 -0.17355086 -0.010660622
-0.098240525 0.26876155 -0.0133831045 -0.07323974 -0.13039896 -0.046580363 0.052327633 0.006404856
0.020532597 0.36284685 -0.106753215 -0.048172854 -0.06556249 -0.040565085 0.035477087 -0.11917976
0.013268414 0.06765096 0.14089194 0.019486777 0.14774674 0.18880475 0.11811508 -0.011961088
-0.020746902 0.0299338 -0.09802708 -0.039161354 -0.13059476 -0.04718181 -0.11527318 -0.186143

lstm.weight_hh_l0 f4 [256, 64]
00000000: f45c fabd 17e9 44bc 1737 73bd 6634 b6bd
00000010: 8972 83bd e503 623d 658f 57bd 1845 8fbd
00000020: 322d a2bd 2f68 fabc e62b 36bd 67ac d33d
00000030: 7812 733d bd60 36bd 8e4f 0f3d 7069 07bb
00000040: a141 b3bd 4540 9a3d cbbb fc3d 3171 3bbd
00000050: 4a63 8dbd 5315 a33d a928 e53d 0166 e93c
00000060: 7a00 233e 526a 57bd 9d19 d4bd 7d63 fcbd
00000070: 79cb 71bd 5e5e 983d 86c0 25bd 7694 8a3b
00000080: bddd f33c a5a3 b93d f63c 73bd 4d89 c23d
00000090: f678 13bc b51b b93d 107b 773c c5f0 b3bc
000000a0: 9f1e 0ebd 681f bc3c 61bd c73d 7bc9 9b3d
000000b0: b313 af3d 0ede 903d 9aba 4fbd 309a 423d
000000c0: 3eb4 a63d ccd0 c1bc 7fd4 bb3c b2bb b23c
000000d0: f6eb c63d 4e50 963d c46f 71bb da51 fdbd
000000e0: 47bf 933d b1b3 09be ea90 5e3d 7e4e fb3d
000000f0: b36e 8bbd 9c6e 013e 3b49 92bc 7c23 7f3d
00000100: 9a9f b2bd 1b3d 3abd 1d15 313d 56d5 cd3c
00000110: 6962 ea3d b628 093e 7133 0dbe 40e2 943d
00000120: 068c 12bc 6720 9dbd 2ea3 dcbd ce76 c33d
00000130: 260b e6bd ac59 613d 3dba c23d 81e3 e43d
00000140: 23c0 793c 7860 f23c d10a 963d 516d 3dbd
00000150: 60dc 1abe f0dc a7bd 34bf 733d 3963 95bd
00000160: c3ec 1c3d 86e0 97bd 5988 c73d 3856 ce3d
00000170: bd9a dbbd 8451 a1bd f941 b7bd e82a 04be
00000180: c183 ca3d cf88 983b d3c2 f0bb 2b4a 7abd
00000190: 04cc 3f3d aa99 d83c f1e1 71bd d488 d63b
000001a0: 49c4 e53d 6892 6f3d 3124 163d 01df 9ebc
000001b0: e83e c0bc 7a25 b53d c101 0d3e a423 963d
000001c0: 804e c7bc 0ce4 64bb 4a36 48bd 792e b5bd
000001d0: 8be3 ffbc 5904 a2bc 19cf 9f3d 04c1 cc3d
000001e0: 90f3 903d 847c 2ebd 681e d43d 0d73 0d3e
000001f0: f70e 0ebd 5d2e 0a3d 63a6 423c 04d5 82bd
00000200: 75eb 7c3d a0c3 853c c83f abbd deeb c03d
00000210: 64a1 593d 14f2 8ebd 1155 fb3d f291 38bd
00000220: 85ac 8e3b 51e1 593d 701a 973d 0e04 d3bd
00000230: ee6c 273d 5203 a13d 476c 8ebd 6652 a9bc
00000240: 6f67 733c cabb 3cbc 00be 10bd 7d9f 86bd
00000250: dca7 a33d ffaa 053e 0c2a 09bd 60c4 f53c
00000260: b00f 6b3c e0e5 5dbc 8189 d83a d836 dfbd
00000270: dc4e 01bd 5d7d adbd 7a3e 7bbd e16c 05bd
00000280: 636f 3abd 24c2 2c3d f342 e7bd 132e af3d
00000290: fde0 af3c cf4d 09be f631 5e3d 1e00 d13d
000002a0: bc50 8cbc 8745 d73d 3a40 b8bc c80c 9a3d
000002b0: 9365 dd3d a6b5 663d 25f5 153d 797a 10be
000002c0: 4e89 bcbd d22b 99bd 7017 033c dfab 01be
000002d0: b68b 0a3d 3f1b 853d 1b96 933d 180f 293c
000002e0: 0bc6 cc3d 2dd9 84bd 1cd5 b6bc cef0 8cbd
000002f0: f97d fb3d 09c1 b6bc a965 cf3d 6f1f c0bd
00000300: 2a2b 1c3d 2888 24bd 78ee ad3d c351 f7bb
00000310: 4270 eebd 7142 15bd 2442 8fbc 22bc 79ba
00000320: e06b 32be 062a 35bd 13b7 013d ba5b c9bd
00000330: 30c6 623d 884d a43d 9327 4dbd dd9d 00be
00000340: 3e2c c43d 2dee 7f3d c5fc d43d 4588 843c
00000350: d73c 01bc c273 7d3a f2fa 373c 264f 04be
00000360: 5167 0abd 1bf8 5d3d d774 10bc 1052 8a3d
00000370: 6762 9a3d 6b13 febd a8a9 b43c 95b6 15bd
00000380: 4f83 ee3d b40d 31bd afef f83d ac61 2fbd
00000390: 9a1a 5f3d bcd9 823c dd34 f53d d809 a1bd
000003a0: 4e79 f1bd 7b38 683d 6713 c6bd f8b5 a03d
000003b0: 439a a33d e708 9d3c 1c37 9e3d 7409 84bc
000003c0: b142 93bb 0661 7cbd 8e3c 0cbe 62b7 7a3d
000003d0: dee6 703d 35bf 9bbd 5eb2 8bbd 4fa3 9f3b
000003e0: d382 27bc 338d aa3d e187 10be 7152 74bd
000003f0: 852d b9bd 8af7 9bbd 1363 e93d 4dfd c8bd
-0.12224761 -0.012018464 -0.05937871 -0.08896713 -0.0641833 0.055179495 -0.052626986 -0.069956005
-0.079187766 -0.030567257 -0.04447546 0.103356175 0.059343785 -0.04452585 0.03498798 -0.002066221
-0.08752752 0.0753179 0.12340506 -0.045762245 -0.069037035 0.07963052 0.11189396 0.028491022
0.1591815 -0.05259163 -0.10356448 -0.123236634 -0.059031937 0.07439874 -0.040466808 0.0042291237
0.029768819 0.09064416 -0.05938431 0.09498844 -0.009001007 0.09038488 0.015105024 -0.021965394
-0.03469717 0.022964194 0.09752918 0.07606789 0.08548679 0.070736036 -0.050715066 0.047510326
0.08139847 -0.023659132 0.022928474 0.021818016 0.09712975 0.07339536 -0.00368403 -0.123691276
0.07214218 -0.13447453 0.05433742 0.122708306 -0.068082236 0.1263985 -0.017857185 0.0622897
-0.08721848 -0.04546843 0.043233026 0.02512614 0.114445515 0.13394436 -0.13789155 0.07269716
-0.008944517 -0.07672196 -0.107733116 0.095441446 -0.11232595 0.05501716 0.095081784 0.111762054
0.015243563 0.029587016 0.07326282 -0.04624683 -0.15123129 -0.08196437 0.059508517 -0.07294316
0.03831173 -0.07415871 0.09742803 0.10075039 -0.10722873 -0.07876876 -0.0894813 -0.12906992
0.09888411 0.0046549807 -0.0073474436 -0.06110589 0.046825424 0.02644046 -0.059053365 0.006547073
0.11219079 0.058489233 0.03665561 -0.019393446 -0.023467496 0.08845039 0.137702 0.07331017
-0.024329424 -0.0034925966 -0.0488799 -0.088467546 -0.03123643 -0.019777464 0.078031726 0.09997752
0.07077706 -0.042599216 0.10357362 0.1381342 -0.03468224 0.03373562 0.01188049 -0.06388286
0.061747987 0.016328633 -0.08361775 0.09419988 0.05313243 -0.069797665 0.122720845 -0.04506106
0.004354062 0.053193394 0.073780894 -0.10303508 0.040875368 0.078619614 -0.06954246 -0.020669173
0.014856203 -0.011519382 -0.035337448 -0.06573389 0.07991001 0.13053511 -0.033487365 0.030000865
0.014347002 -0.013543576 0.0016520472 -0.108991325 -0.031569347 -0.08471177 -0.06133888 -0.03257454
-0.045516383 0.042177334 -0.112920664 0.0855371 0.021469587 -0.13408588 0.054246865 0.102051005
-0.01712834 0.10511308 -0.022491563 0.07521969 0.10810389 0.056325577 0.03661074 -0.1410922
-0.09205876 -0.07479061 0.008001193 -0.1266322 0.033824645 0.064993374 0.07206365 0.01031854
0.09998711 -0.064867355 -0.022318415 -0.06881867 0.12279887 -0.022308843 0.10126812 -0.093809955
0.038127102 -0.04016891 0.0849275 -0.0075475886 -0.11642505 -0.036440317 -0.017487593 -0.000952663
-0.17423964 -0.04422953 0.031668734 -0.098319486 0.055364788 0.080226004 -0.05008657 -0.1256022
0.09578751 0.062483 0.103997745 0.01617826 -0.0078880405 0.00096684333 0.011229264 -0.12920818
-0.033789936 0.05419169 -0.008816919 0.067539334 0.075383 -0.124060474 0.022053555 -0.036551077
0.11646139 -0.04322596 0.12155091 -0.042817757 0.05446873 0.015972964 0.119729735 -0.07863206
-0.11790715 0.05669449 -0.096716695 0.07847208 0.079884075 0.019169284 0.07725355 -0.016117789
-0.004494034 -0.061615966 -0.13694975 0.061210044 0.058813922 -0.07604829 -0.0682113 0.004871763
-0.010224062 0.08327713 -0.14114334 -0.059648935 -0.09041885 -0.07615574 0.1139585 -0.09813938

lstm.bias_ih_l0 f4 [256]
00000000: f9bf b73d 1b76 66bd 2541 aa3d 34ac 10be
00000010: 4b5e c1bb 8924 ec3c 1194 9cbd 8b7d 003d
00000020: 99f7 7ebd 404b 16bd 6f1a 10bd aaba 243d
00000030: 2758 0f3e f63d 8cbd 2f21 d2bc 2abc c53d
00000040: 61ba 40bd 636e 4dbc 56be 22be 5f59 09bd
00000050: 6b59 e43d 2665 13be 3f33 c5bd b1b8 873d
00000060: 6704 5fbd df97 2d3d 0da0 60bb 262d 3fbe
00000070: 763f aebd 7ac6 c8bd 9d29 1d3e 229f 32be
00000080: f69f 8ebd 096b 42bd 91f7 d6bc 2dbb 93bd
00000090: 008c 3a3d b3dd a2bd 2516 4ebb c398 bdbd
000000a0: 93fb 423d 5180 3c3d 3610 a93c c7b8 25be
000000b0: 23bc 09be 3a9f 77bd d087 923c 88a1 79bc
000000c0: 7cf0 c1bc 2fb2 c0bd e94f 29be 4143 373c
000000d0: b8d5 13be 91a7 273d 8f7f fc3d 28b7 89bd
000000e0: 2b3f 19be 77f8 ecbc 92be 06bd 38d5 c7bd
000000f0: 107d c1bc 9c83 2dbd 86dc 6c3e 9eea 25bd
00000100: 8480 2f3d e364 3e3c ae9f 95bd 086e 843c
00000110: 8d87 f33d 3271 513e e96a 35be d466 19bd
00000120: 8713 3b3d 455d 09be bf1e 3abd 25db 4a3d
00000130: fed7 5d3c 8976 b93b db6d 98bd 1501 9a3b
00000140: 3889 12bd 829b 17be 3eed a2bd a5f3 713e
00000150: a06b b73c cc97 babc bf86 32be 81ff d5bd
00000160: dff8 503e 3eda 783d f07e 573e 3550 29be
00000170: c4f5 653d 0ae7 8fbc 164a 233e 93b2 e9bd
00000180: 2080 48bc 4c69 27bd 7a31 933b cf2d 8cbd
00000190: 30c4 88bd f507 91bc a277 cf3d 5241 c4bd
000001a0: 372f 7e3d db13 1c3d 67ed 82bd 1e86 0ebe
000001b0: e7a7 35be 2466 28bd e220 263d ba3f 123e
000001c0: deb1 ed3d ccfc 993d a438 a93d e47f f8bd
000001d0: f0e2 9d3d b001 a3bd 2467 e63d f8db 4c3d
000001e0: 3204 ecbd d972 cb3d f938 57bd 8843 ff3d
000001f0: c69c 86bc 9ac4 5e3d e36c 443e 0b3b ad3d
00000200: 0d20 af3d edbe e5bd 4035 9abd c789 843d
00000210: e460 97bc 691f 03bd 3f14 f83c 51a3 cb3b
00000220: 2a8b 383d af2a 803d 65d5 f73c 8728 de3d
00000230: ed21 9abd a3d8 39bd 9455 20bd b80e 813d
00000240: bb02 10bd a244 b1bd 48c1 02bd a422 06be
00000250: ee15 cebd 4d16 883d 6dfb 77bd 98bd cfbc
00000260: 1ddd 92bc 2ed6 17bd a45d d03d 40cf 483d
00000270: caf7 903d 7661 b03d 67a4 00bd c38a 72bd
00000280: ee7c 8dbd 2db3 2f3c bfd3 c6bd ef9a a5bd
00000290: 17eb 053d 55ed ed3c 7c55 11bb c97c 513d
000002a0: 8f01 513c 0f7d e73c 7a98 123d c6fb 9e3d
000002b0: 7350 3fbd 3677 d6bc cb92 fc3d 3524 fe3c
000002c0: 62ab da3d 3a02 983c a383 823d 3493 fd3c
000002d0: 3d21 17bd 7d91 0ebd 9b5b d03d a2a1 413d
000002e0: e4be 35bd 49e6 9abd 431a a63c cd7e 6bbd
000002f0: 906b 6ebd 8581 323d 736c a1bd 3b4e b4bd
00000300: 8312 bd3c fc79 78bd b692 773d 8a93 2abe
00000310: 71bc cebb 0b74 5c3d 7e7a 293d c604 3bbe
00000320: 5687 2ebe 85c6 b1b9 27c9 fbbd 51a9 b0bd
00000330: 5e15 063d 9ea5 d9bd 6798 11be 934a 53bd
00000340: 9f23 9abd 0c90 a53d 43e0 c33b 5da3 543d
00000350: 1942 143e dbe8 23be cb71 10be affd b0bd
00000360: 79f9 ff3d 0f87 bbbd 82ad 883d 07ba 88bc
00000370: b6e5 15bc 4143 3ebd ee7d 2abd 5977 16be
00000380: e4b1 f13d f2cd 27be 2681 7e3c eaf6 92bd
00000390: 9f88 c0bc 3d26 16bd 4c12 d4bd 81bd 25be
000003a0: f685 963d 9d6d 51bc a8a1 3e3d 9a5a 84bd
000003b0: 39f2 54bd fca5 9f3d 5f72 d83d 32ac ce3d
000003c0: 1054 95bd b308 d1bd e0af 643d 4a5b 97bd
000003d0: f4bd 87bd 14cd a73d 8e6d cabd 3cfd 74bc
000003e0: 4cf5 81bd 7815 1f3d 2159 f3bc c8fe eabd
000003f0: 64f6 773d 283a 053d 296a 593d 4a6a 8e3d
0.08972163 -0.056264978 0.083132066 -0.1412819 -0.005901133 0.028826015 -0.07645429 0.031369727
-0.062247846 -0.036692858 -0.03518146 0.04021708 0.13998471 -0.068477556 -0.025650589 0.0965503
-0.047052745 -0.012538525 -0.1589292 -0.033532497 0.111498676 -0.14394054 -0.09628915 0.06627024
-0.054447558 0.042381164 -0.0034275085 -0.18669567 -0.08508198 -0.098034814 0.15347905 -0.17443517
-0.06964104 -0.047465358 -0.026241096 -0.07213435 0.04554367 -0.07952442 -0.0031446305 -0.092576526
0.0476032 0.04602081 0.020637613 -0.16183768 -0.13450675 -0.060454585 0.017887026 -0.015236266
-0.023674242 -0.09408986 -0.1653439 0.011185468 -0.14436996 0.04093129 0.12329017 -0.067243874
-0.14965503 -0.028927071 -0.032896586 -0.09757465 -0.023619205 -0.04236184 0.23130998 -0.04050695
0.04284717 0.011620733 -0.07305847 0.016165748 0.11891089 0.20453337 -0.17716564 -0.03745158
0.04567292 -0.13414486 -0.045439478 0.0495254 0.013540266 0.0056598824 -0.07442828 0.004699836
-0.035775393 -0.14805415 -0.079554066 0.236281 0.022390187 -0.02277746 -0.17434214 -0.10449124
0.20407437 0.060755007 0.21044517 -0.16534503 0.056142583 -0.017566223 0.1594623 -0.114110135
-0.012237579 -0.040871903 0.004491982 -0.06844675 -0.06678045 -0.01770399 0.1013024 -0.09582771
0.062056746 0.038104873 -0.06392937 -0.13918349 -0.17739831 -0.041113034 0.040558703 0.14282122
0.11606191 0.0751892 0.082627565 -0.12133768 0.077093005 -0.07959306 0.11250141 0.050014466
-0.11524238 0.09934015 -0.052544568 0.124640524 -0.016432177 0.054386713 0.19182162 0.08458527
0.08551035 -0.11218057 -0.07529688 0.064715914 -0.018478818 -0.032012377 0.030283092 0.006214537
0.045054592 0.06258141 0.030253122 0.10847574 -0.07526002 -0.045372616 -0.039144114 0.063016355
-0.035158854 -0.08655669 -0.03192261 -0.13099152 -0.100627765 0.066448785 -0.060542513 -0.02535896
-0.0179277 -0.037069492 0.101741105 0.049025774 0.07078512 0.08612339 -0.031406786 -0.059214365
-0.06908594 0.010723871 -0.09708356 -0.08086192 0.032694902 0.029043833 -0.0022176197 0.051144395
0.012756719 0.028257875 0.035789944 0.07762866 -0.04670758 -0.026179891 0.12332686 0.031023124
0.1067722 0.01855575 0.06372764 0.030953981 -0.036896933 -0.034806717 0.10173722 0.047273286
-0.0443715 -0.07563455 0.020276194 -0.057493974 -0.05820805 0.04358055 -0.07882013 -0.08803984
0.023080116 -0.06066321 0.06044265 -0.16657844 -0.006309085 0.053821605 0.041376583 -0.1826354
-0.17043814 -0.0003390798 -0.12294226 -0.086260445 0.03273522 -0.10627292 -0.14218293 -0.05158479
-0.075263254 0.080841154 0.005977662 0.051913608 0.14478339 -0.16006796 -0.14105909 -0.08642136
0.12498755 -0.0915662 0.06673719 -0.016690267 -0.009149006 -0.046450857 -0.041624002 -0.14693965
0.11801508 -0.16387156 0.015533721 -0.07176001 -0.023502646 -0.03665756 -0.10355052 -0.16185571
0.0734977 -0.0127824815 0.046540886 -0.064625934 -0.051988814 0.07795331 0.105686896 0.100914374
-0.07291424 -0.10206737 0.05583179 -0.07390459 -0.066280276 0.081934124 -0.09884177 -0.014952954
-0.06345615 0.038838834 -0.029705586 -0.11474377 0.06053771 0.032526165 0.053079758 0.06953867

lstm.bias_hh_l0 f4 [256]
00000000: 9349 e3bd 5f4a c13d fdb7 03be 18a7 15be
00000010: 2ad2 91bd 1bf4 81bc d151 1bbe 8483 18bc
00000020: b70c 1f3c 3861 06be 18ee 04be 0d79 fdbd
00000030: d174 18bd 2041 8e3c 9253 8ebc ebc4 bdbd
00000040: 7433 92bd 6ef2 32bc 84ce 06be 5df7 093d
00000050: 7690 243d 7d20 f5bd 7916 68bd 910d eb3d
00000060: 1395 203e e4c8 ac3c 0bfe 0c3e 9183 1ebd
00000070: cb48 a9bd fa87 e5bd 867c 113e 28fe 0cbd
00000080: 6c01 edbc f115 2ebc caf0 953c 81f9 b3ba
00000090: 5385 c73c 9217 123d 6480 56bd a921 21bd
000000a0: ff1d ba3c 99c6 d73d 8b5a 29be 0e4d 98bd
000000b0: 834a c1bd 8dea 8f3d 0623 ccbc 83df 1e3d
000000c0: ac34 8f3d d053 913d 0cc7 5fbd eb0e e3bd
000000d0: 7e5d f0bd 68b1 9cbd 8f06 e33d f5b8 7b3d
000000e0: ff76 1dbe b1ec 08bc b64c 36be 3892 eebc
000000f0: 78d8 0e3c c007 c03d d557 babb 894c a8bd
00000100: b952 d3bb a83c 9cbd 91bc 2f3d d3a6 293d
00000110: f064 d73d 4dce 26bb 3ccd 483c adfb 62bd
00000120: c627 023c 5697 2cbc b15a 4bbc d97c 433d
00000130: 2b06 423e 672d 3cbe 066d 19be d7f5 f03d
00000140: b55b d13a a430 28bd 761c aebd a299 733d
00000150: 1fa8 ea3c 4729 19be c78a 8abd 977f d13d
00000160: d9d5 3b3e 4675 893d 75a7 443d 1712 8abd
00000170: 1749 6f3d 257e 17bc 661b 49bc f7c9 4ebd
00000180: 6125 b1bd ec37 24be b77b 443d fdd7 fabc
00000190: 0407 a2bd 875c 09be 8293 073e 8668 6eba
000001a0: 2760 4d3e 0464 d9bc b1f7 34bd ec55 56bd
000001b0: 1519 5cbd 8c9d 983d e1aa 7c3d 5fab 2a3d
000001c0: 6398 b23d 155b bc3d f7a3 b73d 758a 7fbb
000001d0: 2f2b 05be aca0 953c aa9d ab3d 89cc 163d
000001e0: d6a9 0cbe e673 00be f765 debd ef36 49bd
000001f0: d0ff de3d 0e1c bfbd bf87 7e3e 1c2e 673d
00000200: a76e 3dbd 13ab 8fbd 171b b83d 1c5c c1bd
00000210: 9edf c63c 5661 353d c4cc a4bd 27a7 833d
00000220: 4dbc debd b601 65bd 30ad f3bd 2722 1ebb
00000230: 2325 a93d 3fc8 5d3d ee7e 253d 3bb3 6a3d
00000240: 4be2 9d3d 119e 79bb 8195 0a3d e520 e43d
00000250: eb66 9a3d c958 e5bd 1666 9f3d 11db a03c
00000260: c8ef 9c3d 152b c13d 8a62 99bd 6b33 bbbd
00000270: 0b46 a0bd 102b 8dbd 9fe9 a13d dcea 413c
00000280: f2de d3bd 385d 523d d5af 8cbd 8cc5 ff3d
00000290: 5733 bdbb f602 3f3d 4351 053c d4b3 83bc
000002a0: 2fef 53bd 3cf8 9b3d dea1 64bd 3f43 c43c
000002b0: 2d4f 55bd c068 8a3d 6dd1 0fbd b441 6bbd
000002c0: 0608 54bd 7a3f 69bd 3a13 54bd 7150 5c3b
000002d0: c364 b7bc cbfa d13d c8a9 cfbd 75fc 1cbd
000002e0: ab6b a03d 5ed9 f43c 06fd d63c 3718 003e
000002f0: 3d0a d4bd 0fe0 353d 0ebc 043c a62c e83d
00000300: 69b6 2abd 7c71 083d 960d e03c 2a75 463d
00000310: d1c3 403d 42f1 893d 3e4c 2bbe 26a8 2dbe
00000320: 600e 6abd 43ba a43b 2a25 ba3c 86f7 843d
00000330: 27b3 d53d 7eb0 0a3d 54b7 203b 72ad 51bb
00000340: 8dc2 893d 83c5 02bd 0df2 aebc 2e25 8bbd
00000350: 6205 743d ce2a b43c d2de 613d c39b 053b
00000360: 6bdb 5ebb 36fd 19be ba34 183e 453d 963a
00000370: 6cec 9bbd d689 693d da56 9b3d aabd 0dbe
00000380: 647c 6d3d 5ea4 3ebe 1d1a d9bd a81d 3a3d
00000390: d624 bbbc eb7f 09be 2955 5abd 560f 46be
000003a0: 9ad3 cb3d 7c77 933c 1f79 00bd 2064 d0bd
000003b0: 36b5 f9bd 3184 cd3d 229c d83d 4f99 7fbd
000003c0: e2a7 9cbc 2509 ce3b 754e aa3d ab17 5abd
000003d0: 1b74 37be 76e5 adbd a334 f6bc 9379 bc3d
000003e0: 03e7 07bb dd81 00be 115d 6b3d 5f99 ea3c
000003f0: c7d5 e83d db0a 42bd 058f 61bc 4029 d03d
-0.110980175 0.09438013 -0.12863155 -0.14614522 -0.07120164 -0.015863469 -0.15167929 -0.0093086995
0.009707621 -0.13123024 -0.1298145 -0.12376604 -0.03722078 0.017365038 -0.017373834 -0.09266075
-0.0713872 -0.010922058 -0.13164717 0.03368317 0.04017683 -0.11969087 -0.056662057 0.11477197
0.15681867 0.021091886 0.13768785 -0.03869969 -0.08265837 -0.11207576 0.14207658 -0.03442207
-0.028931342 -0.010625348 0.018303294 -0.0013730974 0.024355566 0.03566701 -0.052368537 -0.03933874
0.022719381 0.10535926 -0.16538446 -0.07436572 -0.0943804 0.07027159 -0.024919044 0.038787376
0.06992468 0.07096064 -0.054633185 -0.1108683 -0.11736582 -0.07651025 0.11085235 0.061455686
-0.15377425 -0.008357213 -0.178027 -0.029122457 0.008718602 0.09376478 -0.00568674 -0.08217723
-0.0064490703 -0.07628757 0.04290444 0.04141886 0.10517299 -0.0025452555 0.012255963 -0.055415798
0.007944053 -0.010534128 -0.012411759 0.047726486 0.18947665 -0.18376695 -0.14982995 0.1176564
0.0015972765 -0.041062012 -0.08501522 0.059472688 0.02864462 -0.14957152 -0.06764751 0.10229414
0.18343295 0.06711821 0.048011262 -0.067417316 0.058419313 -0.009246384 -0.012274599 -0.050485577
-0.086497076 -0.16036958 0.047969546 -0.03062057 -0.079114944 -0.13414203 0.13239864 -0.00090945547
0.2005621 -0.026536949 -0.04418153 -0.052328035 -0.053734858 0.07451925 0.0616864 0.04166734
0.08720472 0.0919706 0.08966821 -0.003899244 -0.13004754 0.01826509 0.083796814 0.036816154
-0.13736662 -0.12544212 -0.10859292 -0.049124654 0.10888636 -0.09331523 0.2485647 0.056440458
-0.046248104 -0.07015052 0.08989542 -0.094413966 0.02427655 0.04428228 -0.080468684 0.06428366
-0.10875759 -0.055909835 -0.11898267 -0.0024129243 0.082590364 0.054146048 0.040404253 0.057299834
0.077091776 -0.00380886 0.033833984 0.11139087 0.07539161 -0.11198575 0.07783143 0.019635709
0.07662922 0.09432045 -0.07489498 -0.091406666 -0.0782586 -0.06892979 0.07905888 0.01183578
-0.10345258 0.05135843 -0.06869475 0.12488851 -0.0057739425 0.046633683 0.00813705 -0.01607696
-0.051741775 0.07615706 -0.05581843 0.023957847 -0.05207746 0.06758261 -0.035111833 -0.057435706
-0.051765464 -0.0569453 -0.05177615 0.0033617283 -0.022386914 0.10252913 -0.10139805 -0.0383267
0.07833036 0.029888805 0.026243698 0.12509237 -0.10353515 0.044403132 0.008101476 0.11336641
-0.041677866 0.033311352 0.027350228 0.04845158 0.047061745 0.067354694 -0.16728303 -0.16958675
-0.057142615 0.005027087 0.0227228 0.06492524 0.10434561 0.033859722 0.0024523335 -0.003199425
0.06726561 -0.031926643 -0.021355653 -0.06794201 0.059575446 0.021993067 0.05514414 0.002038703
-0.0034005295 -0.15037999 0.14863864 0.0011462352 -0.07613453 0.057016216 0.07584925 -0.13841882
0.057979956 -0.18617389 -0.10600684 0.04543844 -0.022844713 -0.13427703 -0.05330387 -0.19341788
0.09952469 0.01800131 -0.03136551 -0.10175347 -0.12192766 0.10034979 0.10576655 -0.062402066
-0.019123022 0.006287711 0.08315746 -0.053245228 -0.17915384 -0.08491032 -0.030054396 0.09202876
-0.002073706 -0.12549539 0.057461802 0.028637586 0.113689 -0.047373634 -0.013767009 0.10164118

lstm.weight_ih_l0_reverse f4 [256, 8]
00000000: a080 35bd 8462 07be c2be fa3d 27c8 baba
00000010: 05c5 0abc fab8 c23d d069 95bd 9ee2 96bc
00000020: 508f 19bc aa77 38bd ecc9 163a a9a6 8bbd
00000030: cf92 08be 9ffa cdbd 2124 e1bd 00d5 a43b
00000040: e680 88bc d090 43be a994 7ebd d26d 00bd
00000050: 106c 70bd e9a6 58bb 3c79 42bd 3962 283d
00000060: 51bb 86bd edc4 823d 2d5d e03d 3e16 b6bd
00000070: 479f b93d bccb e43d 2898 6e3d daf0 66bd
00000080: e824 153e 73cb 053d 54c7 2abd f352 4ebd
00000090: b9e1 6e3d 5fcf a7bd cd63 74bd d8bb b53d
000000a0: b72e b2bd dae1 453e 260d e2bc b830 d3bd
000000b0: 7b9f b83d 2fae 283d e64e b0bd 8964 a23d
000000c0: 67f9 bd3d 30d2 a3bd 4bef ddbd 0c96 00be
000000d0: f7a1 233d 14b8 3c3d bb49 05bd a07f 6f3d
000000e0: bb44 6abd 7735 343d 3743 e73d 5e7f aa3d
000000f0: be67 c03d 663a edbd 0c4b 443d 2605 163c
00000100: f420 f7bd 598c ecbc 2531 c1bd e321 08bd
00000110: 2042 393d 938f 653d 9dcd c7bc 5a9d 2dbc
00000120: a703 0abe eecb 2fbb 0840 7dbb 1534 72bd
00000130: 9dbc e83a 03de 08be fba1 eebd 43c0 ab3d
00000140: 2144 9f3d f798 1dbe 0427 c23c 0fd2 d3bd
00000150: 2205 2c3b 7665 ec3d 6850 c7bd a475 6bbd
00000160: 3960 00be 9a01 77bd ee71 c83d d5ca 64bc
00000170: 21ba c5bd 85b1 833d 7dea de3d 2436 6f3d
00000180: 838c 503d 8188 103e fadc e0ba d792 25bd
00000190: 1e5b 3c3e 0357 303b 4d28 913d 01c4 193e
000001a0: 4fd1 dbbd 95ba 573d 6cf6 d03d 3e52 95bd
000001b0: 9935 a9bc 05b8 0bbe 68c9 79bc 3e6f 233b
000001c0: 336e 0fbd 47f3 d73d 6cec 5abd 4dbf 77bc
000001d0: 652d ce3a 846b a13d c863 6b3c 2345 dbbd
000001e0: 9e8c 9bbc 4112 893e 1119 333e 4d8c e03c
000001f0: e1f3 433d bdaf 2b3e 5fa7 2bbc 65aa 133e
00000200: 0e81 703d 7f7a d9bc bebe 54bd ff7f 123c
00000210: f005 6ebc 2e91 933d 5ad7 1a3d 33d1 073c
00000220: 0c6f 8f3c 44f5 65be 1e92 1c3d 1369 c6bc
00000230: 6707 acbd cb5a b3bb bca2 903d 26cc c73d
00000240: 7c10 4cbd fa76 33be b6df d53d 40eb 93bd
00000250: 37de 863d 0f2e f73d e534 10bc e01a b7bd
00000260: d08a 9b3d 5137 18bd 3700 d0bd 7c59 a5bd
00000270: 753c 603d a7e8 6dbd d9c6 05be 169e f1bd
00000280: 4416 ba3d 8d6c d03c 8f98 f63c e866 a53c
00000290: 168f 91bd 8330 01ba f4ac d2bc 7b39 003d
000002a0: 818e 6b3d f7f1 6f3e 8fca 563d 336f 223d
000002b0: 3b12 d6bd eeff 33bd 269f 833d 62df ec3c
000002c0: db27 21be 0306 ba3d a8c0 893d da30 c0bd
000002d0: 1101 91bd f598 d5bd 2cb4 a73d 69db fb3c
000002e0: 4b6a 823d b00b 6bbd 3401 833d d1a0 bdbc
000002f0: 21b7 7ebc 1578 0ebd d3e4 253d 86f4 983d
00000300: ef95 6f3d e95a e83c 887e 6c3d e2bb 88bd
00000310: 3622 06be 5049 e63d a6f2 fc3c 6aff d5bd
00000320: 7060 733d 0ad8 08be 52ba 8c3c baf3 183d
00000330: 8fc8 dfbd bcde a93d 5502 adbd 301e e8bc
00000340: 68f7 513d 066d 3d3e 6e4a dd3d 9df4 adbd
00000350: 5205 26bd a323 603d dfd2 5fbd b49b e6bd
00000360: 9bde 32bd f04e 69bd 04e3 57bd 8770 cdbd
00000370: c0a0 253d dd8c bf3b 77d4 e9bd c654 813c
00000380: 474e 2d3d f89b 853e a187 643c 3ed5 ab3d
00000390: 6cd1 d33d 6e29 673d 680e 6ebd 5eb5 373b
000003a0: 2f6b 36bd f087 02be 5673 42bd c630 f63d
000003b0: 2be0 393d 4cf1 2dbb d412 f6bb 8182 e83d
000003c0: 3249 be3c d268 9e3d 69f8 04bd 9d2b 4c3d
000003d0: baab 26bd e2cd e23d bb0a 4bbc f34d 0e3d
000003e0: 4f95 be3d 4a2c 333e 0527 323d 5d33 953d
000003f0: b439 af3b 79a9 b83d 6c96 5c3d a24b a33d
-0.04431212 -0.13221174 0.122434154 -0.0014250324 -0.008469825 0.09507938 -0.07295573 -0.018418606
-0.009372547 -0.045035996 0.00057521346 -0.06818897 -0.13337253 -0.10057568 -0.10993219 0.0050302744
-0.016663026 -0.1909821 -0.062153492 -0.031354733 -0.058696806 -0.003305847 -0.0474789 0.041109297
-0.065786965 0.06385217 0.10955272 -0.08890961 0.09063583 0.11171672 0.058250576 -0.056382038
0.1456486 0.032664727 -0.041694 -0.050372075 0.058320735 -0.0819385 -0.05966549 0.08873719
-0.087003164 0.19324437 -0.02759416 -0.10312027 0.090147935 0.04118174 -0.08608799 0.07929332
0.09276085 -0.079990745 -0.10836657 -0.12557238 0.039949384 0.046073988 -0.032541018 0.058471322
-0.057194453 0.0439963 0.11292117 0.083250746 0.09394787 -0.11583404 0.047923133 0.009156501
-0.12066832 -0.028875517 -0.09433202 -0.033235442 0.045229077 0.056045126 -0.024390036 -0.010596598
-0.13477956 -0.0026824432 -0.0038642902 -0.0591317 0.0017756406 -0.13365941 -0.11651989 0.083862804
0.077766664 -0.15390383 0.023700245 -0.103428 0.0026248177 0.1154279 -0.09732133 -0.057485238
-0.12536706 -0.06030426 0.09787355 -0.013964375 -0.09654642 0.064303435 0.10884569 0.058401242
0.050915252 0.14114572 -0.00171557 -0.04042324 0.18394133 0.0026907332 0.07087765 0.15016176
-0.10733282 0.052668173 0.10203251 -0.07291077 -0.02065544 -0.13644417 -0.015245773 0.0024938132
-0.035017204 0.10544448 -0.053448126 -0.015121293 0.0015730081 0.07881835 0.014367051 -0.10706546
-0.01898795 0.2677174 0.17490031 0.02741065 0.047840003 0.16766258 -0.010476916 0.14420469
0.058716826 -0.026547669 -0.05193972 0.008941649 -0.014527783 0.07205425 0.03780303 0.008289623
0.017509006 -0.22456843 0.038225286 -0.024220025 -0.083998494 -0.00547347 0.07062289 0.09755735
-0.04982041 -0.17525855 0.1044306 -0.07222605 0.06585353 0.12069332 -0.008801674 -0.08940673
0.07594836 -0.03716213 -0.10156291 -0.080737084 0.054745156 -0.058083203 -0.13064136 -0.117977306
0.09086278 0.025442386 0.030102042 0.020190671 -0.071073696 -0.0004928188 -0.025717236 0.031304818
0.05750895 0.23432146 0.05243927 0.03965683 -0.10452696 -0.043945245 0.064268395 0.028915111
-0.1573786 0.09083178 0.067261994 -0.09384318 -0.070802815 -0.10429565 0.08188662 0.030744271
0.0636793 -0.057384193 0.06396714 -0.023147972 -0.015546591 -0.034782488 0.040501427 0.07468514
0.058492597 0.028363662 0.057737857 -0.06676461 -0.13098988 0.11244452 0.030877423 -0.10449107
0.05941814 -0.13363662 0.017178688 0.03734181 -0.109269254 0.08294436 -0.084477104 -0.028334707
0.051261336 0.1849862 0.10805212 -0.08493922 -0.040532418 0.054721486 -0.05464446 -0.11260167
-0.043669324 -0.056960046 -0.052706733 -0.100312285 0.040436506 0.0058456496 -0.114174776 0.015787493
0.04231098 0.26095557 0.013948352 0.08390282 0.103426784 0.056435995 -0.058119208 0.0028031687
-0.044535812 -0.12747169 -0.047473274 0.120210215 0.0453798 -0.002654153 -0.0075095687 0.11353017
0.023228262 0.07734837 -0.032463465 0.04984628 -0.040691115 0.11074425 -0.012392695 0.034742307
0.09305822 0.17497364 0.043494243 0.072851874 0.005347455 0.09016699 0.05385439 0.0797341

lstm.weight_hh_l0_reverse f4 [256, 64]
00000000: afab 17be 0abc 21be 83ac 9c3d 9a7f 31bd
00000010: 3d2f 7ebd 51b2 e5bc b58c 913d a013 4b3d
00000020: 468f f5bc 600b bd3d fd5e 4bbd b330 17be
00000030: c339 d13d e9c5 3f3d 07d2 e63d 33da 1fbe
00000040: 0aa8 043e a23e 92bd 4b39 14bd 2924 15be
00000050: b510 f33c ff45 61bd e83e 773d acef 0f3d
00000060: 5753 c7bd 7dd9 7ebd 57ae 23bb b18a a93d
00000070: 8bab 05be 77c0 5dbc dafc 8bbd b062 0e3e
00000080: 4a8c 19be 2093 5a3d e7ae 05be 8588 9fbd
00000090: 0418 edbd 45b3 623d e183 0dbe de84 8fbd
000000a0: 5056 2c3c 820c c73d b619 70bd 00f8 f5bd
000000b0: 18cc 7bbd b120 2abd 3238 333d 7970 413d
000000c0: 7828 be3d ff68 c2bb dce7 f73d 00bb 4f3d
000000d0: f037 01b9 2fe3 42bd 5c28 373e 9ff7 a13d
000000e0: 51f4 a43d dd13 e23d c027 9bbd 79e4 7cbb
000000f0: f86d 0dbe c46f 1bbc e462 cc3d 9bbe b13c
00000100: 63a3 68bd 38f4 4a3e 95b8 1fbe fee3 8dbd
00000110: 85bb ec3b 158d 823d 5ae7 3f3e 46fe 793d
00000120: ef5a fe3c 733d 2c3e 538f 483d 0448 e13d
00000130: 8393 a3bd 0c18 853c 58b4 c0bd 9960 683d
00000140: 3456 ed3c e313 03bd 7de1 ac3d 285c d73c
00000150: 1f0e f9bd 5081 473d a042 a3bd b512 213c
00000160: 0a5c 80bd 4807 9b3d 50d7 79bd bc3b 833d
00000170: 71d4 09be 1f44 1cbd 3aed a3bb 5fe2 a43b
00000180: b220 043e fdcf 25be 93ee 9fbd 7182 b2bd
00000190: e238 99ba 047b 94bd e404 df3c de71 3abd
000001a0: 0d08 6d3c 75f0 6ebd a789 adbd ce82 163e
000001b0: 1a6d a2bd 91fd 75bd abc3 673c e416 27be
000001c0: bf69 a6bd 3c10 1a3c 498e fdbc 198f cdbc
000001d0: 85c8 b2bd 9688 8c3d bff7 ed3c a918 45bc
000001e0: c420 d03d b7b6 2b3c 4775 9d3d df41 b53c
000001f0: be21 9c3d 6873 593d 12f9 d0bd 6ef2 98bd
00000200: bd9b c43d f3fb b43d 81da 8ebd 6a51 0bbe
00000210: 8440 943d fbc1 74bd 963b cebd 4467 6a3d
00000220: cfd1 9b3c 881f ad3d 4b98 f1bd efaa f5bc
00000230: 8206 cb3c b607 0d3e 9794 6ebc 11c0 283d
00000240: 0ae2 9d3d ac30 823d 8667 49bd 511e bd3d
00000250: ddc6 67bd 0601 1fbd b993 ef3d 2ac1 4e3d
00000260: 3700 71bd 8477 a8bc 86de d43d a4e8 003e
00000270: e6bc efbc 4c19 493d 91e4 25bd 0e04 64bc
00000280: 49b8 e63d ed75 52bd 3e85 4dbd 6e8b a1bd
00000290: 110e 203d 87af 983d 8859 d93d 134f f4bc
000002a0: ef7d ebbd 9d1f 993d 2fa9 ad3d b0b7 e2bd
000002b0: d83b 3abd 3652 01b9 5ec8 42bd 6a0f 833d
000002c0: 9319 f3bd 58dd ccbd ab0b 2ebc ce13 323d
000002d0: 27e7 afbb f776 1abd 49c8 203e 5d60 c2bc
000002e0: 5a6f c53d 2c18 3e3d b845 0ebe 608e 14be
000002f0: fffd e7bd aff4 8cbd 3980 5dbd fe73 1cbd
00000300: 1742 1abd d8f5 723d d711 a03c 73ed 75bb
00000310: b268 b2bd c294 04be c514 ae3d cc85 e8bd
00000320: 25ad cebb e4cb bd3a 4291 f4bd 496d ef3d
00000330: ea67 ed3b fb68 023e 4251 7dbc 53fe 123e
00000340: 5faf 843c 5373 e0bb fb3f 63bd 529b 9f3d
00000350: 7596 acbd 890c bf3d 2154 25bd d507 a7bd
00000360: 19e9 c2bd eb09 943d bbf0 e4bd ad3a 2cb9
00000370: 3ad0 75bd 4c38 1a3d f3f1 603d 8d48 a4bc
00000380: 6fd4 d9ba c78b eb3d fd6a 88bd da0b 8d3d
00000390: 90ee 86bd c00b a73b 9331 a0bd fe20 1cbe
000003a0: 8a48 6d3d 0da4 5ebd d333 7dbd 2bd4 dbbd
000003b0: 73fc 21bd fb6f 4b3c b956 abbd a750 633b
000003c0: dc80 1c3c f6c3 1f3d cd8b 69bd f4a1 30bc
000003d0: 3633 fb3c c2a5 e0bb ef7a fdbd fff1 5ebd
000003e0: f6e0 15bd a26c bbbd 9e64 53bd 052c 52bd
000003f0: 5d32 173c 9e61 81bd ed59 06be 751f d33d
-0.14811586 -0.15794387 0.076500915 -0.04333458 -0.06205677 -0.02803913 0.07106916 0.049579263
-0.029975545 0.09230685 -0.049651135 -0.14764671 0.10216095 0.0468196 0.11270528 -0.1561058
0.12954727 -0.071408525 -0.03618745 -0.14564575 0.029671052 -0.054998394 0.060362726 0.03514068
-0.09732693 -0.06221913 -0.002497574 0.082784064 -0.1305372 -0.013534657 -0.06835337 0.13904834
-0.14994922 0.053362966 -0.13055001 -0.07789711 -0.11576846 0.055346746 -0.13819839 -0.07007764
0.010518625 0.097191826 -0.05861827 -0.12010193 -0.061473936 -0.041535083 0.043754764 0.047226403
0.092850626 -0.0059329267 0.121047705 0.050715446 -0.00012323237 -0.04757994 0.1788649 0.07908558
0.08054412 0.11038945 -0.07575941 -0.0038588329 -0.13811481 -0.009487096 0.099797994 0.021697333
-0.056796443 0.19819725 -0.15597756 -0.06928252 0.0072245025 0.063745655 0.18740597 0.06103351
0.03104922 0.16820316 0.04896481 0.11000064 -0.0798712 0.016246818 -0.09409398 0.056732748
0.028971769 -0.032001387 0.08441446 0.02628906 -0.121608965 0.048707306 -0.07971692 0.00983112
-0.06267555 0.07569748 -0.060996354 0.06407878 -0.13459946 -0.038150903 -0.005002645 0.0050318683
0.12903097 -0.16192622 -0.07809176 -0.08716286 -0.0011689926 -0.07250026 0.027224012 -0.04551875
0.0144672515 -0.058334786 -0.08473521 0.14698336 -0.07930966 -0.060056273 0.014145772 -0.16317326
-0.08125638 0.009403285 -0.030951636 -0.025092648 -0.08729652 0.06861989 0.029048799 -0.012029805
0.101624995 0.010480574 0.076883845 0.022126136 0.07623623 0.053088576 -0.102037564 -0.07468115
0.09600017 0.08837118 -0.0697527 -0.13605276 0.07238868 -0.059755307 -0.10069959 0.057227388
0.019020943 0.0845328 -0.11796626 -0.029988734 0.024783377 0.13772473 -0.014561794 0.041198794
0.07709129 0.0635694 -0.049170993 0.09234298 -0.056586135 -0.038819335 0.11698098 0.050477184
-0.058838096 -0.020564802 0.103940055 0.12588745 -0.029264878 0.04909639 -0.04050118 -0.013916982
0.11265618 -0.051381994 -0.050175898 -0.07887922 0.039075915 0.07455354 0.1061278 -0.029822862
-0.11498629 0.07476733 0.08479535 -0.11070192 -0.045467228 -0.00012333025 -0.047554366 0.063994244
-0.11870112 -0.100031555 -0.010622899 0.04347592 -0.0053681317 -0.03771111 0.15701403 -0.02372759
0.09640379 0.04640977 -0.13893783 -0.14507437 -0.11327743 -0.06882607 -0.05407736 -0.038196556
-0.037660684 0.059316486 0.019539757 -0.0037525564 -0.08711375 -0.12947372 0.08500055 -0.11353645
-0.0063072615 0.001448032 -0.11941768 0.11690766 0.0072450535 0.1273536 -0.015461268 0.1435483
0.016196905 -0.006849685 -0.05548094 0.07793297 -0.08427135 0.09328563 -0.040363435 -0.08155791
-0.09517116 0.07228454 -0.11178728 -0.00016425057 -0.060013033 0.037651345 0.05491824 -0.020054126
-0.0016619096 0.1150127 -0.066610314 0.06887026 -0.06588471 0.0050978363 -0.078219555 -0.1524696
0.057930507 -0.05435567 -0.061817 -0.10733827 -0.039547395 0.012416835 -0.083661504 0.0034685524
0.009552207 0.039005242 -0.05701809 -0.0107808 0.030664068 -0.0068556974 -0.12376963 -0.054430004
-0.036591493 -0.091515794 -0.051609628 -0.05131151 0.009228316 -0.06317447 -0.13120241 0.10308734

lstm.bias_ih_l0_reverse f4 [256]
00000000: 2b6e 5b3c 6d4e 0f3d 7331 9d3d a2ba 3c3b
00000010: 4542 913d fff5 cf3d 1cf3 a8bd 94c9 9a3c
00000020: 5f3e a6bd 7926 7abd 55eb 923d a085 e7bd
00000030: 6aa1 0f3e 823b 6e3b f42a a1bd 2e0e 8c3d
00000040: 3789 0cbd 7ef5 913d 3f53 9abd 738d 933d
00000050: dade 96bd db18 e2bd 1eb1 a93d 8df6 e43d
00000060: 7e36 26bd 783b 1e3d b953 28bd 7074 33bc
00000070: e952 14bb 249b dd3d 5287 d73d 35d7 0fbe
00000080: d3e9 933c 8bea 003e 3354 053c a33e 963c
00000090: be8f 48bd ea7a 72bd da5f e33c f8ea 113e
000000a0: 03e1 9bbd db72 9fbd 0360 b83d 0944 89bd
000000b0: e5dd 84bd 76c2 1a3e 7c97 3b3e d2f2 02be
000000c0: c487 15be b933 e0bd 37b8 183d 6248 58bd
000000d0: 2784 8dbd b499 193d 6444 0d3d 2aec 8b3d
000000e0: 2847 5d3c cb20 153c e2a8 653d a4e6 01be
000000f0: 5b33 aebd 0f7e 13bd c71e 943d 1983 a6bd
00000100: f4f7 123d 66d6 f43c a839 f1bd d689 c53b
00000110: 6c76 143d 9da9 4cbd fb57 76bd 12c5 8e3d
00000120: 87a2 f03c 2a4f 9ebd a001 f2bc 6835 7a3d
00000130: e58c 5d3c 3d66 0e3c 9991 cfbd 6fb8 553d
00000140: 2566 c83d 3f45 71bd ae4e 983d 91d3 983c
00000150: f0f2 5dbd c493 423d 053f 64bd d8df ab3d
00000160: ca40 80bd d29f 623d fd3b 393d c9b1 c0bd
00000170: f8fc 053e 7a7d 083e 19ff c83d fe0f 0e3c
00000180: f69a 72bd 11a9 373d 1457 0a3e 196d e63b
00000190: 7595 353d ebcb 9a3c 26ca 2ebd dba6 50bd
000001a0: 3925 cebd 061d 84bd efbc 8fbb ed13 103d
000001b0: 1fd6 153d 4d6d a63c 732b 353d 6de6 bbbd
000001c0: 236f 1c3c 5613 c93c 4e1a 2e3d 58ae d23c
000001d0: fc0f 82bc 531d e1bc 416b a33d 29f9 0c3c
000001e0: 7e79 86bd 0f13 b5bd 2d76 103e ba65 bbbd
000001f0: ac2e 183b 9807 43ba 381e fc39 0225 8d3d
00000200: 3afe 663d b1e0 2a3d 3d71 4b3d 1abe beba
00000210: 6383 cebd 03f8 0abd ebc3 013d c04f 013e
00000220: 9741 083d eafe e93d 8437 023e 794c 9cbd
00000230: b310 97bd bd83 d4bc 9cd0 023c 68c2 9cbd
00000240: d0b0 903d d6bc babd 0410 c5bc 4d31 8abd
00000250: 0a08 b13d a694 b4bc 2ecb 923c f36c 46bd
00000260: bd8d 683d ad86 6ebc a77a 99bc a07f ff3c
00000270: 0e6a 243d 495a cebd 3ba4 043c 23cf a1bd
00000280: a201 66bc 5ca4 d4bc e39f a83c 9596 ef3c
00000290: 3202 8a3b 4cc3 d2bd 6655 57bd b061 a33d
000002a0: c2d2 a6bd d05c 963c 149e 28bd e6a8 843c
000002b0: b715 a8bd 3cdb f6bd f9df 1a3d a8fe d53d
000002c0: 615b ccbd 8151 d3bd a667 e5bd 888d a2bc
000002d0: 7569 babd 1d63 ab3c 9776 a23d 79c2 d03c
000002e0: 9d09 f13b d652 073d f554 b4bd 4597 ce3d
000002f0: f9c8 dd3d e96e 9cbd 0162 ac3d bb36 b1bb
00000300: 9010 133e c15c febc 8a10 22bd 94e5 223d
00000310: 358e 0c3e da3f cf3d e6be bc3d a993 f93c
00000320: bf85 debd 005f 95bd 84fd 963d c0b5 dd3d
00000330: 9f71 783d 23cb 83bd 953e f73d fb86 14bc
00000340: cee7 f13d cfeb 92bc fb9c 23bd 9aeb 6ebd
00000350: c4ff 8b3c 06b2 d93d eb0e 153d 7c76 76bd
00000360: 83cf b53c 558d ac3d 1413 a2bb 0eda d2bd
00000370: 977e 803d 94e0 923d 1e3a a43d bb96 e2bd
00000380: 92a8 d83d d442 33bb 50f4 103e e0c6 5d3d
00000390: 496c 733d b9ad 4a3a 3666 213c 193a ee3d
000003a0: 9e90 d5bd c71b 153e 9256 a3bd 3550 c9bd
000003b0: 88af 9ebc a70d edbc 4d97 2c3e a8a5 f53c
000003c0: 4841 643d 40f3 e8bc 26ad 023d 726e 23bd
000003d0: 9887 1cbb da20 8f3d 832a c83c 4178 e5bd
000003e0: 4685 85bc 03f8 82bd d015 f53d b75b 603d
000003f0: 08dd 073e 6d51 223d 0171 593c 01cf 9e3d
0.013392965 0.034986902 0.07675447 0.0028797765 0.07092718 0.10154342 -0.082494944 0.018894948
-0.08117365 -0.061071847 0.07173792 -0.11304784 0.14026418 0.0036351387 -0.07869521 0.06838642
-0.034310546 0.07126902 -0.07535409 0.07204714 -0.07366724 -0.11039897 0.082857355 0.11179838
-0.04057931 0.038630933 -0.04109547 -0.010953054 -0.0022632426 0.10820606 0.10523857 -0.14046939
0.018055832 0.12589471 0.00813775 0.018340414 -0.04896521 -0.05919925 0.027755667 0.1424979
-0.07611277 -0.07785579 0.09002688 -0.0670243 -0.064876355 0.15113243 0.18319505 -0.12787941
-0.14602572 -0.10947365 0.037285056 -0.052803405 -0.06909972 0.0375001 0.03448905 0.06832154
0.0135057345 0.009102057 0.056069262 -0.12685639 -0.08505889 -0.03600889 0.07232433 -0.08130474
0.035880998 0.02988739 -0.11778575 0.006028394 0.03624575 -0.049966443 -0.0601425 0.06971182
0.029374374 -0.07729943 -0.02954179 0.06108609 0.013522361 0.008691368 -0.101351924 0.052177843
0.097851075 -0.05890393 0.07436882 0.01865557 -0.05418676 0.0475042 -0.055724163 0.08392304
-0.062623575 0.055328198 0.045223225 -0.0940891 0.13084781 0.13329116 0.09814281 0.008670805
-0.059229814 0.04483897 0.1350978 0.0070320484 0.044331986 0.018896064 -0.042673253 -0.050940376
-0.100656934 -0.06450848 -0.0043865363 0.035175253 0.036581155 0.02031579 0.04423089 -0.091748096
0.009547981 0.024545353 0.042505555 0.0257179 -0.015876763 -0.027479803 0.079794414 0.008604326
-0.065661415 -0.08841526 0.1410758 -0.09150262 0.0023221178 -0.0007439791 0.000480877 0.06891824
0.056394793 0.04171819 0.04966854 -0.0014552504 -0.10083654 -0.03392793 0.031680983 0.12628078
0.033265676 0.11425574 0.1271649 -0.076317735 -0.07376232 -0.025941724 0.007984307 -0.076542675
0.07064974 -0.09118049 -0.024055488 -0.06747685 0.086441115 -0.022043537 0.01791915 -0.048443746
0.056775797 -0.014558476 -0.018735243 0.031188786 0.040140204 -0.10075814 0.008095796 -0.07900836
-0.014038475 -0.025957279 0.020584052 0.029246608 0.0042116875 -0.10291156 -0.052571677 0.07977617
-0.081456676 0.018354803 -0.04116638 0.016193818 -0.08207267 -0.120535344 0.037811253 0.104489625
-0.09978367 -0.1031828 -0.1120141 -0.019842878 -0.091021456 0.020921284 0.079327755 0.025483357
0.0073558823 0.033037983 -0.08805267 0.10087446 0.10829348 -0.07638342 0.0841713 -0.0054081357
0.14361787 -0.031050088 -0.039566554 0.039769724 0.13726123 0.101196006 0.092160985 0.030465918
-0.10865354 -0.072935104 0.07372573 0.10825682 0.060655233 -0.0643523 0.120724835 -0.009065385
0.11811791 -0.017934708 -0.03994463 -0.058330156 0.017089732 0.106296584 0.03639118 -0.06017159
0.022193676 0.084253944 -0.004946122 -0.10295497 0.06274145 0.07171741 0.080188975 -0.11063906
0.10579027 -0.0027353065 0.14155698 0.05414474 0.05942944 0.0007731575 0.009851029 0.11632175
-0.10427974 0.14561377 -0.07975496 -0.098297514 -0.01937081 -0.028937174 0.16854592 0.029986218
0.05572632 -0.028436303 0.03190341 -0.03990025 -0.002388453 0.06988688 0.024434334 -0.11204577
-0.016298901 -0.06394961 0.11967051 0.054774966 0.1326791 0.039628435 0.013271571 0.077543266
