models/timeseries_lstm.pth (torch, 569649 bytes, 19 tensors)

lstm.weight_ih_l0 f4 [256, 8]
0	0xbd0e2e10	-0.034711897
1	0x3e71d1f2	0.23615244
2	0xbd6e0d2b	-0.058118027
3	0x3cfbbd02	0.030729774
4	0x3cade25c	0.0212261
5	0x3c363e62	0.011123272
6	0xbcd9372a	-0.026515562
7	0xbdb009ba	-0.08595605
8	0x3dc9960e	0.09843074
9	0x3eb24e46	0.34825343
10	0xbdee7425	-0.116432466
11	0x3de3ce2c	0.111233085
12	0x3d7163e5	0.058933157
13	0x3d3cc255	0.046083767
14	0x3dad0458	0.08448094
15	0x3d198657	0.037481632
16	0xbe2b947d	-0.16755863
17	0xbdb214f4	-0.08695403
18	0xbba1269d	-0.004917933
19	0xbd9ce113	-0.07660117
20	0xbcd1c1ac	-0.025605045
21	0xbe3c5053	-0.18390016
22	0xbd34fa7a	-0.044184186
23	0x3bacd634	0.0052745584
24	0x3daa39b9	0.08311791
25	0x3e69140b	0.22761552
26	0x3d908c38	0.070579946
27	0x3dc9b849	0.09849603
28	0xbd5748e6	-0.052559756
29	0xbdfd09b2	-0.12355365
30	0xbd3e0360	-0.046389937
31	0xbcdd6604	-0.027026184
32	0x3be5cb37	0.0070127505
33	0xbd5a7746	-0.053336404
34	0xbd86dd79	-0.06585211
35	0xbe0d4974	-0.13797551
36	0x3cf37d29	0.029722767
37	0xbd594590	-0.053044856
38	0xbde00235	-0.10937921
39	0xbdd2b1ce	-0.1028782
40	0xbdd7e933	-0.10542526
41	0x3e51c257	0.20484291
42	0xbdb34966	-0.08754234
43	0x3c59e721	0.013299734
44	0x3cb8ebc7	0.022573365
45	0x3d97bd9b	0.07409211
46	0xbc20e396	-0.009819886
47	0xbcf2d637	-0.029643161
48	0x3b357849	0.0027690104
49	0x3e2fd5ca	0.17171398
50	0xbdcc6278	-0.09979719
51	0xbe27d056	-0.16388068
52	0xbc375f2e	-0.011192126
53	0xbe37da77	-0.17954431
54	0x3b030272	0.0019990471
55	0xbc8fcdcb	-0.017554184
56	0xbdf3ec9a	-0.119103625
57	0x3d90b760	0.07066226
58	0xbccf93e1	-0.025339069
59	0x3d3283ed	0.043582845
60	0x3d83d6b4	0.06437436
61	0x3dbf92cd	0.09354172
62	0x3d091abb	0.033472758
63	0xbd4557be	-0.04817938
64	0xbdbbc556	-0.09168498
65	0xbe5f4ce1	-0.2180667
66	0xbd597da1	-0.053098325
67	0xbc3dfbdc	-0.0115956925
68	0xbd24d576	-0.040242635
69	0xbe02daae	-0.12778732
70	0x3d826e8f	0.06368744
71	0xbba326e2	-0.0049790004
72	0xbdab8992	-0.08375849
73	0x3e77e699	0.2420906
74	0x3d09a37a	0.03360317
75	0xbd44594e	-0.04793673
76	0xbd1a3078	-0.03764388
77	0xbc8e2603	-0.01735211
78	0xbc0bbe47	-0.008529252
79	0x3de74200	0.112918854
80	0x3db4f1f9	0.08835215
81	0xbe1296dd	-0.14315362
82	0x3d445ef8	0.04794213
83	0xbe1417f5	-0.14462264
84	0xbe13d398	-0.14436185
85	0x3d9ba48f	0.075997464
86	0xbd621cf2	-0.055203386
87	0xbe0b774f	-0.13619731
88	0xbd590fec	-0.0529937
89	0xbd4f4102	-0.050599106
90	0xbdbaecea	-0.09127219
91	0xbe1daac0	-0.15397167
92	0xbdfc140c	-0.12308511
93	0xbd64a619	-0.055822466
94	0xbd45e3c7	-0.04831293
95	0xbdfb571a	-0.12272473
96	0xbd87e142	-0.066347614
97	0x3e0af5c3	0.13570313
98	0x3d7afefb	0.061278325
99	0x3d88e0d8	0.066835105
100	0xbddf765d	-0.10911248
101	0xbdfc8450	-0.12329924
102	0xbdc6d9f0	-0.09709537
103	0xbc760b48	-0.015017338
104	0xbde15de5	-0.11004237
105	0xbe8690f6	-0.2628247
106	0xbe7609ec	-0.24027222
107	0xbe262f32	-0.16228941
108	0xbe320fdd	-0.17388864
109	0xbd1b95cb	-0.03798465
110	0xbdd4fa70	-0.1039933
111	0xbd757510	-0.059926093
112	0x3e0c9149	0.13727297
113	0x3e902c28	0.2815869
114	0x3d46570e	0.048422866
115	0x3d4e994a	0.050439157
116	0x3bfb0d94	0.0076615307
117	0xbc94a61e	-0.018145617
118	0x3dbe689a	0.09297295
119	0x3e144462	0.14479211
120	0x3cdc7447	0.026910914
121	0x3e71171c	0.23543972
122	0xbe400bba	-0.18754473
123	0xbe2d0289	-0.16895498
124	0xbccb5346	-0.024819981
125	0xbe3edd9c	-0.18639225
126	0xbdc2a237	-0.09503596
127	0xbd03ed81	-0.032208923
128	0x3c3ab3d1	0.011395411
129	0xbeae2090	-0.34009218
130	0xbe097ad7	-0.13425766
131	0xbda295bb	-0.07938715
132	0xbe5a1111	-0.21295573
133	0xbe6f25c0	-0.23354244
134	0x3b628269	0.0034562594
135	0xbdbf4cad	-0.093407966
136	0xbe23ade1	-0.15984298
137	0xbe9cdbca	-0.30636436
138	0xbddf9457	-0.109169655
139	0xbe38aa2b	-0.18033664
140	0x3c7912b3	0.015202212
141	0x3c24132d	0.0100143375
142	0xbd19d512	-0.037556715
143	0x3b85da14	0.004084835
144	0x3dc27731	0.0949539
145	0x3d685ed0	0.056731045
146	0x3de7fa37	0.113270216
147	0x3d01d80e	0.031700186
148	0xbd16bd81	-0.03680182
149	0x3de64d21	0.1124518
150	0x3d536d46	0.051617883
151	0x3dbd3058	0.092377365
152	0x3c681360	0.014164776
153	0x3ea7719f	0.32703874
154	0xbd80bbb5	-0.06285802
155	0x3d5b51eb	0.05354492
156	0xbe0b3994	-0.13596183
157	0xbde7658f	-0.11298668
158	0xbdab6854	-0.083695084
159	0x3ce06f41	0.0273968
160	0x3cd3d1a1	0.025856795
161	0x3d9fa441	0.07795001
162	0xbcc8e294	-0.024522103
163	0xbd3227a7	-0.043494847
164	0x3c88d7a8	0.016704395
165	0xbcf0458a	-0.029330034
166	0x3d94515e	0.07242082
167	0xbdbe9f7f	-0.09307765
168	0x3e13ebdd	0.14445443
169	0x3e486a79	0.19571866
170	0x3e0624f5	0.13100035
171	0x3d56ae8a	0.052412547
172	0xbd0973db	-0.033557754
173	0x3e560a17	0.20902286
174	0x3e4026f9	0.18764867
175	0x3de59db6	0.112117216
176	0x3d6e0600	0.05811119
177	0x3eec6ca9	0.4617665
178	0x3cb60040	0.022216916
179	0x3e19412c	0.14966267
180	0xbce0d903	-0.02744723
181	0x3c44df1c	0.012016084
182	0xbd3b5327	-0.045733597
183	0x3db02b6f	0.08602034
184	0xbda8e5ab	-0.08246931
185	0x3e55903d	0.20855804
186	0xbe17e827	-0.14834653
187	0xbe27847d	-0.16359134
188	0xbb2bae7a	-0.0026196525
189	0xbdf235de	-0.118266806
190	0xbe4d6901	-0.20059587
191	0xbe0b3dbe	-0.13597772
192	0xbe04e97a	-0.12979689
193	0x3c456605	0.012048249
194	0xbdb6c2f9	-0.08923907
195	0xbe006d95	-0.12541802
196	0xbe2994c5	-0.16560657
197	0xbe16d4c1	-0.14729597
198	0xbd62a26d	-0.055330683
199	0xbe1e3995	-0.15451653
200	0xbd9611bf	-0.073276035
201	0xbe56ad5f	-0.20964573
202	0xbdadb86f	-0.084824435
203	0xbe3f2e85	-0.1867009
204	0xbe2b69d4	-0.16739589
205	0xbdb35fa2	-0.08758475
206	0xbcc44197	-0.023957057
207	0xbad5aa81	-0.0016301424
208	0xbc980222	-0.018555705
209	0xbd375b2f	-0.044764694
210	0xbdbd7394	-0.092505604
211	0xbcaa615d	-0.02079838
212	0xbe22f937	-0.1591538
213	0xbd835107	-0.06411939
214	0xbd9e7ffc	-0.07739255
215	0xbdc40a45	-0.09572271
216	0xbd475f58	-0.04867491
217	0xbd9a963c	-0.07548186
218	0x3bb5c283	0.0055468692
219	0xbd86f151	-0.06588996
220	0xbde89a48	-0.11357552
221	0xbdf179b7	-0.117907934
222	0xbce73355	-0.02822272
223	0xbd1b1c90	-0.037869036
224	0xbe1e63a7	-0.15467702
225	0xbe6700c6	-0.22558889
226	0x3c890b50	0.016729027
227	0x3c13a8c7	0.009012408
228	0xbddc0263	-0.10742643
229	0xbe384906	-0.17996606
230	0xbd65cfdc	-0.056106433
231	0x3b958998	0.0045635216
232	0xbdd90072	-0.10595788
233	0xbd4d67bf	-0.050147768
234	0xbd840935	-0.064470686
235	0xbd44b422	-0.04802335
236	0xbd23ccbd	-0.039990176
237	0xbdf63f1f	-0.12023758
238	0xbd2fd14a	-0.042924203
239	0x3bec9442	0.007219822
240	0xbc6f04a3	-0.014588508
241	0xbdbb4f85	-0.091460265
242	0xbdd3cfb7	-0.10342353
243	0xbd88f1a8	-0.06686717
244	0xbd373f67	-0.0447382
245	0xbd99d211	-0.0751077
246	0xbe0704f7	-0.13185488
247	0xbc88f08f	-0.01671627
248	0xbce6ad05	-0.028158674
249	0xbe2d3405	-0.16914375
250	0xbda2e6d4	-0.07954183
251	0xbe387122	-0.18011907
252	0xbd23d301	-0.03999615
253	0xbc63ee0f	-0.013911738
254	0xbe5c5069	-0.21515049
255	0xbe111f72	-0.14172152

lstm.weight_hh_l0 f4 [256, 64]
0	0xbce90f99	-0.02844982
1	0xbe1a15f8	-0.15047443
2	0xbb8be262	-0.0042689303
3	0xbc9382ad	-0.018006647
4	0x3dc8bc0a	0.098014906
5	0x3d975755	0.07389704
6	0xbe280d60	-0.16411352
7	0x3d8d3c02	0.06896211
8	0x3ddff652	0.10935654
9	0xbc4431fe	-0.01197481
10	0x3e2352d5	0.15949567
11	0xbddd3f15	-0.108030476
12	0xbdf3c5f6	-0.119029924
13	0xbdd0c34b	-0.10193499
14	0x3d409e0d	0.04702573
15	0x3d3417a9	0.043967877
16	0xbd8e53b5	-0.069495596
17	0x3d09f59e	0.033681504
18	0xbd43ba8e	-0.047785334
19	0x3da2b05b	0.079437934
20	0xbd1f29f9	-0.038858388
21	0xbe04ce88	-0.1296941
22	0xbdda4f12	-0.10659613
23	0x3c85ee95	0.016349116
24	0x3ddbd577	0.107340746
25	0x3c778f30	0.015109822
26	0xbda4795e	-0.080309615
27	0x3d63d650	0.055624306
28	0xbd44a35c	-0.048007354
29	0x3ba2ef5a	0.0049723806
30	0x3e3b8cce	0.18315431
31	0xbc69ccf4	-0.014270056
32	0xbe45aefe	-0.19305035
33	0x3e0b14c6	0.13582143
34	0xbe13aec1	-0.14422132
35	0x3db7ee12	0.08980955
36	0x3de08a71	0.109639056
37	0x3de454d8	0.11148995
38	0xbdc9ae3d	-0.098476864
39	0x3dae7f5a	0.08520384
40	0xbc446d21	-0.011988909
41	0x3e115ece	0.14196321
42	0xbde1330d	-0.10996065
43	0xbe48db7f	-0.19614981
44	0x3d8a1a54	0.06743303
45	0xbe09431b	-0.13404505
46	0xbdc4abfa	-0.096031144
47	0x3d87ebcd	0.06636772
48	0x3d137d42	0.036008127
49	0xb9c4a77d	-0.00037508822
50	0x3cb36aa6	0.02190144
51	0x3df1d1f6	0.11807625
52	0xbde44d29	-0.1114753
53	0xbdffd164	-0.1249111
54	0xbdcccdc9	-0.10000188
55	0x3c8995c4	0.016795047
56	0x3d17530e	0.03694444
57	0x3d9e90f9	0.07742495
58	0x3c795ab8	0.015219383
59	0xbdbc3f17	-0.09191721
60	0xbdb26ea4	-0.08712509
61	0x3e1c8f4d	0.1528904
62	0xbc814485	-0.015779743
63	0xbc961dcb	-0.018324753
64	0xbd651bcc	-0.055934712
65	0xbd807d78	-0.06273931
66	0x3d42bbb1	0.047542278
67	0xbcd78ec9	-0.026313202
68	0x3ddd7289	0.108128615
69	0x3c817d45	0.015806803
70	0xbd954ba0	-0.07289815
71	0xbbf7bd93	-0.007560441
72	0xbc74f50c	-0.014951002
73	0x3ded231b	0.115789615
74	0xb9ec9ec0	-0.00045131706
75	0xbe11a68f	-0.14223693
76	0xbd29173a	-0.041281916
77	0xbca2a6b7	-0.019854886
78	0xbe16d08c	-0.14727992
79	0x3dff051a	0.12452145
80	0x3d23b180	0.0399642
81	0xbb44a7a4	-0.0030007148
82	0x3d809fff	0.06280517
83	0x3dc1586b	0.094406925
84	0xbe508e28	-0.20366728
85	0xbe4f97c0	-0.20272732
86	0xbe2e721e	-0.1703572
87	0xbcf9d402	-0.030496601
88	0x3d6d1159	0.057877872
89	0xbe34b38e	-0.1764662
90	0x3c832b75	0.016011933
91	0x3d96f6f0	0.07371318
92	0x3d92c483	0.07166388
93	0xbd4de8f2	-0.050270982
94	0x3e1c0e75	0.1523989
95	0xbbed88d8	-0.007248979
96	0xbdedc766	-0.11610298
97	0xbd3d09db	-0.046151977
98	0xbd38a494	-0.04507883
99	0x3d804493	0.062630795
100	0xbd113148	-0.03544739
101	0x3e0ef30e	0.13959906
102	0xbde5faf4	-0.11229506
103	0xbdb46cfb	-0.08809849
104	0xbdf32a0c	-0.11873254
105	0x3ddc75b7	0.1076464
106	0x3ce5100c	0.027961753
107	0xbd2da1eb	-0.042390745
108	0x3dc30400	0.09522247
109	0x3ca791dd	0.020455295
110	0xbc662eeb	-0.014049272
111	0xbd88787e	-0.06663607
112	0x3d98e700	0.07465935
113	0x3d5d5791	0.054038588
114	0xbe14baa7	-0.14524327
115	0x3d4df882	0.050285824
116	0x3d6fe48a	0.05856756
117	0x3e139ab1	0.14414479
118	0xbd6f2a9b	-0.05839024
119	0x3d1a2e85	0.03764202
120	0x3c89b30e	0.016809013
121	0xbd38a593	-0.04507978
122	0xbd90c76a	-0.07069285
123	0x3ac89e45	0.0015305957
124	0xbdd70b4d	-0.10500202
125	0x3df2b66b	0.118512
126	0x3d801743	0.06254437
127	0xbe1bc2a2	-0.15210965
128	0x3dbe2e44	0.09286168
129	0xbd5dc354	-0.054141358
130	0xbd6bc0a0	-0.05755675
131	0xbd4d0578	-0.050054044
132	0xbd8ffb39	-0.07030339
133	0xbe0686ba	-0.13137332
134	0xbcdb33f9	-0.02675818
135	0x3d90fc40	0.07079363
136	0x3dc0bc01	0.09410859
137	0xbde5ad0d	-0.112146474
138	0xbe0aa846	-0.13540754
139	0x3d5f3a06	0.054498695
140	0xbbaaa8f3	-0.0052081286
141	0xbde1b952	-0.11021675
142	0x3d17a02c	0.037017986
143	0x3ce3cfed	0.027809108
144	0xbd042812	-0.032264777
145	0xbd5f034a	-0.054446496
146	0xbd238b35	-0.03992768
147	0x3bf52018	0.0074806325
148	0xbe04ef56	-0.12981924
149	0x3d33909c	0.043839082
150	0x3ca8c014	0.020599402
151	0xbcffb88a	-0.031215925
152	0xbce02d84	-0.027365454
153	0xbd25f40e	-0.04051595
154	0xbd1f7dab	-0.038938206
155	0x3d838549	0.064219065
156	0x3d29effd	0.041488636
157	0x3b3ad2f5	0.0028507088
158	0x3d470b8c	0.048594996
159	0xbc5f43e8	-0.01362703
160	0x3df3313f	0.11874627
161	0x3d2f3506	0.042775176
162	0xbdc7b72d	-0.09751735
163	0x3e040e71	0.12896134
164	0xbc6e41b5	-0.014542033
165	0xbc5e3c4a	-0.013564179
166	0x3e1e0dbd	0.15434928
167	0x3e15d699	0.14632644
168	0xbda69244	-0.08133367
169	0x3d282716	0.0410529
170	0xbd51147e	-0.051044933
171	0x3d2127b6	0.039344512
172	0xbbfa4a47	-0.007638249
173	0x3d08217e	0.033235066
174	0x3c93d4d0	0.018045813
175	0xbd910341	-0.07080699
176	0xbddd46a2	-0.10804488
177	0xbc1d5c30	-0.009604499
178	0x3c465d7a	0.0121072475
179	0x3cc90458	0.024538204
180	0xbd922dcc	-0.07137641
181	0x3b4f904a	0.0031671696
182	0x3d89d88b	0.067307554
183	0xbd133358	-0.035937637
184	0xbda18daf	-0.07888352
185	0x3ce0d426	0.02744491
186	0xbd7a1069	-0.061050806
187	0xbc76ca82	-0.01506293
188	0x3d9a11bf	0.07522916
189	0x3d49797d	0.049188126
190	0x3c988074	0.018615939
191	0xbca67fb3	-0.020324564
192	0xbddd5da0	-0.10808873
193	0xbe1f0ff0	-0.15533423
194	0x3e41b822	0.18917897
195	0x3e2e703d	0.17035003
196	0x3d9d05a0	0.076670885
197	0xbd01b462	-0.031666167
198	0xbdb123e2	-0.08649422
199	0x3df0ea7d	0.11763475
200	0xbdc8fe06	-0.09814076
201	0xbd94ce35	-0.07265893
202	0xbcd50893	-0.026005065
203	0xbe39368d	-0.18087216
204	0xbdd1ddd3	-0.10247388
205	0xbe3b950d	-0.18318577
206	0xbd078fcf	-0.03309613
207	0x3d769184	0.06019737
208	0xbe0b6a38	-0.13614738
209	0x3d8ce097	0.068787746
210	0xbe16ad9e	-0.14714667
211	0x3dec40c9	0.11535794
212	0xbdfb7e38	-0.12279934
213	0xbe10af1e	-0.14129302
214	0xbe57746a	-0.21040502
215	0xbc1013b7	-0.008793763
216	0x3e1af00b	0.15130632
217	0xbd68be59	-0.056822155
218	0xbd939f19	-0.0720808
219	0x3db9e02e	0.09075962
220	0x3d8b69c6	0.06807284
221	0xbe18ea91	-0.1493323
222	0x3def683b	0.11689802
223	0xbb236c3e	-0.0024936344
224	0xbda22c7c	-0.07918641
225	0x3e217cd8	0.1577028
226	0x3a9ad967	0.0011814059
227	0xbdd3073d	-0.10304115
228	0x3e449491	0.19197299
229	0x3d451d03	0.04812337
230	0xbc928ab0	-0.017888397
231	0xbc9a1f5e	-0.018813785
232	0xbd83ed1e	-0.06441711
233	0xbd29b419	-0.04143152
234	0xbd295c9c	-0.041348085
235	0xbe0ee691	-0.13955142
236	0xbcb1f124	-0.02172143
237	0xbe23d7ce	-0.16000292
238	0xbdccb2af	-0.09995019
239	0x3d500aba	0.05079148
240	0x3e389434	0.18025285
241	0x3dc5febf	0.096677296
242	0x3c58da94	0.013235707
243	0x3e12f699	0.14351882
244	0x3aeba8e1	0.0017979407
245	0x3d8c576c	0.06852612
246	0xbe2a383d	-0.16623016
247	0xbddae2fa	-0.106878236
248	0x3ce64093	0.028106963
249	0xbd6cdf4d	-0.057830144
250	0x3dca8886	0.09889321
251	0x3d955e54	0.07293382
252	0xbd86603c	-0.06561324
253	0x3c9401e4	0.018067308
254	0x3e293c5c	0.16526932
255	0xbb96e1d9	-0.00460456

lstm.bias_ih_l0 f4 [256]
0	0xbe10bc10	-0.1413424
1	0xbcc001c4	-0.023438342
2	0xbe395cf7	-0.1810187
3	0xbd84dcb2	-0.06487407
4	0xbdb3e2be	-0.08783482
5	0xbdf78c40	-0.120872974
6	0xbe2aa5eb	-0.16664855
7	0x3d0c6962	0.03428019
8	0xbd4b97ba	-0.049705245
9	0x3d07365d	0.03301083
10	0x3dacb281	0.084324844
11	0xbdec9270	-0.11551368
12	0x3d6f8fa6	0.058486603
13	0xbe02e0b1	-0.12781025
14	0x3d17da95	0.03707369
15	0x3d65973c	0.05605243
16	0xbe1c0976	-0.15237984
17	0xbe4be3e2	-0.19911149
18	0x3ccfc798	0.025363728
19	0xbd81c488	-0.063363135
20	0xbdbf4c93	-0.09340777
21	0x3e167c53	0.14695863
22	0x3e0ecce0	0.13945341
23	0xbe02dc28	-0.12779295
24	0xbe0ce6a4	-0.13759857
25	0xbe499f52	-0.19689682
26	0xbe4f0d3e	-0.20219895
27	0x3c530338	0.012879185
28	0x3c4dc3ef	0.012558921
29	0xbe3b4021	-0.18286182
30	0xbd2d6748	-0.042334825
31	0xbbe5833c	-0.0070041697
32	0xbe27515e	-0.16339633
33	0xbcd11ee1	-0.02552742
34	0xbd0b559a	-0.034017183
35	0xbe3fef09	-0.18743528
36	0xbdaf5e9d	-0.08562968
37	0x3dd64dce	0.10464059
38	0xbe1ae44e	-0.15126154
39	0xbe95efd6	-0.29284543
40	0x3d916f55	0.07101313
41	0x3d3b426a	0.045717634
42	0x3ca12a69	0.019673543
43	0xbd05a64b	-0.032629292
44	0x3d3d7775	0.0462565
45	0x3d1a3660	0.037649512
46	0x3d959c07	0.073051505
47	0xbda61a53	-0.0811049
48	0x3e15c862	0.14627221
49	0xbd965992	-0.07341303
50	0x3db84d34	0.089991
51	0xbc78a649	-0.015176364
52	0xbe0fabba	-0.14030352
53	0xbd890528	-0.066904366
54	0xbdcdb72c	-0.10044703
55	0xbd147787	-0.036246803
56	0xbc903a28	-0.017605856
57	0xbdb2c882	-0.0872965
58	0xbe258999	-0.1616577
59	0xbdc6f438	-0.0971455
60	0xbd3d42bc	-0.04620622
61	0xbce0b414	-0.027429618
62	0xbda91442	-0.08255817
63	0xbe438d9d	-0.1909699
64	0xbde47e62	-0.11156918
65	0x3c92b3ea	0.017908055
66	0xbdbca18b	-0.092104994
67	0x3e59b268	0.21259463
68	0xbb52afad	-0.0032148168
69	0x3c38116c	0.011234622
70	0x3d66fbd0	0.05639249
71	0x3d6531cf	0.055955704
72	0x3ded9ca3	0.11602142
73	0x3d16d173	0.03682084
74	0xbd7ab559	-0.061208103
75	0xbd742cf4	-0.059613183
76	0x3ea760d6	0.32691067
77	0xbd7c9fd3	-0.061675858
78	0x3e064859	0.13113536
79	0xbd891589	-0.06693561
80	0x3c16f498	0.009213589
81	0xbda160ad	-0.078797676
82	0x3dcad4c6	0.099038646
83	0x3cadcbfa	0.021215428
84	0x3aba7cc7	0.001422786
85	0x3e39c805	0.18142708
86	0x3c08cf95	0.008350273
87	0xbd104113	-0.03521831
88	0x3c80cf00	0.015723705
89	0xbe1666e7	-0.14687692
90	0xbd9a9528	-0.075479805
91	0x3d929e4b	0.07159098
92	0xbd4ffe7d	-0.05077981
93	0x3d99b283	0.075047515
94	0xbc9d91d3	-0.019234573
95	0xbe20d745	-0.15707119
96	0x3c4353a8	0.011921801
97	0x3c3308fa	0.010927433
98	0xbbcf2e33	-0.006322646
99	0xbe44bc36	-0.19212422
100	0xbdaa5197	-0.08316343
101	0x3a94f5ba	0.0011364736
102	0x3dda093a	0.10646291
103	0xbe8a975a	-0.27068597
104	0xbcca0336	-0.024659734
105	0x3c831aa8	0.016003922
106	0x3ded7409	0.115943976
107	0xbe4a3787	-0.19747745
108	0xbd6e1175	-0.058122117
109	0x3dac8882	0.08424474
110	0x3d65a7e6	0.056068324
111	0xbd6f5407	-0.058429744
112	0x3e0e4e25	0.13896997
113	0xbe10aa06	-0.14127359
114	0x3d01b887	0.03167012
115	0x3ae78d60	0.0017666034
116	0x3ca97efc	0.020690434
117	0x3e3f2fbd	0.18670554
118	0xbd5e5796	-0.054282747
119	0xbdbfe64b	-0.09370097
120	0x3d2a9005	0.041641254
121	0x3e212de9	0.1574017
122	0x3d4c7dee	0.049924783
123	0xbdfdb041	-0.123871334
124	0xbc20604d	-0.009788585
125	0x3e538de0	0.2065959
126	0xbd7ed22e	-0.06221216
127	0xbd198c0a	-0.037487067
128	0xbd9350d7	-0.07193153
129	0x3bd32ee6	0.0064447997
130	0x3cd623c2	0.026140098
131	0xbb971e20	-0.0046117455
132	0xbae2f2ea	-0.0017314826
133	0x3d863dcc	0.065547556
134	0x3d19be7c	0.037535176
135	0xba8bd658	-0.0010668738
136	0xbd7ae6ef	-0.06125539
137	0x3cb299c6	0.02180184
138	0x3c99b7d6	0.018764418
139	0x3b423196	0.0029631606
140	0x3d2e9757	0.042624798
141	0x3ddffaa4	0.10936478
142	0xbc810ff4	-0.015754677
143	0x3d967058	0.073456466
144	0xbd23c9e4	-0.03998746
145	0x3d222471	0.039585534
146	0x3da4c575	0.080454744
147	0x3c93a39b	0.01802235
148	0x3c5f965a	0.013646686
149	0xbcd23956	-0.025662106
150	0x3c67be27	0.014144457
151	0xbd71f1ab	-0.059068363
152	0xbd282ab1	-0.04105634
153	0xbd43f1ad	-0.0478379
154	0xbd86337d	-0.06552789
155	0x3cedccef	0.029028384
156	0x3db6893a	0.08912893
157	0x3b500d79	0.0031746312
158	0x3d8963b3	0.06708469
159	0x3cb2a27a	0.02180599
160	0x3c92def3	0.017928576
161	0xbc37ea8d	-0.011225355
162	0x3bf51a0b	0.007479911
163	0x3d3e7869	0.04650155
164	0x3cdad24b	0.026711604
165	0x3d80cb0b	0.062887274
166	0xbddb3ff2	-0.10705556
167	0xbcc05fda	-0.023483206
168	0x3d0866af	0.03330105
169	0x3dd981d3	0.10620465
170	0xbd1f5c37	-0.038906302
171	0xbd9dd00f	-0.077057
172	0xba5177e2	-0.0007990581
173	0x3da022fd	0.078191735
174	0xbc4c890b	-0.012483845
175	0xbcff65d7	-0.03117649
176	0xbb41dcea	-0.0029581138
177	0x3d781906	0.06057074
178	0x3da028c0	0.078202724
179	0xbcb55b90	-0.022138387
180	0x3c3365df	0.010949581
181	0x3d2b0c30	0.04175967
182	0x3db65799	0.08903427
183	0xbc77e4b9	-0.015130215
184	0x3d79109d	0.06080686
185	0x3d523f12	0.05132968
186	0xbdad5dd5	-0.08465163
187	0x3e0fe0ec	0.14050645
188	0x3da21bde	0.079154715
189	0x3d4271db	0.047471862
190	0xbddb070c	-0.106947035
191	0xbd4f3218	-0.050584882
192	0xbdc8bce1	-0.09801651
193	0x39474723	0.0001900462
194	0xbe0d89e5	-0.13822134
195	0x3b5f1e25	0.0034045067
196	0xbc937e5f	-0.018004594
197	0xbd995850	-0.074875474
198	0xbe0bf1c8	-0.13666451
199	0xbdc6c6c4	-0.0970588
200	0xbd835bbc	-0.06413981
201	0xbc9ba74f	-0.019000677
202	0xbd9544f1	-0.0728854
203	0xbe5db9bd	-0.21652885
204	0xbdb45577	-0.088053636
205	0xbe72ad62	-0.23698953
206	0xbcb53dbd	-0.022124166
207	0xbe15bfed	-0.14623995
208	0xbe07bad8	-0.13254869
209	0xbdf44b33	-0.119284056
210	0xbc3c690c	-0.0114996545
211	0xbe2a8a43	-0.16654305
212	0xbe0f00c5	-0.13965137
213	0x3d5ce3f0	0.053928316
214	0x3d897c42	0.067131534
215	0xbe18f402	-0.14936832
216	0xbde7761f	-0.11301827
217	0xbc97d8e0	-0.018536031
218	0xbe16481a	-0.14675942
219	0x3d244258	0.040102333
220	0xbe09ce29	-0.1345755
221	0xbe1aa46d	-0.15101786
222	0xbd7abc94	-0.061215
223	0xbdee0a90	-0.116231084
224	0xbdfa742f	-0.122291915
225	0x3ba011f7	0.004884954
226	0xbd082f3a	-0.033248164
227	0xbd49dab6	-0.049280845
228	0xbd92296b	-0.07136806
229	0x3b6ccef2	0.0036134091
230	0x3d198118	0.03747663
231	0xbe681971	-0.22665955
232	0x3d90f05b	0.07077094
233	0xbc9fb9ff	-0.01949787
234	0x3c835521	0.016031804
235	0xbe123fb8	-0.1428212
236	0xbd3ff952	-0.04686863
237	0xba403a62	-0.00073329185
238	0xbdb8c512	-0.09021963
239	0xbdf0017b	-0.117190324
240	0xbdc8f865	-0.098130025
241	0xbdfc17f1	-0.12309254
242	0x3a3edf3a	0.0007281188
243	0xbe04e0e8	-0.1297642
244	0xbd95732a	-0.072973564
245	0xbe4ecdc3	-0.2019568
246	0x3d92e22e	0.071720466
247	0xbe468f8f	-0.19390701
248	0x3bb62ad2	0.005559304
249	0x3d4d1f05	0.05007841
250	0xbe3ed76d	-0.18636866
251	0xbe86d57f	-0.2633476
252	0xbd6fd670	-0.058554113
253	0xbb6cec9b	-0.003615177
254	0xbdc72549	-0.097239085
255	0xbc55a988	-0.013040908

lstm.bias_hh_l0 f4 [256]
0	0xbd26264a	-0.04056386
1	0xbd654981	-0.055978302
2	0xbde07992	-0.10960688
3	0xbdcd4021	-0.10021997
4	0xbddabaa0	-0.10680127
5	0xbe04e94e	-0.12979624
6	0xbe30e381	-0.17274286
7	0x3d171564	0.036885634
8	0xbdf8b318	-0.121435344
9	0xbd2894af	-0.04115742
10	0xbdcf9234	-0.10135308
11	0xbd08ad86	-0.03336861
12	0xba88a937	-0.0010426407
13	0xbe76925c	-0.24079269
14	0xbc0d329f	-0.008618026
15	0x3cd09dff	0.025465963
16	0xbc59ccd4	-0.013293464
17	0x3c2312af	0.009953185
18	0x3cdd6fe0	0.027030885
19	0x3d018f5d	0.031630863
20	0xbb5a5c41	-0.0033319148
21	0x3e569576	0.20955452
22	0x3dbecbde	0.09316228
23	0xbaef8fc8	-0.0018277103
24	0x3b5d4187	0.0033760981
25	0xbd1dd880	-0.03853655
26	0xbc59e6d2	-0.013299661
27	0x3cb20ae9	0.021733718
28	0xbd3b90c2	-0.04579235
29	0xbde6a3c1	-0.11261702
30	0xbdfe918a	-0.12430103
31	0xbcd10645	-0.025515685
32	0xbd345634	-0.044027522
33	0xbdf73c16	-0.12072007
34	0x3d614958	0.055001587
35	0xbcf0a7d1	-0.029376896
36	0xbdd97b6a	-0.106192425
37	0xbdaa267c	-0.083081216
38	0xbe132004	-0.14367682
39	0xbe9473fb	-0.28994736
40	0xbe0a914f	-0.13531993
41	0x3dc0985d	0.09404061
42	0xbcdeecbe	-0.027212497
43	0xbe31d125	-0.17364939
44	0xbdc6ff17	-0.09716623
45	0xbdd59b40	-0.10430002
46	0x3d9b33da	0.07578249
47	0xbd98b917	-0.07457178
48	0x3d885fe4	0.06658915
49	0xbd6cfcef	-0.057858404
50	0xbdcd587b	-0.10026642
51	0xbd100306	-0.035159133
52	0x3d115f85	0.035491485
53	0xbd585efc	-0.05282496
54	0xbdf466fe	-0.11933707
55	0xbe06a18e	-0.13147566
56	0xbd5812e6	-0.052752398
57	0x3dda0cad	0.10646949
58	0xbddcf8c2	-0.10789634
59	0xbe01d65c	-0.12679428
60	0xbc2e6836	-0.010644963
61	0x3e2f3e81	0.17113687
62	0x384a6a1f	4.8259386e-05
63	0xbc2bcb95	-0.010485549
64	0x3cdf382e	0.027248468
65	0x3df43b49	0.1192537
66	0xbe2efe4b	-0.17089193
67	0x3e461b31	0.1934631
68	0xbda220c2	-0.07916404
69	0xbde6874d	-0.11256275
70	0x3ce234bd	0.027613038
71	0x3e1848ec	0.14871567
72	0x3c4542b3	0.012039828
73	0x3e125574	0.1429041
74	0xbd5be093	-0.053680968
75	0xbdecc059	-0.11560125
76	0x3eb0c60b	0.34526095
77	0xbe29c773	-0.1657999
78	0x3a463b88	0.00075619714
79	0xbd770f50	-0.060317338
80	0x3cbd36e0	0.023097456
81	0xbe083910	-0.13303018
82	0xbcdd4eec	-0.027015172
83	0x3c40e9a2	0.011774452
84	0x3e31ea43	0.1737452
85	0x3e6c884f	0.23098873
86	0x3e01e2d0	0.12684178
87	0xbd5adeb3	-0.05343504
88	0xbde12046	-0.10992484
89	0xbdca0160	-0.098635435
90	0x3d155305	0.036456127
91	0x3db71619	0.08939762
92	0xbb06359a	-0.0020478726
93	0xbcc2f07e	-0.023796316
94	0x3d4cf046	0.05003383
95	0x3c8d5fd6	0.017257612
96	0xbe183527	-0.14864026
97	0x3d80bdc4	0.06286195
98	0xbd8f1e80	-0.06988239
99	0xbca07102	-0.019585136
100	0xbe27c135	-0.16382296
101	0xbc88d719	-0.016704129
102	0xbda05dbb	-0.07830378
103	0xbe460de7	-0.19341241
104	0xbdf9a9b2	-0.1219057
105	0x3df9577d	0.1217489
106	0xbd61049d	-0.05493604
107	0xbda7c183	-0.08191206
108	0x3dd117fd	0.102096535
109	0xbe1a8588	-0.1509
110	0x3dd93819	0.10606403
111	0xbe14d543	-0.14534478
112	0x3e05946d	0.13044901
113	0xbb82605e	-0.003978773
114	0x3b1e71e0	0.0024176762
115	0xbe346f2b	-0.17620532
116	0xbcad8bb2	-0.021184776
117	0x3d965b1b	0.07341596
118	0xbd8c4d53	-0.06850686
119	0xbe75b5b5	-0.23995097
120	0xbd456ba6	-0.048198365
121	0x3df9f6aa	0.122052506
122	0x3b3170be	0.0027075256
123	0xbe20f1a3	-0.15717177
124	0xbdfd16b9	-0.1235785
125	0x3ddb4418	0.10706347
126	0x3db926d8	0.09040612
127	0x3d69d1ad	0.057084728
128	0x3dbb2d42	0.091394916
129	0xbd39e07a	-0.045380093
130	0xbd9bec8e	-0.076134786
131	0xbca11113	-0.019661462
132	0x350890a5	5.0874434e-07
133	0x3cf71cad	0.03016504
134	0x3cb367a8	0.021900013
135	0x3dc673a2	0.09690024
136	0x3dd17302	0.10227014
137	0x3ca503f4	0.020143487
138	0xbc16758d	-0.0091833
139	0xbcd62f16	-0.0261455
140	0xbd62ab0f	-0.055338915
141	0xbda8bccb	-0.082391344
142	0xbd9e5a22	-0.07732035
143	0xbdeb1003	-0.11477663
144	0xbdc996ec	-0.09843239
145	0x3dc0cc0a	0.09413917
146	0xbd1fe405	-0.039035816
147	0xbd08095f	-0.033212062
148	0xbda5e4b5	-0.08100263
149	0xbd04f4aa	-0.032459892
150	0xbdcd99cf	-0.10039102
151	0x3b723a8f	0.0036961173
152	0x3dac5167	0.08413964
153	0xbd8e8ad4	-0.06960073
154	0x3d54f246	0.051988862
155	0xbd9f1b74	-0.07768908
156	0xbdb6b6cb	-0.08921584
157	0x3c1e62bc	0.009667095
158	0x3c20d6c8	0.009816833
159	0xbc5088af	-0.0127279
160	0xbd51b6bc	-0.05119966
161	0xbdc8610c	-0.09784135
162	0xbd8c97ed	-0.06864915
163	0xbdacbce7	-0.08434468
164	0x3d939520	0.07206178
165	0xbdbcdde6	-0.09222011
166	0x3c7c5fc0	0.015403688
167	0x3b779ebc	0.0037783822
168	0x39f4204c	0.0004656337
169	0xbde82231	-0.113346465
170	0x3aceed45	0.0015787265
171	0xbd2bbd4a	-0.041928567
172	0x3dc1d046	0.09463553
173	0xbda296c6	-0.07938914
174	0xbdba24e0	-0.090890646
175	0xbd8e6581	-0.06952954
176	0xbd51219e	-0.05105745
177	0x3cc688fe	0.024235245
178	0xbdac8629	-0.084240265
179	0xbd5a905d	-0.05336033
180	0xbc01dbab	-0.007925908
181	0xbc90c6e0	-0.017672956
182	0xbd2c7c11	-0.042110506
183	0xbd9ecee8	-0.07754308
184	0xbc4dd549	-0.012563058
185	0xbc7ce2a8	-0.015434898
186	0x3da9ce1d	0.08291266
187	0xbd846201	-0.06464005
188	0xbc756822	-0.0149784405
189	0x3cac00e9	0.020996528
190	0x3c36a8c8	0.011148639
191	0xbd5f4488	-0.054508716
192	0x3ca8edc9	0.020621197
193	0xbdb86c51	-0.09005035
194	0xbe6b9f97	-0.23010097
195	0x3da59104	0.080843
196	0xbd239ea1	-0.039946202
197	0x3d23f4f7	0.04002854
198	0xbba3f3f2	-0.005003446
199	0x3b6a0c9f	0.003571309
200	0x3d690ce4	0.05689706
201	0xbe3a7791	-0.18209673
202	0x3dbf986c	0.09355244
203	0xbdb83cc7	-0.08995967
204	0x3d32d76d	0.043662477
205	0xbe39180f	-0.18075584
206	0x3e0b6d91	0.13616015
207	0xbdb60a16	-0.088886425
208	0xbdc0052b	-0.09375986
209	0xbe29c9e1	-0.16580917
210	0x3db3cf09	0.08779723
211	0xbe40dbe2	-0.18833879
212	0xbe36651b	-0.17812006
213	0x3dd8b6c1	0.105817325
214	0x3d1d526e	0.03840869
215	0xbe484542	-0.1955767
216	0xbd0d43aa	-0.034488358
217	0xbcadd09c	-0.021217637
218	0xbca5a009	-0.020217912
219	0xbdf129de	-0.11775564
220	0xbdaf20da	-0.08551188
221	0x3d04ffe9	0.032470617
222	0xbd008dfa	-0.0313854
223	0xbe557cc9	-0.20848383
224	0xbd312ebe	-0.043257467
225	0xbe3ba416	-0.18324313
226	0xbc89a0e9	-0.01680036
227	0xbe050e6f	-0.12993787
228	0xbe281c9b	-0.16417162
229	0x3bff49c5	0.0077907764
230	0xbd2e5a96	-0.04256686
231	0xbe9713c2	-0.29507262
232	0x3d5befde	0.053695552
233	0x3d3aea08	0.045633346
234	0x3c048780	0.008088946
235	0xbe1e8166	-0.15479049
236	0xbc5488a4	-0.012972031
237	0x3d57470c	0.05255799
238	0xbe038b3a	-0.1284608
239	0xbe4d312c	-0.20038289
240	0x3dced50f	0.100992315
241	0xbe2d2bfb	-0.16911308
242	0x3d75aa80	0.059977055
243	0xbe4a89b6	-0.19779095
244	0xbdee7a8a	-0.11644466
245	0xbe579ed9	-0.2105669
246	0xbd7c5695	-0.06160601
247	0xbe3c5c10	-0.18394494
248	0xbe0c7265	-0.13715513
249	0x3d967f45	0.073484935
250	0x3bfbab12	0.0076803053
251	0xbdd161fc	-0.10223767
252	0xbe435fb7	-0.19079481
253	0x3de99d86	0.11406998
254	0xbd4a376f	-0.04936927
255	0xbe37787a	-0.17917052

lstm.weight_ih_l0_reverse f4 [256, 8]
0	0x3d4cf67d	0.050039757
1	0x3eb0147f	0.34390637
2	0x3b656d65	0.0035007831
3	0xbd5d9a3f	-0.05410218
4	0x3da10572	0.07862367
5	0x3dfa274d	0.12214527
6	0x3ccaa270	0.02473566
7	0x3ddee3b1	0.108832724
8	0xbe4fa5a7	-0.20278035
9	0xbeafc434	-0.3432938
10	0xbe8bea88	-0.2732737
11	0xbeb9630a	-0.36208373
12	0xbeaae3ac	-0.33376825
13	0xbe561e76	-0.20910057
14	0xbea4acda	-0.32163125
15	0xbebb511e	-0.36585325
16	0xbd22bc5c	-0.039730415
17	0x3e958200	0.29200745
18	0xbd3a905f	-0.04554784
19	0xbce7f40e	-0.028314617
20	0x3e224b8c	0.15849131
21	0xbc9d1b28	-0.019177988
22	0x3e0c707f	0.13714789
23	0xbd517082	-0.051132686
24	0x3cdc0e0c	0.026862167
25	0xbd5627d0	-0.052284062
26	0x3c9a7d83	0.018858677
27	0x3d604cb6	0.054760657
28	0x3dc51a82	0.096241966
29	0xbdbede6c	-0.09319767
30	0xbde0ef27	-0.10983115
31	0x3d07a849	0.033119474
32	0x3e0113f2	0.12605265
33	0x3ef6a31c	0.48171318
34	0xbc23662c	-0.00997309
35	0x3e029f00	0.12755966
36	0xbdc5eb1c	-0.09663984
37	0xbd7671e5	-0.060167212
38	0x3cb2b615	0.02181534
39	0xbc762d80	-0.0150254965
40	0xba40f93b	-0.0007361357
41	0xbde28a40	-0.11061525
42	0xbdb12936	-0.086504385
43	0xbd4cf99d	-0.050042737
44	0x3dd3e736	0.10346834
45	0x3da78175	0.08178989
46	0x3e13be1f	0.14427994
47	0x3d10632d	0.03525083
48	0xbd3ca6af	-0.0460574
49	0xbe4d3b4a	-0.20042148
50	0xbe27ccf4	-0.16386777
51	0xbdb63e4f	-0.08898603
52	0xbd285e0d	-0.04110532
53	0xbdaaa384	-0.083319694
54	0xbe0ffbd8	-0.14060915
55	0xbe312250	-0.17298245
56	0xbe203403	-0.15644841
57	0xbe077a85	-0.13230331
58	0xbd1643a2	-0.036685593
59	0xbdaacfec	-0.08340439
60	0xbdabd8ba	-0.08390947
61	0x3d0b5ce8	0.03402415
62	0xbe24e7e7	-0.16104089
63	0xbd816c8a	-0.0631953
64	0x3c6d69ec	0.014490586
65	0x3e5cfc64	0.21580654
66	0x3d8c26ba	0.06843324
67	0xbc3505b7	-0.011048726
68	0xbe3301a0	-0.17481089
69	0xbe116e88	-0.1420232
70	0x3d2becd4	0.041973904
71	0x3cd11308	0.02552177
72	0xbd617b79	-0.055049393
73	0x3ebb3b1e	0.3656854
74	0x3d4938a5	0.049126286
75	0x3d125bda	0.035732128
76	0xbdc79366	-0.09744911
77	0xbbce082c	-0.0062875953
78	0x3c4803d6	0.012207946
79	0xbd9e532b	-0.07730707
80	0xbc782fca	-0.015148113
81	0x3eca8779	0.39556482
82	0x3da33a10	0.07970059
83	0x3d0ec4ef	0.03485578
84	0xbc3d4d6a	-0.0115541015
85	0x3cadb666	0.021205138
86	0x3dc9cb78	0.09853262
87	0x3dbe6c2a	0.092979744
88	0xbd6e7c17	-0.05822381
89	0xbe627312	-0.22114208
90	0xbdd11120	-0.102083445
91	0xbdc7fa40	-0.09764528
92	0xbcec629f	-0.02885562
93	0x3d366e5a	0.044538833
94	0x3dd6a56f	0.10480773
95	0xbdcf78e4	-0.1013048
96	0xbe079062	-0.13238671
97	0x3e8e510f	0.27796218
98	0xbd2540da	-0.04034505
99	0xbaf087ea	-0.0018351052
100	0xbe33f71c	-0.17574733
101	0xbc9a4bbe	-0.018834945
102	0xbdf62454	-0.12018648
103	0xbe0b30f0	-0.13592887
104	0x3c81ea12	0.015858684
105	0x3eedf937	0.46479198
106	0x3e502b8b	0.2032911
107	0x3e505317	0.20344196
108	0xbd089e1b	-0.033353906
109	0x3d3f3f72	0.046691366
110	0x3cf68de1	0.03009695
111	0x3e2188f6	0.15774903
112	0x3c3f9050	0.011692122
113	0xbdf89947	-0.1213861
114	0xbe1f3d20	-0.15550661
115	0xbdd355d0	-0.10319102
116	0xbd4fb61c	-0.050710782
117	0xbd82a2d6	-0.06378715
118	0xbe153d9d	-0.14574285
119	0xbe1560e6	-0.14587745
120	0x3db34bde	0.08754705
121	0x3e8e75a7	0.27824137
122	0x3da770d0	0.08175814
123	0x3d5ad8da	0.053429462
124	0xbe1fee32	-0.15618208
125	0xbdf718d4	-0.120652825
126	0xbe142c29	-0.14469971
127	0xbe1352b9	-0.14387025
128	0x3d8f4fa1	0.0699761
129	0xbeb1fb9d	-0.34762278
130	0xbe09bbb4	-0.1345051
131	0xbdfb29a8	-0.12263805
132	0xbdaa854d	-0.08326206
133	0xbd4fafac	-0.050704643
134	0xbe0f00af	-0.13965105
135	0x3db59b1e	0.08867477
136	0x3d96126e	0.07327734
137	0x3e2ab4fa	0.166706
138	0x3db34f66	0.087553784
139	0x3e16b90b	0.14719026
140	0x3e0c27fc	0.13687128
141	0x3e60015f	0.21875523
142	0x3e07b6a1	0.13253261
143	0x3daf745d	0.085671164
144	0xbd0a4d17	-0.033764925
145	0x3e97f449	0.29678562
146	0xbdcff1a3	-0.101535104
147	0x3d797155	0.060899097
148	0xbe0491ef	-0.12946294
149	0xbdf2df4c	-0.11858997
150	0xbe0ad588	-0.13558018
151	0xbe17cd40	-0.1482439
152	0xbdacba24	-0.08433941
153	0xbdd9dff0	-0.10638416
154	0xbdd45251	-0.10367263
155	0x3d0d535e	0.034503333
156	0x3b0ce286	0.0021497323
157	0xbd887434	-0.06662789
158	0xbd9afb28	-0.075674355
159	0xbdc2a2dd	-0.0950372
160	0xbdcff3a0	-0.1015389
161	0x3e948b85	0.29012695
162	0x3dd05752	0.10172905
163	0xbd76c52e	-0.06024664
164	0x3c95c834	0.01828394
165	0xbdc4711e	-0.09591888
166	0xbdfff99c	-0.12498781
167	0x3c435bdd	0.011923757
168	0x3deb94a8	0.11502963
169	0x3d2c6ca7	0.042095806
170	0xbd08c919	-0.033394907
171	0xbbeb2aae	-0.0071767187
172	0xbd90ffe4	-0.07080057
173	0x3e1f455a	0.155538
174	0x3e01ac09	0.12663282
175	0x3d680f0b	0.05665497
176	0x3d996d65	0.074915685
177	0x3e63a27e	0.22229955
178	0xbd06101f	-0.032730218
179	0x3d257358	0.040393203
180	0x3da94b3a	0.082663015
181	0x3ded3ddc	0.11584064
182	0xbd7c6e4a	-0.061628617
183	0x3db08efe	0.086210236
184	0x3dd02676	0.10163586
185	0x3e68b6b2	0.22725943
186	0x3ddac058	0.10681218
187	0x3de01afd	0.109426476
188	0x3d899c22	0.06719233
189	0x3d9916ae	0.07475029
190	0xbdb24991	-0.08705438
191	0x3dae769e	0.08518718
192	0x3d43f8ad	0.047844578
193	0x3ec05960	0.37568188
194	0xbd0eed92	-0.034894533
195	0xbdebc3dc	-0.115119666
196	0x3d593564	0.053029433
197	0x3cd13855	0.025539557
198	0xbc6f0872	-0.014589416
199	0x3de0cc02	0.109764114
200	0x3da4becc	0.08044204
201	0xbcae3103	-0.021263605
202	0x3dda256d	0.1065167
203	0x3dd2d921	0.1029532
204	0x3db416b6	0.08793394
205	0xbd05fffc	-0.03271483
206	0x3d68ac19	0.05680475
207	0x3bb0a340	0.0053905547
208	0x3d952f31	0.07284392
209	0x3e867159	0.26258352
210	0x3e08361a	0.13301888
211	0x3c86827f	0.016419647
212	0x3e053ee0	0.13012266
213	0x3e2c710e	0.16840002
214	0x3e0e6926	0.13907298
215	0x3dcb7592	0.09934534
216	0xbe239ffe	-0.15979001
217	0xbe3ef325	-0.1864744
218	0xbdfcdada	-0.1234643
219	0xbd60ce2f	-0.054884132
220	0x3bd402ea	0.006470074
221	0x3d3b24cb	0.045689385
222	0xbdbdb595	-0.0926315
223	0x3d962526	0.07331304
224	0x3d869c81	0.065728195
225	0x3ec7b326	0.39003867
226	0x3e2b9793	0.1675704
227	0x3d25b4a5	0.04045548
228	0x3e426e5a	0.18987408
229	0x3e2317cf	0.15927051
230	0x3d25b1f5	0.040452916
231	0x3dbb7c2a	0.09154542
232	0x3e5c0b27	0.2148863
233	0x3ecb9a6a	0.39766246
234	0x3da0fffe	0.07861327
235	0x3d4a599d	0.049401868
236	0x3e30d4df	0.17268704
237	0x3d6e5293	0.058184218
238	0x3dbcc43a	0.09217115
239	0x3d1da8e7	0.038491156
240	0x3c618a90	0.013765946
241	0x3da3c3ee	0.07996355
242	0xbcd9a1a6	-0.026566338
243	0xbbfb502b	-0.007669469
244	0xbd094e0b	-0.033521693
245	0xbca84095	-0.020538608
246	0x3dc40f54	0.09573236
247	0x3d30fbc5	0.043208856
248	0x3db95988	0.0905028
249	0x3ef7fdad	0.48435727
250	0xbdd12dd2	-0.10213818
251	0xbc2c2241	-0.010506214
252	0x3c900615	0.017581025
253	0x3dd0e0a9	0.101991005
254	0x3b80f60b	0.0039355806
255	0xbb110008	-0.0022125263

lstm.weight_hh_l0_reverse f4 [256, 64]
0	0x3e0712fe	0.13190839
1	0xbcc6ee6b	-0.024283608
2	0xbe257036	-0.16156086
3	0xbde22b51	-0.11043418
4	0x3db76818	0.08955401
5	0x3e089d7c	0.13341326
6	0x3e1fc36b	0.1560189
7	0x3d756033	0.059906196
8	0x3d95a795	0.07307354
9	0x3dab0806	0.0835114
10	0x3dd44f1d	0.10366652
11	0x3d283263	0.041063678
12	0xbd9c8e81	-0.07644368
13	0xbdadffe5	-0.08496074
14	0x3dc584f8	0.096445024
15	0xbd961f04	-0.073301345
16	0x3b858d6d	0.004075697
17	0x3e11d96a	0.14243093
18	0xbc37d160	-0.0112193525
19	0x3dcbec24	0.099571496
20	0xbd827a5b	-0.06370994
21	0xbdf52164	-0.119692594
22	0xbdcecee1	-0.10098053
23	0x3d4086a1	0.047003392
24	0xbdeb4ccd	-0.11489258
25	0xbd2e4fd3	-0.042556595
26	0x3d8eb144	0.069674045
27	0x3d46550f	0.048420962
28	0xbd45ca3c	-0.04828857
29	0xbe08814c	-0.13330573
30	0xbd739534	-0.059468463
31	0x3cd0a918	0.025471255
32	0xbdbdc23c	-0.09265563
33	0x3d458ea0	0.04823172
34	0x3e3a2bda	0.1818079
35	0xbc9d5eea	-0.019210298
36	0x3de56b7f	0.11202144
37	0x3d3f0762	0.0466379
38	0x3d83901c	0.06423971
39	0x3da9f6f8	0.08299059
40	0xbb933c05	-0.004493239
41	0xbd0be7c8	-0.03415659
42	0x3da6d53d	0.08146141
43	0xbdba244a	-0.09088953
44	0xbdaa5f31	-0.083189376
45	0xbda12425	-0.07868222
46	0x3ddd3aef	0.10802256
47	0xbd836207	-0.064151816
48	0x3e181693	0.14852361
49	0x3dccc103	0.099977516
50	0xbc40bf35	-0.011764337
51	0xbdffed11	-0.12496389
52	0x3e058fc5	0.13043125
53	0x3e100d01	0.1406746
54	0xbce43d37	-0.02786122
55	0x3db36dcd	0.08761177
56	0xbe019655	-0.12655003
57	0x3da05ec8	0.07830578
58	0xbe163ad8	-0.14670885
59	0xbdeea106	-0.116518065
60	0x398d4176	0.00026942388
61	0xbdb215b8	-0.08695549
62	0x3d905e10	0.07049191
63	0xbdaf22fb	-0.08551594
64	0xbdea7d3e	-0.11449669
65	0xbc893106	-0.016747009
66	0x3c930a16	0.017949145
67	0xbd35b51a	-0.044362165
68	0xbe0af98e	-0.1357176
69	0xbd3fbacd	-0.046809006
70	0xbde22f50	-0.110441804
71	0x3cac3485	0.021021137
72	0xbd0a53ef	-0.03377145
73	0xbd1adf68	-0.037810713
74	0x3da6f017	0.08151262
75	0xbe3602b4	-0.17774469
76	0x3e05a021	0.13049366
77	0x3c40d284	0.011768941
78	0x3b028368	0.001991475
79	0xbd49ea9b	-0.049296003
80	0xbe505bc8	-0.20347512
81	0xbd7799a6	-0.060449265
82	0xbe138951	-0.14407851
83	0xbe18878b	-0.14895456
84	0x3e3e7e3d	0.18602844
85	0xbd7c03d0	-0.061527073
86	0xbdbb6fb9	-0.09152169
87	0x3d135391	0.035968367
88	0x3dc5bd01	0.0965519
89	0xbe0dbc6a	-0.13841406
90	0xbdc61b4e	-0.09673177
91	0xbe2e79ec	-0.17038697
92	0x3daf7d7b	0.085688554
93	0xbd69bee2	-0.057066806
94	0xba37d757	-0.0007012984
95	0xbd3dc7d0	-0.046333134
96	0x3cdffa46	0.02734102
97	0x3c17cfa0	0.00926581
98	0xbd2b955b	-0.041890483
99	0xbcdb1abd	-0.026746148
100	0xbd925b43	-0.07146313
101	0x3e4cfb47	0.2001773
102	0x3d32a1ad	0.043611217
103	0xbd5b22d6	-0.05350002
104	0x3d1d015a	0.038331367
105	0x3db4e3d5	0.08832518
106	0x3dde8a8e	0.10866271
107	0xbcdb5c97	-0.026777549
108	0x3ddffad5	0.10936514
109	0x3e23fcca	0.160144
110	0x3c030b66	0.007998323
111	0xbc53117c	-0.012882587
112	0xbd6c5dc9	-0.057706628
113	0x3bf9b33a	0.0076202424
114	0x3e03d848	0.12875473
115	0x3ce9baf0	0.028531522
116	0x3c8ccfe3	0.017188972
117	0x3dede077	0.11615079
118	0xbba7b316	-0.0051177843
119	0xbd24c360	-0.040225387
120	0x3d38fcb8	0.045162886
121	0xbe02fab9	-0.12790956
122	0x3d79bcc4	0.060971037
123	0xbd4bee20	-0.04978764
124	0xbd67ae7f	-0.056562897
125	0xbd523143	-0.05131651
126	0xbe1f2ceb	-0.15544479
127	0x3ccda5fd	0.025103563
128	0x3e0b0cf0	0.13579154
129	0xbda9b4da	-0.08286448
130	0x3ceb4011	0.028717073
131	0x3da5a1c9	0.08087499
132	0x3e3ba165	0.18323286
133	0x3d9804b2	0.074227706
134	0x3d40ad3a	0.0470402
135	0xbcdc0597	-0.026858134
136	0x3b24db48	0.0025155116
137	0x3dad4626	0.084606454
138	0x3cd7081a	0.02624898
139	0x3b9cc92e	0.0047847247
140	0xbd66dcb1	-0.05636281
141	0xbcc5ae00	-0.024130821
142	0xbd87ea51	-0.06636489
143	0xbd8495e8	-0.06473905
144	0x3d1eb3ba	0.03874562
145	0xbd8e5fa7	-0.06951838
146	0x3e384f02	0.17998889
147	0x3d08da2c	0.03341119
148	0xbdc238cb	-0.09483489
149	0x3dac2898	0.0840618
150	0x3df0fc13	0.11766829
151	0xbd998c4b	-0.07497462
152	0x3dc9eb58	0.098593414
153	0x3e0839b9	0.1330327
154	0xbdaa834b	-0.083258234
155	0x3e076762	0.13223031
156	0x3d1c7c99	0.038204763
157	0x3de6d12c	0.11270365
158	0x3d96529d	0.07339976
159	0xbd960187	-0.0732451
160	0x3cf6395a	0.030056644
161	0x3dcefc64	0.101067334
162	0x3e06f8ff	0.13180922
163	0x3d65e790	0.05612904
164	0xbcf5e1f8	-0.030014977
165	0xbdae806a	-0.08520587
166	0x3d2b885e	0.041878097
167	0x3a73da5d	0.0009302253
168	0x3d6c2f15	0.05766209
169	0xbdc6af60	-0.09701419
170	0xbd879087	-0.06619363
171	0xbd026137	-0.031830993
172	0xbd2bd6d9	-0.04195294
173	0xbe4eb4aa	-0.20186105
174	0xbd438206	-0.047731422
175	0x3d903060	0.07040477
176	0x3e34c4a1	0.17653133
177	0xbe1c746c	-0.15278786
178	0xbdedc6f8	-0.11610216
179	0x3cf8b583	0.030359989
180	0x3cc8dffb	0.024520865
181	0x3d13e4b5	0.036106784
182	0xbc823d39	-0.015898334
183	0x3e45c13a	0.19311991
184	0xbd4351bb	-0.047685366
185	0x3d116c0c	0.035503432
186	0x3d43b276	0.047777615
187	0xbdee100d	-0.11624155
188	0xbca1e357	-0.019761724
189	0x3c3e8be4	0.011630032
190	0x3e4fe991	0.20303942
191	0xbcce8926	-0.025211882
192	0x3d92ad9a	0.07162018
193	0xbde64109	-0.11242873
194	0xbccd6422	-0.025072161
195	0xbd57505c	-0.05256687
196	0x3d8eabe0	0.06966376
197	0xbe06a012	-0.13147
198	0x3e3b24c4	0.18275744
199	0x3e13c070	0.14428878
200	0xbd74a93b	-0.059731703
201	0x3aad2e4d	0.0013212651
202	0xbd57d3b0	-0.052692115
203	0xbd1c40aa	-0.038147606
204	0x3d9cbe79	0.07653517
205	0x3d0fcdc3	0.03510834
206	0xbc93337b	-0.017968884
207	0x3c946abe	0.018117305
208	0x3db9583d	0.09050033
209	0x3b88d501	0.0041757827
210	0xb9aa09e6	-0.00032432302
211	0x3caa2045	0.02076734
212	0xbdf0a62e	-0.11750446
213	0x3d1a7940	0.03771329
214	0xbda26d76	-0.07931034
215	0x3db60a03	0.08888628
216	0x3cbd4460	0.023103893
217	0xbc9685e2	-0.018374387
218	0xbe0cb5b1	-0.13741185
219	0x3c9c13f7	0.019052489
220	0xbddec209	-0.10876853
221	0x3e0bcd2f	0.1365249
222	0x3de82d30	0.11336744
223	0xbb3d76de	-0.0028909962
224	0x3cf6d08e	0.030128743
225	0x3d869bd4	0.065726906
226	0x3d9c8019	0.0764162
227	0x3de81cd3	0.11333623
228	0x3b83a777	0.004017766
229	0x3ce9ca24	0.028538771
230	0xbd91ebad	-0.0712503
231	0xbc7712ab	-0.015080134
232	0x3dbfd1e1	0.09366203
233	0xbe44f81a	-0.19235268
234	0x3d248777	0.04016825
235	0x3b450a6e	0.003006603
236	0xbde5c05f	-0.112183325
237	0xbd91f4d4	-0.071267754
238	0xbd88f2f0	-0.06686962
239	0x3ba50988	0.0050365366
240	0xbd5cbc86	-0.053890727
241	0xbd89863b	-0.067150556
242	0xbd9d23e6	-0.07672863
243	0x3dfd12fe	0.12357138
244	0x3b8e6433	0.004345441
245	0x3c1bd97c	0.009512302
246	0x3d254637	0.040350165
247	0xbd325067	-0.04353371
248	0xbc461f9d	-0.012092498
249	0xbd777e94	-0.06042345
250	0x3d92aa21	0.07161356
251	0x3cbd5a02	0.023114208
252	0x3c0f75a3	0.008756074
253	0xbda1e612	-0.079052106
254	0xbccadead	-0.024764383
255	0xbd8aa512	-0.06769766

lstm.bias_ih_l0_reverse f4 [256]
0	0xbd001345	-0.031268377
1	0xbe47d8e6	-0.19516334
2	0x3c792330	0.015206143
3	0x3e00ae70	0.12566543
4	0x3d7a4bca	0.061107434
5	0x3db4337a	0.08798881
6	0xbdfe421f	-0.12414955
7	0xbd9febc9	-0.07808644
8	0xbd8c621c	-0.068546504
9	0xbd8279b5	-0.0637087
10	0x3d87ab07	0.06624418
11	0xbdb50182	-0.08838178
12	0x3d7a7a76	0.061151944
13	0x3c60751e	0.013699798
14	0xbdcca3d6	-0.09992187
15	0xbe040873	-0.12893848
16	0xbe1b05d2	-0.15138939
17	0x3e52de8c	0.20592707
18	0xbe0e24dc	-0.13881248
19	0xbbb702eb	-0.0055850646
20	0xbd6370c5	-0.055527467
21	0x3dc4ee82	0.09615804
22	0x3d01a8df	0.03165519
23	0xbcef6f62	-0.029227916
24	0x3cd9533c	0.026528947
25	0x3e256bc1	0.16154386
26	0x3e3d9ba4	0.18516403
27	0xbd4099a5	-0.047021527
28	0x3db854b7	0.09000533
29	0x3d22aa16	0.039712988
30	0x3c9d62cf	0.019212155
31	0xbdb937f9	-0.09043879
32	0x3d4f0a71	0.050547067
33	0xbe049ae4	-0.12949711
34	0x3df89026	0.12136869
35	0xbd7189e3	-0.05896939
36	0xbd9e35bf	-0.07725095
37	0xbdabebd4	-0.0839459
38	0xbe059121	-0.13043644
39	0xbdf20ec4	-0.118192226
40	0x3d5af14e	0.053452782
41	0xbd162ebc	-0.036665663
42	0xbd33416a	-0.043763556
43	0xbdd4cac9	-0.10390241
44	0xbb24a907	-0.0025125162
45	0xbdab8750	-0.08375418
46	0xbe470837	-0.19436727
47	0x3c064fef	0.008197769
48	0xbdb56fcc	-0.08859214
49	0xbd8e3565	-0.06943778
50	0x3e28fce4	0.1650272
51	0xbbd23aea	-0.0064157145
52	0xbd65c704	-0.056098
53	0x3e1b9984	0.1519528
54	0xbde83fc1	-0.11340285
55	0xbd25885e	-0.040413253
56	0xbe212f0b	-0.15740602
57	0xbe5ed0d9	-0.21759357
58	0xbd0313bc	-0.032001242
59	0xbe4aadd8	-0.19792879
60	0xbd6ec8c9	-0.058296952
61	0xbd91c950	-0.071184754
62	0x3d692123	0.056916367
63	0xbd844a79	-0.06459517
64	0x3dcba25d	0.09943078
65	0xbe9884c9	-0.29788807
66	0xbd829baf	-0.063773505
67	0xbdbe4eb6	-0.09292357
68	0xbd87afbe	-0.06625317
69	0x3d633358	0.055468887
70	0x3c83d20d	0.016091371
71	0xbc4372b8	-0.011929207
72	0x3d9db3c6	0.07700305
73	0xbdcbb168	-0.09945947
74	0xbe062563	-0.131002
75	0xbd35ffc6	-0.044433378
76	0x3dc62619	0.09675235
77	0x3ce45a9a	0.027875233
78	0x3c176dd5	0.009242495
79	0xbb05fe65	-0.002044582
80	0xbe06599c	-0.13120121
81	0x3e1af322	0.1513181
82	0xbd2c24c3	-0.042027246
83	0x3a713b99	0.0009202301
84	0x3d580bd6	0.052745663
85	0xba4837e1	-0.0007637721
86	0xbd516886	-0.051125072
87	0xbdd0d43e	-0.10196732
88	0x3db2cafe	0.08730124
89	0xbd97e4e0	-0.07416701
90	0x3bec0459	0.0072026667
91	0xbd861fab	-0.06549009
92	0x3e0eba2a	0.13938203
93	0x3dbde8e2	0.092729345
94	0xbd605e66	-0.054777525
95	0xbd3a5333	-0.0454895
96	0x3ca13383	0.019677883
97	0xbd100a01	-0.03516579
98	0x3d15bde2	0.03655804
99	0xbda3b889	-0.07994182
100	0xbd1db75f	-0.038504954
101	0xbe14a88a	-0.14517418
102	0xbd05ac99	-0.032635305
103	0x3d47e427	0.048801567
104	0xbe1b5f96	-0.15173182
105	0x3db0655d	0.086130835
106	0xbe02b604	-0.12764746
107	0xbce7992e	-0.028271284
108	0xbd7c2cbc	-0.0615661
109	0xbbb672d6	-0.0055678887
110	0xbdc6f316	-0.09714334
111	0xbd45e113	-0.04831035
112	0xbe445dc2	-0.19176391
113	0xbc62bd74	-0.013839114
114	0x3d52ea1a	0.051492788
115	0x3db4e6dd	0.08833096
116	0xbd9f8332	-0.077886954
117	0xbd868f95	-0.06570355
118	0xbdb57639	-0.0886044
119	0x3dcf00cc	0.10107574
120	0x3c2b9f26	0.010474956
121	0xbdb1437a	-0.08655448
122	0x3d50680f	0.050880488
123	0x3a8ee0e1	0.0010900759
124	0x3cb21f28	0.021743372
125	0xbdb7c408	-0.08972937
126	0x3d38cfde	0.045120113
127	0xbe135d9a	-0.14391175
128	0xbd4e3631	-0.05034465
129	0xbd6c0a68	-0.05762711
130	0x3d8b2e06	0.06795888
131	0x3d89c93b	0.06727835
132	0x3d09868f	0.03357559
133	0xbd39103c	-0.045181498
134	0x3d69a4ac	0.05704181
135	0xbca3af19	-0.019980954
136	0x3d290597	0.041265097
137	0x3df88a5c	0.12135765
138	0xbd9891ce	-0.07449685
139	0xbd128b82	-0.035777576
140	0xbd3b9668	-0.045797735
141	0x3dec4973	0.11537447
142	0x3d52ac0b	0.051433604
143	0xbdbdf908	-0.092760146
144	0x3d3e71bf	0.046495195
145	0xbcd7960b	-0.026316663
146	0x3bd3bdfa	0.006461856
147	0x3d96fd32	0.07372512
148	0xbd99d5d6	-0.07511489
149	0x3c7bc41b	0.015366579
150	0x3c3c8915	0.011507292
151	0xbd152f4b	-0.036422055
152	0xbd6e0086	-0.058105968
153	0xbdb12c3e	-0.08651017
154	0xbd6c9600	-0.05776024
155	0x3d57472d	0.052558113
156	0xbd764f65	-0.06013431
157	0x3d7abac9	0.06121329
158	0xbcc363db	-0.023851326
159	0x3c9b4985	0.018955955
160	0xbdaaa3b0	-0.08332002
161	0x3cc06b46	0.023488652
162	0xbd35543b	-0.04426978
163	0x3db2ae86	0.08724694
164	0xbda72a17	-0.08162325
165	0x3ca94dae	0.020666923
166	0x3d8e0eb4	0.06936398
167	0xbda10dab	-0.07863935
168	0x3d62d5be	0.05537962
169	0xbda1abe5	-0.078941144
170	0xbdd271ec	-0.10275635
171	0xbcbdd44a	-0.023172516
172	0xbddfeba0	-0.10933614
173	0x3e132e16	0.14373049
174	0xbd839b89	-0.0642615
175	0x3d89c2c6	0.06726603
176	0xbc642514	-0.013924856
177	0x3b376630	0.0027984492
178	0xbd05b8dd	-0.032647002
179	0xbd9690ae	-0.07351814
180	0xbdc0de76	-0.09417431
181	0x3cd6fe46	0.026244294
182	0xbd537a75	-0.051630456
183	0x3c0930b7	0.008373431
184	0xbd186afc	-0.037211403
185	0x3d2d44c5	0.04230191
186	0xbd0a4f7a	-0.0337672
187	0x3ca0d949	0.01963486
188	0xbda520df	-0.0806291
189	0x3d29ed53	0.041486096
190	0x3d1d1c09	0.038356815
191	0xbcc405a2	-0.023928467
192	0x3e15b9cb	0.14621656
193	0xbe58dc4d	-0.21177788
194	0x3e2ce4a7	0.16884099
195	0x3e0204a8	0.12697089
196	0xbd4278d2	-0.047478504
197	0xbd914d77	-0.07094853
198	0xbe0727d6	-0.1319879
199	0x3c4cd902	0.012502911
200	0x3c9289ab	0.01788791
201	0x3e17faf7	0.14841829
202	0x3b779f55	0.0037784178
203	0xbdd2d6b0	-0.10294855
204	0xbd914463	-0.07093122
205	0x3e5dddf7	0.21666704
206	0xbd8fce3c	-0.07021758
207	0xbd65ea9d	-0.056131948
208	0xbd07a813	-0.033119272
209	0x3e23abbf	0.15983485
210	0x3bf21d35	0.0073887357
211	0x3d612371	0.05496544
212	0x3ccb0de0	0.02478689
213	0xbd3b3b3b	-0.045710783
214	0xbd7465c3	-0.05966736
215	0xbd8a1ff9	-0.067443796
216	0xbdaa3451	-0.0831076
217	0xba8b2add	-0.0010617633
218	0xbc006028	-0.007835425
219	0x3d5fd1db	0.054643493
220	0x3d904d8b	0.0704604
221	0x3e4788ec	0.19485825
222	0xbd84df53	-0.06487908
223	0xbc1dc8bb	-0.009630377
224	0xbe271dfb	-0.1632003
225	0xbc87955c	-0.016550712
226	0x3d982cbc	0.074304074
227	0x3d97d61e	0.074138865
228	0x3d23252e	0.03983038
229	0xbe0867c1	-0.13320829
230	0xbe00a059	-0.12561168
231	0xbdcea794	-0.10090557
232	0x3d16d62d	0.036825348
233	0xbce2a6f8	-0.027667508
234	0xbe2c89e7	-0.1684948
235	0xbd9b9093	-0.07595935
236	0x3bd98bcc	0.0066389795
237	0xbe431fa0	-0.19055033
238	0xbe47355e	-0.19453952
239	0x3de9eb4a	0.11421831
240	0x3c8a3875	0.016872624
241	0x3c34c11c	0.011032369
242	0xbd50651c	-0.050877675
243	0x3d73989c	0.05947171
244	0xbda284f5	-0.07935516
245	0x3e37bf0e	0.17943975
246	0xbddbc207	-0.10730367
247	0x3c13a016	0.009010335
248	0xbdb26c50	-0.08712065
249	0xbd87ee42	-0.06637241
250	0xbd5fa744	-0.054602876
251	0xbdb962d3	-0.09052052
252	0xbdf22a17	-0.11824434
253	0xbd5d2eac	-0.053999588
254	0x3dd95f21	0.106138475
255	0xbd230962	-0.03980387
