models/url_cnn_best.pt (torch, 352242 bytes, 10 tensors)

weight f4 [128, 64]
0	0x00000000	0.0
1	0x00000000	0.0
2	0x00000000	0.0
3	0x00000000	0.0
4	0x00000000	0.0
5	0x00000000	0.0
6	0x00000000	0.0
7	0x00000000	0.0
8	0x00000000	0.0
9	0x00000000	0.0
10	0x00000000	0.0
11	0x00000000	0.0
12	0x00000000	0.0
13	0x00000000	0.0
14	0x00000000	0.0
15	0x00000000	0.0
16	0x00000000	0.0
17	0x00000000	0.0
18	0x00000000	0.0
19	0x00000000	0.0
20	0x00000000	0.0
21	0x00000000	0.0
22	0x00000000	0.0
23	0x00000000	0.0
24	0x00000000	0.0
25	0x00000000	0.0
26	0x00000000	0.0
27	0x00000000	0.0
28	0x00000000	0.0
29	0x00000000	0.0
30	0x00000000	0.0
31	0x00000000	0.0
32	0x00000000	0.0
33	0x00000000	0.0
34	0x00000000	0.0
35	0x00000000	0.0
36	0x00000000	0.0
37	0x00000000	0.0
38	0x00000000	0.0
39	0x00000000	0.0
40	0x00000000	0.0
41	0x00000000	0.0
42	0x00000000	0.0
43	0x00000000	0.0
44	0x00000000	0.0
45	0x00000000	0.0
46	0x00000000	0.0
47	0x00000000	0.0
48	0x00000000	0.0
49	0x00000000	0.0
50	0x00000000	0.0
51	0x00000000	0.0
52	0x00000000	0.0
53	0x00000000	0.0
54	0x00000000	0.0
55	0x00000000	0.0
56	0x00000000	0.0
57	0x00000000	0.0
58	0x00000000	0.0
59	0x00000000	0.0
60	0x00000000	0.0
61	0x00000000	0.0
62	0x00000000	0.0
63	0x00000000	0.0
64	0x3e40a903	0.18814473
65	0xbee29519	-0.44254377
66	0x3efe0efa	0.496208
67	0x3ecc341f	0.39883515
68	0xbf87ce69	-1.0609866
69	0xbdbf6ade	-0.09346555
70	0x403ffa5e	2.9996562
71	0xbf038a36	-0.5138277
72	0xbfec6faf	-1.8471583
73	0x3f9755b9	1.1823035
74	0xbfb0abc4	-1.3802419
75	0xbf2e60f0	-0.68116665
76	0x3f917650	1.1364231
77	0x4032efbc	2.7958822
78	0x3e1f7e59	0.15575542
79	0x3f5cdb94	0.8627255
80	0x3fa93481	1.3219148
81	0x3e612a47	0.21988784
82	0x3cc896f1	0.024486037
83	0x3dbc4d03	0.09194376
84	0x3d000651	0.031256024
85	0xbf6e8ca9	-0.9318338
86	0xbeae6885	-0.34064117
87	0x4019a71f	2.4008253
88	0x3e8359b0	0.25654364
89	0x400225b2	2.0335507
90	0xbf089283	-0.5334856
91	0xbe871dc7	-0.26389906
92	0xbf1c193f	-0.6097602
93	0x3f188598	0.5957885
94	0xc00cc488	-2.1994953
95	0xbef9af2a	-0.48766452
96	0x3f61c073	0.8818428
97	0x3eb18244	0.34669697
98	0x3fac2c08	1.3450937
99	0xbfb68413	-1.4259056
100	0xbff04bfa	-1.8773186
101	0xbeda3df4	-0.4262539
102	0xbf48ac61	-0.7838803
103	0x3f07421c	0.5283525
104	0xbf29dd22	-0.66353047
105	0xbfb289ec	-1.394834
106	0xbfc43992	-1.5330069
107	0x3e58a17e	0.21155354
108	0xbf573d0b	-0.8407752
109	0xbf43afda	-0.76440203
110	0x3e344169	0.17603077
111	0xbf8200a4	-1.0156446
112	0x3e7bdda4	0.24596268
113	0x3ea63bf4	0.32467616
114	0xbf32f97e	-0.69911945
115	0x3fbd51f4	1.4790635
116	0xbea478b0	-0.32123327
117	0x3feafef9	1.8359061
118	0x3fe37a59	1.7771713
119	0xc00054b5	-2.00517
120	0xbf1c776c	-0.61119723
121	0x3f6388f0	0.88880825
122	0xbe8a4631	-0.27006677
123	0x3f34cd20	0.70625496
124	0x3edbaf51	0.42907193
125	0x3f72bd93	0.9482052
126	0xbefa4039	-0.48877123
127	0xbf12a1da	-0.57278216
128	0xbdf37a08	-0.1188851
129	0x3cee7d84	0.029112585
130	0x3fb4b104	1.4116521
131	0x3f9fbeb5	1.2480074
132	0x3ce493ec	0.027902566
133	0x3f3cd64f	0.7376451
134	0xbeb73a52	-0.35786682
135	0x3e6eefeb	0.23333709
136	0xbfd21b8c	-1.6414657
137	0xbfa91c49	-1.3211757
138	0xbea5cb20	-0.32381535
139	0xbf790b7a	-0.97283137
140	0x3f3392ec	0.7014606
141	0xbdd192e6	-0.10233097
142	0xbfd4b5a1	-1.6617929
143	0xc03621db	-2.8458164
144	0xbf14dce2	-0.5814954
145	0xbefed028	-0.49768186
146	0x3e336b2a	0.17521349
147	0xbf3aeeab	-0.7302043
148	0xbf6fefef	-0.93725485
149	0xbf67a172	-0.9048072
150	0xbf779d29	-0.9672418
151	0x3f206a41	0.6266213
152	0x3e41db36	0.18931279
153	0x3ebd26d5	0.3694369
154	0x4013afca	2.3076043
155	0xbf030fdc	-0.51196074
156	0x3e93683c	0.28790462
157	0xbf94255d	-1.1573902
158	0x3f10ccd4	0.5656254
159	0x3fa284d6	1.2696788
160	0x3cc3d48b	0.02390506
161	0xc012cfc5	-2.2939312
162	0xbfa14c50	-1.2601414
163	0xbdffab39	-0.1248383
164	0xbf52afce	-0.82299507
165	0xbea99c0a	-0.3312686
166	0x3f290661	0.6602536
167	0xbf372c9a	-0.7155243
168	0x3f807e1c	1.0038486
169	0xbfdf268b	-1.7433637
170	0xbfe02cc1	-1.7513658
171	0xbe34ab38	-0.1764344
172	0x3f1d0290	0.61332035
173	0xbe5ac9c2	-0.21366027
174	0xbed59d7b	-0.4172171
175	0xbee81fd2	-0.45336777
176	0xbee548c0	-0.44782066
177	0xbfc14b03	-1.5101017
178	0x3feb01ff	1.8359984
179	0x3cfbb38d	0.030725265
180	0x3ea27097	0.31726524
181	0x3f0935bf	0.53597635
182	0x3f0ec1ff	0.55764765
183	0x3e048e04	0.129448
184	0x3ef6b7f6	0.48187226
185	0x3f45da5a	0.77286303
186	0x3e90b16f	0.2826037
187	0x3f5b3cbc	0.8563955
188	0x3eace22d	0.33766308
189	0xbed1bbda	-0.40963632
190	0xbe867a3e	-0.26265138
191	0xc00df8de	-2.2183146
192	0xbf136737	-0.5757937
193	0x3fbee162	1.4912531
194	0xbe953cd7	-0.2914798
195	0xbebe0eff	-0.37120816
196	0x401a6eda	2.4130158
197	0x3e878689	0.2646983
198	0xbeed36e6	-0.46330947
199	0xbf073f5f	-0.5283107
200	0xbf6bb28b	-0.9206931
201	0xbecd104d	-0.400515
202	0xbf628276	-0.8848032
203	0x3e680105	0.22656639
204	0xbfb2ce3b	-1.3969187
205	0xbe058069	-0.13037266
206	0xbf13d1da	-0.57742083
207	0x3fb77200	1.4331665
208	0xbf247339	-0.64238316
209	0x3eefb0b5	0.46814504
210	0x3fc135e3	1.509457
211	0x3eb0a164	0.3449813
212	0xbe7535da	-0.23946324
213	0xbfa05e15	-1.2528712
214	0xbf259ae9	-0.646895
215	0x3f6c91c5	0.92409927
216	0xbe8ccc36	-0.2749955
217	0x3f95f586	1.1715553
218	0xbf225b98	-0.6342101
219	0x3e358b3e	0.17728898
220	0x3f4b195e	0.7933558
221	0xbe7636ed	-0.2404439
222	0x3fe0e1c0	1.7568893
223	0x3f0f1ae3	0.559004
224	0xbf2344dd	-0.6377695
225	0xc028251a	-2.6272645
226	0x3e7f79d6	0.2494882
227	0x3eef65a7	0.46757242
228	0x3f70beeb	0.9404132
229	0xbf453efb	-0.77049226
230	0x3f59b6a7	0.8504433
231	0x3e6e463d	0.23268981
232	0xbf396e97	-0.7243437
233	0xbfcca427	-1.5987595
234	0x3fc21e36	1.516547
235	0xbf5dae19	-0.86593777
236	0x3d907642	0.07053806
237	0x3faee886	1.366471
238	0xbe5abf0b	-0.2136194
239	0x3f57be68	0.8427491
240	0x3ff642f4	1.9239182
241	0xbe28ffde	-0.16503856
242	0x3fae3021	1.3608438
243	0x3d567a50	0.05236274
244	0xbf13dba7	-0.5775704
245	0x3fb8bbcd	1.4432312
246	0xbf90472a	-1.1271718
247	0xbf3fc448	-0.74908876
248	0xbf8127b0	-1.0090237
249	0xbefa6806	-0.4890749
250	0xbfe7a7e6	-1.8098114
251	0xbf8e1bd8	-1.1102247
252	0x3d3488b7	0.044075694
253	0x3e9d2f7e	0.30700296
254	0x3fdb6ec5	1.7143179
255	0xbfa1d242	-1.264229

weight f4 [64, 64, 3]
0	0x3d28d83e	0.04122185
1	0xbd09b538	-0.03362009
2	0xbc613c14	-0.013747234
3	0x3dd2942e	0.10282169
4	0xbdeac5b7	-0.11463492
5	0xbcaeaa0c	-0.021321319
6	0x3d827249	0.063694544
7	0xbd8d7511	-0.06907094
8	0x3cf78a63	0.030217355
9	0xbdb58fd6	-0.08865325
10	0x3da435a7	0.08018046
11	0x3d0c6a83	0.034281265
12	0x3d98c2e9	0.07459051
13	0x3d174198	0.03692779
14	0x3e1c673b	0.15273754
15	0x3d6460c8	0.05575636
16	0xbdf958a9	-0.12175114
17	0xbd94cd24	-0.0726569
18	0x3dfa32c7	0.12216716
19	0xbafe84e8	-0.0019418271
20	0x3da0b1cc	0.07846412
21	0xbc98b77f	-0.018642185
22	0xbcb5224b	-0.022111079
23	0xbb373f96	-0.0027961484
24	0x3e07bd88	0.13255894
25	0x3daa39d3	0.0831181
26	0x3d793db3	0.060849857
27	0xbc0c9260	-0.00857982
28	0x3def43a7	0.116828255
29	0xbdc00fce	-0.093780145
30	0x3d35509a	0.04426632
31	0x3db1d0bc	0.08682391
32	0xbd73ff8d	-0.059569884
33	0x3d556d62	0.05210627
34	0xbe64c65d	-0.22341295
35	0xbdbd75a2	-0.09250952
36	0xbd1e5195	-0.03865202
37	0xbdcd8102	-0.10034372
38	0xbcbe33af	-0.023218004
39	0xbbd069bd	-0.0063602612
40	0x3d585c73	0.05282254
41	0x3cae5760	0.021281898
42	0x3dbf92dd	0.09354184
43	0xbe1504f7	-0.14552675
44	0xbd9fd43d	-0.07804153
45	0x3d2effd8	0.04272446
46	0xbbb91251	-0.0056479354
47	0xbb745aa6	-0.0037285476
48	0xbc537b19	-0.012907767
49	0xbc600e83	-0.013675335
50	0xbd381a95	-0.044947226
51	0xbd909370	-0.070593715
52	0x3d42e9d0	0.047586262
53	0x3da49b15	0.08037392
54	0x3ab91f7f	0.0014123766
55	0x3dc4746c	0.09592518
56	0xbd3d3f57	-0.046202984
57	0x3da599fc	0.08086011
58	0xbc983f1f	-0.018584786
59	0x3bee0573	0.007263833
60	0x3e52b8ab	0.20578258
61	0x3de7569f	0.112958185
62	0x3d0c1221	0.034196977
63	0xbd40c29c	-0.047060594
64	0x3ca05d81	0.019575836
65	0x3c75bbdd	0.014998403
66	0x3e1c5d2f	0.15269922
67	0xbd231ffe	-0.039825432
68	0x3d278a3e	0.040903322
69	0x3b268606	0.0025409474
70	0xbd06545f	-0.032795306
71	0xbb905251	-0.004404344
72	0x3ddfb5f4	0.10923377
73	0x3de5c3cd	0.11218987
74	0x3c64a69f	0.013955741
75	0xbd9a39a0	-0.07530522
76	0xbc829360	-0.015939415
77	0xbdf834f1	-0.12119473
78	0xbe21f614	-0.15816528
79	0xbdcb7bdf	-0.09935736
80	0xbdfa95c5	-0.122355975
81	0xbd3697c1	-0.044578318
82	0x3d506a9e	0.050882928
83	0xbdae4dd3	-0.085109375
84	0x3d33b1c8	0.043870717
85	0xbc8c6813	-0.01713947
86	0xbd99c16e	-0.07507597
87	0xbd07b734	-0.0331337
88	0xb933d826	-0.00017151292
89	0xbd971806	-0.07377629
90	0xbcef7c59	-0.029234098
91	0x3e342d6c	0.17595452
92	0x3d172b5e	0.036906593
93	0x3d517c90	0.051144183
94	0xbca82402	-0.020524982
95	0xbdc4edf5	-0.09615699
96	0x3b150e5f	0.0022744162
97	0x3d4a9b61	0.049464587
98	0x3c84a1ad	0.016190374
99	0xbd8b95da	-0.06815691
100	0xbd6213e6	-0.055194758
101	0xbdbb75bc	-0.091533154
102	0xbca570df	-0.020195423
103	0x3df76545	0.120798625
104	0x3df773b0	0.120826125
105	0xbc28e65a	-0.010308826
106	0x3da27718	0.079328716
107	0x3d205857	0.039146747
108	0x3d05d55d	0.032674182
109	0x3c4c5c49	0.012473174
110	0x3cdc07cf	0.026859192
111	0xbdac19b1	-0.08403338
112	0x3cbde455	0.023180166
113	0x3b75d7db	0.0037512693
114	0x3d1ed5ce	0.03877812
115	0xbe22fec8	-0.15917504
116	0x3de13042	0.109955326
117	0x3e5873a8	0.2113787
118	0x3dae771d	0.08518813
119	0x3db2e6b4	0.087354094
120	0xbdb49aaa	-0.08818562
121	0x3e32c792	0.17458943
122	0x3d157ec4	0.036497846
123	0xbd973ffd	-0.07385252
124	0x3c7af8b1	0.015318082
125	0x3d75464f	0.059881505
126	0x3de0fc28	0.10985595
127	0x3e0b41a3	0.13599257
128	0x3c408399	0.011750125
129	0x3d60a0d4	0.054840878
130	0xbd75f85a	-0.0600513
131	0xbe021bf2	-0.12705973
132	0x3e0256c3	0.1272841
133	0x3d084728	0.033270985
134	0x3dd57ab6	0.10423796
135	0x3d431b5d	0.047633518
136	0xbd2f870c	-0.0428534
137	0x3d6ba48c	0.05752997
138	0x3d9cbdd3	0.076533936
139	0x3b9d7713	0.0048054545
140	0x3de88603	0.11353686
141	0xbda8eba4	-0.0824807
142	0x3dc21825	0.094772615
143	0xbd86d2e7	-0.06583195
144	0x3df6d476	0.120522425
145	0x3aea945c	0.0017896998
146	0xbb2c04a1	-0.0026247876
147	0xbe0e6c30	-0.13908458
148	0xbd8f1703	-0.06986811
149	0xbdf1c69a	-0.11805458
150	0x3dd161a1	0.10223699
151	0xbcef056c	-0.02917739
152	0xbc290ee4	-0.010318492
153	0xbd8bed33	-0.068323515
154	0xbcea73be	-0.028619643
155	0xbe535752	-0.20638779
156	0x3d129472	0.0357861
157	0x3cde73f1	0.027154895
158	0x3d0be8cc	0.03415756
159	0x3da1cc6a	0.07900317
160	0x3bced43b	0.006311921
161	0xbdb1be71	-0.08678902
162	0x3d6a942c	0.057270214
163	0xbc05645a	-0.008141601
164	0xbdc7f7df	-0.097640745
165	0xbce2b3da	-0.02767365
166	0x3d1780ac	0.036987945
167	0x3db2a21e	0.08722328
168	0x3aca5bce	0.0015438737
169	0x3d846a65	0.06465606
170	0xbe170815	-0.14749177
171	0xbdd27ca9	-0.10277683
172	0x3d89fcd2	0.06737675
173	0xbded356b	-0.11582454
174	0xbd36b35b	-0.04460464
175	0x3d06b151	0.032883946
176	0x3e25035a	0.1611456
177	0x3c562cdb	0.013072218
178	0x3e482e4d	0.19548912
179	0x3d2f8fd3	0.04286177
180	0xbe42f1f9	-0.19037618
181	0x3ceba12a	0.028763372
182	0xbd6363ba	-0.05551503
183	0x3d1ba892	0.038002558
184	0xbd256601	-0.04038048
185	0x3db9b753	0.090681694
186	0xbcc090e5	-0.023506591
187	0x3c459a93	0.012060779
188	0xbe1a1a8a	-0.15049186
189	0x3d0b4254	0.033998802
190	0xbcad8b89	-0.0211847
191	0xbcad5e2b	-0.021163067
192	0xbd779513	-0.060444903
193	0xbd9ec56d	-0.077525
194	0x3cccc14c	0.024994515
195	0xbd78661f	-0.060644265
196	0xbced73d7	-0.0289859
197	0xbcd66f43	-0.0261761
198	0xbda1d0a7	-0.079011254
199	0x3c292561	0.010323853
200	0x3dd3ca79	0.10341353
201	0x3d0a858b	0.033818763
202	0x3d8283b0	0.06372774
203	0xbcdc1b7a	-0.02686857
204	0x3d34db6d	0.044154573
205	0x3d85551f	0.06510376
206	0x3d878ef4	0.06619063
207	0x3cbdee02	0.02318478
208	0xbd46d42a	-0.04854218
209	0x3d3b780b	0.04576878
210	0x3d715da4	0.058927193
211	0xbcc07864	-0.023494907
212	0xbe11e12e	-0.14246055
213	0x3e22053f	0.15822314
214	0x3da478c1	0.080308445
215	0x3cbb6bbe	0.022878524
216	0x3e250d14	0.1611827
217	0x3cf82451	0.030290755
218	0xbb9f9785	-0.0048703575
219	0x3cb5c871	0.022190304
220	0xbd1e6e00	-0.038679123
221	0x3d0be5a1	0.034154538
222	0xbd49348d	-0.049122382
223	0xbc0bda3f	-0.008535921
224	0x3dccfc57	0.100090675
225	0xbd7907f4	-0.0607986
226	0xbd69da5c	-0.05709301
227	0xbd6dc519	-0.058049295
228	0xbdd32682	-0.10310079
229	0x3daa1be3	0.083061
230	0xbd25d862	-0.04048956
231	0xbcd65f07	-0.02616836
232	0x3c7f6cb8	0.015589885
233	0xbc984fcb	-0.018592736
234	0x3bb5c51f	0.0055471803
235	0x3ca0b4c4	0.019617446
236	0xb9efce74	-0.00045739452
237	0xbda15d4f	-0.07879125
238	0xbd4453cb	-0.047931474
239	0xbd16785b	-0.036735874
240	0x3d5df510	0.054188788
241	0xbcb77952	-0.022396717
242	0x3c9abec5	0.018889794
243	0xbc73f47c	-0.014889833
244	0x3cf1f67c	0.029536478
245	0x3da31976	0.07963841
246	0xbc8f3174	-0.017479636
247	0xbc063e0e	-0.008193506
248	0x3d2d3f3a	0.042296626
249	0xbdc49473	-0.09598627
250	0xbccfce70	-0.025366992
251	0xbd8338e0	-0.064073324
252	0x3cde47b8	0.027133808
253	0x3d95304b	0.07284602
254	0x3d5d17ed	0.053977896
255	0xbc9d25e2	-0.019183103

bias f4 [64]
0	0xbe19ce00	-0.15019989
1	0xbdeee50b	-0.1166478
2	0xbdeab07f	-0.11459445
3	0xbdd9a07d	-0.10626314
4	0xbe1215db	-0.1426615
5	0xbd89e82e	-0.06733738
6	0x3cd3eb69	0.025869088
7	0x3a09e887	0.00052607845
8	0xbe1127c4	-0.14175326
9	0xbd8a5faa	-0.06756528
10	0xbd789cb8	-0.060696334
11	0xbddf12c0	-0.10892248
12	0xbddfc861	-0.10926891
13	0x3c4f5bcc	0.012656163
14	0xbdd9a2ec	-0.10626778
15	0xbd0d788a	-0.034538783
16	0xbda3c99d	-0.07997439
17	0xbdb77945	-0.08958677
18	0xbd524e71	-0.05134434
19	0xbda24cb9	-0.0792479
20	0xbd9f3fa9	-0.07775814
21	0xbd1578f5	-0.036492307
22	0x3c4140dd	0.01179525
23	0xbe5a5b6b	-0.21323936
24	0xbd2a5416	-0.041584097
25	0xbda4f142	-0.08053829
26	0xbd28cfd3	-0.04121382
27	0xbdd964fb	-0.106149636
28	0xbde5e675	-0.11225597
29	0xbda0d93a	-0.07853933
30	0xbcf80ec3	-0.030280476
31	0xbd83eff3	-0.06442251
32	0xbdde765b	-0.10862418
33	0xbd8c6531	-0.06855238
34	0xbe25c7eb	-0.16189544
35	0xbc8c98e3	-0.017162746
36	0xbe1cf9f3	-0.15329723
37	0xbc87018e	-0.016480234
38	0x3c71dd5e	0.014762251
39	0x3cf7ebd2	0.030263815
40	0xbd40e631	-0.047094528
41	0xbe1f8cbd	-0.15581031
42	0xbe2bb91a	-0.1676983
43	0xbdb871a8	-0.09006053
44	0xbdd45098	-0.103669345
45	0xbdfc1b7b	-0.12309929
46	0xbe04725f	-0.12934254
47	0xbd968aaa	-0.07350667
48	0xbdfd19a2	-0.12358405
49	0xbe6d7e81	-0.23192789
50	0xbd1da49e	-0.03848707
51	0xbe051f99	-0.13000335
52	0xbda5da64	-0.08098295
53	0xbdc0c98f	-0.09413444
54	0xbdb5fb0b	-0.08885773
55	0xbd3f0b26	-0.04664149
56	0xbdbd3e65	-0.092404164
57	0xbcff74f8	-0.031183705
58	0xbd5b060f	-0.053472575
59	0xbe095e92	-0.13414982
60	0xbd1c18f3	-0.03810973
61	0x3c8bb025	0.017051766
62	0xbbaca414	-0.005268583
63	0xbdb19a50	-0.08672011

weight f4 [64, 64, 5]
0	0xbd42c81d	-0.047554124
1	0x3e778e5e	0.24175403
2	0x3e161166	0.14655074
3	0xbd904c1e	-0.07045768
4	0x3c583ea3	0.0131985275
5	0x3e0df61e	0.13863418
6	0x3c32b8e5	0.01090834
7	0x3e13caca	0.14432827
8	0xbe1721ef	-0.14759038
9	0xbcafa3ad	-0.021440351
10	0x3ba73b83	0.00510353
11	0xbd4e6e36	-0.050398074
12	0x3e461ac3	0.19346146
13	0x3d9676b5	0.0734686
14	0x3d1b8ba0	0.037974954
15	0xbe088140	-0.13330555
16	0xbd3e00c9	-0.046387468
17	0xbdc95fc3	-0.09832718
18	0x3e32672e	0.17422172
19	0x3dc1c4c5	0.09461359
20	0xbd3e5642	-0.04646898
21	0x3e1674f9	0.14693059
22	0x3dab75d1	0.08372081
23	0xbcea3641	-0.028590323
24	0x3e1edc2f	0.15513681
25	0xbe5bce85	-0.214655
26	0x3c98b9b7	0.018643243
27	0x3d548743	0.051886808
28	0x3dbd37f5	0.092391886
29	0x3be06612	0.006848105
30	0xbc929685	-0.017894039
31	0x3e202b72	0.15641573
32	0x3e8198fd	0.25312033
33	0xbd6433b7	-0.05571338
34	0xbd3a9e09	-0.04556087
35	0x3dbe0252	0.09277786
36	0xbd121e6e	-0.03567355
37	0xbd29c0da	-0.041443683
38	0xbcb5aa64	-0.022175975
39	0x3cc57b2b	0.024106583
40	0xbdf098d0	-0.11747897
41	0xbc9fe0db	-0.0195164
42	0x3dcc1ba4	0.099662095
43	0x3e7c23d5	0.24623044
44	0x3e25f070	0.16205001
45	0x3e48f358	0.19624078
46	0x3de89335	0.113562025
47	0xbe73f8a1	-0.23825313
48	0xbc74305f	-0.014904111
49	0xbddc200f	-0.10748302
50	0xbd44e09e	-0.048065774
51	0xbe27205f	-0.16320942
52	0xbe4510a9	-0.19244637
53	0x3d5e0710	0.054205954
54	0xbbf133ef	-0.0073609273
55	0xbe20846f	-0.1567552
56	0x3d87588f	0.06608688
57	0x3e4fd60d	0.20296498
58	0x3ce38af9	0.027776228
59	0xbc70398a	-0.014662156
60	0x3d417d0d	0.0472384
61	0xbe868677	-0.26274464
62	0xbe1577c9	-0.14596476
63	0x3e0ed3d9	0.13948001
64	0x3d39cdf6	0.045362435
65	0xbe1d487a	-0.15359679
66	0x3e19133f	0.14948748
67	0x3e0e268b	0.1388189
68	0xbd999eba	-0.07500978
69	0x3bb5062c	0.0055244174
70	0xbd62061f	-0.05518162
71	0x3d4342d6	0.04767116
72	0xbda6aa70	-0.08137977
73	0xbd52e87e	-0.051491253
74	0xbd2e3ce2	-0.04253853
75	0xbe4dc666	-0.20095214
76	0x3e10df37	0.1414765
77	0x3d84c133	0.06482162
78	0x3cf8ef2f	0.03038749
79	0x3bb7edba	0.005613056
80	0x3c54c276	0.012985816
81	0xbe0ddc26	-0.13853511
82	0xbe009fa4	-0.12560898
83	0xbda14239	-0.07873959
84	0xbdc774a4	-0.09739044
85	0xbdd9e06f	-0.106385104
86	0x3e542120	0.20715761
87	0xbbb136ca	-0.0054081427
88	0xbdac0e0c	-0.08401117
89	0x3d8b09ad	0.06788955
90	0x3e32ee56	0.1747373
91	0xbdf046fc	-0.11732289
92	0xbc3b82e5	-0.011444782
93	0x3dae13d0	0.08499873
94	0x3b94dffd	0.004543303
95	0x3dd708b8	0.1049971
96	0x3e903446	0.2816488
97	0xbcaac7a9	-0.020847159
98	0x3c4f40f9	0.012649768
99	0xbd8f7fb2	-0.07006778
100	0x3dd666d3	0.10468831
101	0x3cbfc3f7	0.023408873
102	0x3db00169	0.08594019
103	0xbe3e0c46	-0.1855937
104	0x3d6b0cd0	0.057385266
105	0xbda58196	-0.08081357
106	0xbd0343f2	-0.03204722
107	0xba4c8755	-0.00078021485
108	0x3c7110f7	0.014713517
109	0xbdfea234	-0.124332815
110	0x3e006765	0.12539442
111	0xbe3f190a	-0.18661895
112	0x3e7e2365	0.2481819
113	0xbd140943	-0.036141645
114	0x3dcd6dee	0.10030733
115	0x3e81f7c0	0.2538433
116	0xbe98570c	-0.29753911
117	0xbd7d4889	-0.061836753
118	0xbd848060	-0.06469798
119	0x3dd09b2b	0.10185846
120	0xbdb67356	-0.08908717
121	0x3e82ef59	0.25573233
122	0xbd4e5370	-0.05037254
123	0xbe475d9d	-0.19469304
124	0xbe0b3519	-0.13594474
125	0x3e3a9bed	0.18223543
126	0xbdb34480	-0.087533
127	0x3c90a26e	0.017655578
128	0xbe19300f	-0.14959739
129	0x3c5176eb	0.0127847
130	0x3e2fe7d1	0.17178275
131	0x3d32c10b	0.04364113
132	0xbde59c5c	-0.11211464
133	0xbd220d67	-0.039563563
134	0x3d648704	0.055792823
135	0x3e054351	0.1301396
136	0x3deae6b2	0.11469783
137	0xbdbfa0b2	-0.09356822
138	0x3d26c38e	0.04071384
139	0x3dcc64de	0.099801764
140	0xbe715887	-0.23568927
141	0xbd9460a9	-0.07244999
142	0xbdc08d16	-0.0940191
143	0xbb0a6368	-0.002111638
144	0xbd703f05	-0.05865385
145	0x3dca663d	0.09882782
146	0x3d84297c	0.06453225
147	0xbe51fe99	-0.20507278
148	0xbd8e7e9e	-0.06957744
149	0x3dc5b84c	0.096542925
150	0xbd84ccbc	-0.064843625
151	0xbdd71c33	-0.105034254
152	0xbe239f70	-0.1597879
153	0x3da6e5bc	0.08149287
154	0x3ccd9203	0.025094038
155	0x3dba4f55	0.09097163
156	0x3e238556	0.15968832
157	0x3db0a88a	0.08625896
158	0xbb178597	-0.0023120397
159	0xbe2d1130	-0.16901088
160	0xbdaaf73d	-0.08347938
161	0x3e724929	0.23660721
162	0xbda341aa	-0.07971509
163	0x3d0e1743	0.034690153
164	0x3d4e3f22	0.050353177
165	0xbd7847b8	-0.06061527
166	0x3d65976f	0.05605262
167	0xbd66739d	-0.0562626
168	0x3de195b4	0.11014882
169	0x3df17797	0.11790388
170	0xbda6a277	-0.081364565
171	0xbe08094e	-0.132848
172	0x3e8c1052	0.273562
173	0x3d948aaf	0.07253014
174	0x3d841666	0.06449585
175	0x3d7ffbfb	0.062496167
176	0xbd9af2f4	-0.07565871
177	0x3c9a18ad	0.018810594
178	0xbdf9b7d7	-0.12193268
179	0x3e46d95f	0.19418858
180	0x3d18cec5	0.037306566
181	0x3e721a6e	0.23642895
182	0xbe045338	-0.1292237
183	0xbb9cc94f	-0.00478474
184	0x3e8f40bf	0.27979085
185	0x3d0ff202	0.035142906
186	0xbb684aba	-0.003544493
187	0xbcdf8067	-0.027282907
188	0xbdb928bd	-0.09040973
189	0x3d705237	0.058672156
190	0x3c36a6a5	0.01114813
191	0xbe0fcb2c	-0.14042348
192	0xbd1e46a2	-0.03864158
193	0xbdf683a2	-0.12036826
194	0x3d13466d	0.035955835
195	0x3d7b2bab	0.061320942
196	0x3e8273d3	0.25478992
197	0x3c884c2e	0.016637888
198	0xbe886697	-0.2664077
199	0xbd869d7b	-0.06573006
200	0x3c4fa2d8	0.012673102
201	0x3df222a2	0.11823012
202	0xbe7f437a	-0.24928084
203	0xbe2010d7	-0.15631424
204	0x3cdeca0f	0.027195958
205	0xbe49e888	-0.1971761
206	0x3e15b784	0.14620787
207	0xbe27321e	-0.16327712
208	0xbe2a0311	-0.16602732
209	0xbd8cdb1a	-0.06877728
210	0x3dc967e8	0.09834272
211	0xbdc3a758	-0.09553403
212	0xbddd8cf1	-0.10817898
213	0x3da5e884	0.081009895
214	0x3d9b4e52	0.07583298
215	0xbdaa0f56	-0.08303706
216	0xbd2b65b8	-0.041845053
217	0x3c637c63	0.013884637
218	0x3e07768f	0.1322882
219	0x3d2a5467	0.0415844
220	0x3d9e18df	0.077195875
221	0x3d96827b	0.07349106
222	0x3d8c7735	0.068586744
223	0x3d6b44f2	0.0574388
224	0xbd94ddf8	-0.072689
225	0x3d205e57	0.03915247
226	0xbd9eef20	-0.07760453
227	0x3e457406	0.1928254
228	0xbaa48ab2	-0.0012553541
229	0xbd92ef97	-0.071746044
230	0x3bd48885	0.006486001
231	0x3e452b44	0.19254786
232	0x3cf9a5b5	0.030474523
233	0xbdc7c744	-0.09754804
234	0x3dff988e	0.12480269
235	0x3deec540	0.11658716
236	0x3bcc0273	0.006225878
237	0xbe08cfdc	-0.13360542
238	0x3e113d33	0.14183502
239	0x3d896d6a	0.06710322
240	0x3c9861cf	0.018601326
241	0xbdea397a	-0.11436744
242	0xbd9f023d	-0.07764099
243	0xbd0f23c4	-0.034946218
244	0xbbc239de	-0.0059273085
245	0x3c96d74b	0.018413207
246	0xbe20b62f	-0.15694498
247	0x3d5adfb4	0.053435996
248	0x3d2ed381	0.042682175
249	0xbe1ead17	-0.15495716
250	0xbd452f1e	-0.048140638
251	0xbd07224e	-0.0329917
252	0x3e1b4947	0.15164672
253	0x3cf1defd	0.029525274
254	0x3da65bd7	0.08122986
255	0x3de803b3	0.113288306

bias f4 [64]
0	0x3d488cc5	0.048962373
1	0x3d061f35	0.032744605
2	0xbe281d96	-0.16417536
3	0xbd354be8	-0.044261843
4	0xbdf99245	-0.12186102
5	0xbd51011f	-0.05102646
6	0xbdd7088e	-0.104996786
7	0x3d16c3c0	0.036807775
8	0xbc7c890f	-0.015413537
9	0xbd6c56d4	-0.057699993
10	0xbcb6ddeb	-0.022322616
11	0xbd8a2286	-0.06744866
12	0xbbe9752e	-0.0071245646
13	0xbd684c45	-0.05671336
14	0xbe1f8c5f	-0.15580891
15	0xbd7a6aa2	-0.06113685
16	0x3c1d9918	0.00961902
17	0xbe30d666	-0.17269287
18	0xbdd5506a	-0.104157284
19	0xbdd166bb	-0.102246724
20	0xbcd25950	-0.025677353
21	0xbda7025c	-0.08154747
22	0xbdde5c94	-0.108575016
23	0xbc84af9a	-0.016197015
24	0xbcee4dc6	-0.02908982
25	0xbd3fa98e	-0.04679256
26	0xbdf147e2	-0.11781289
27	0xbd4f841c	-0.0506631
28	0xbdf6e55f	-0.12055468
29	0xbe08086b	-0.13284461
30	0xbd9c743f	-0.0763936
31	0xbdd6de7b	-0.104916535
32	0x3ad0a848	0.0015919292
33	0xbd382f97	-0.04496726
34	0xbd740b14	-0.059580877
35	0xbc53f4bd	-0.012936768
36	0xb98c3ffa	-0.00026750547
37	0x3cd58f1c	0.026069216
38	0xbe32d068	-0.17462313
39	0xbdfbdc27	-0.1229785
40	0xb7bbe197	-2.2397186e-05
41	0xbd87b303	-0.06625941
42	0x3cdb567a	0.026774634
43	0xbd80cc83	-0.062890075
44	0xbda00f10	-0.07815373
45	0xbddda0e4	-0.10821703
46	0xbcd18e5b	-0.025580576
47	0x3b3084c2	0.0026934599
48	0xbd6d6b72	-0.057963796
49	0xbd6c73f7	-0.05772778
50	0xbdaac635	-0.08338586
51	0xbdcd4d7c	-0.100245446
52	0xbe1a4e20	-0.15068865
53	0xbe408107	-0.1879922
54	0xbd81fc2f	-0.06346928
55	0xbddc9f41	-0.10772563
56	0xbd0c12eb	-0.03419773
57	0xbc5b1afb	-0.013373132
58	0xbd76f0b6	-0.060288154
59	0xba818751	-0.0009882246
60	0xbd9863f5	-0.0744094
61	0xbcf3f7f7	-0.029781325
62	0xbd6afd06	-0.05737021
63	0x3b3abca2	0.0028493782

weight f4 [64, 64, 7]
0	0x3c9e2bb1	0.019307943
1	0xbe016fc4	-0.12640291
2	0x3dc281df	0.09497427
3	0xbcbf9db7	-0.023390634
4	0x3c1519e3	0.00910041
5	0x3d8a7bb9	0.067618795
6	0xbe08fa91	-0.13376833
7	0xbcb52641	-0.022112967
8	0x3c373364	0.011181686
9	0xbd31c9ef	-0.04340547
10	0xbdd4739e	-0.10373615
11	0x3d24ed4f	0.040265378
12	0x3d896273	0.06708231
13	0x3d1f1d94	0.038846567
14	0xbe4bb604	-0.19893652
15	0x3a6b05b0	0.0008965386
16	0xbdee025e	-0.11621545
17	0x3c854fa6	0.01627333
18	0x3d0cc24e	0.03436499
19	0x3d7e9d62	0.06216181
20	0x3cd56170	0.026047438
21	0xbddf1746	-0.10893111
22	0xbd1aaf00	-0.03776455
23	0xbcf45a10	-0.029828101
24	0x3b0a3d91	0.0021093825
25	0xbac9b150	-0.0015387926
26	0x3d8f3722	0.069929376
27	0xbc965720	-0.018352091
28	0xbc59f5b3	-0.013303208
29	0x3d43e45b	0.0478252
30	0xbdfe4716	-0.12415902
31	0x3d88e455	0.06684176
32	0xbdb9d691	-0.090741284
33	0xbd5593a6	-0.05214276
34	0x3dec91c3	0.11551239
35	0x3cf952b7	0.03043495
36	0x3dbb622e	0.09149586
37	0x3d1b7e88	0.037962466
38	0xbd8d8444	-0.06909993
39	0x3e061cc4	0.1309691
40	0xbd846da6	-0.06466226
41	0x3dab1f92	0.08355631
42	0x3cc28b87	0.023748172
43	0xbd3e9670	-0.046530187
44	0x3d035847	0.03206661
45	0xbd88ea12	-0.0668527
46	0x3cc95532	0.024576757
47	0xbd54533e	-0.0518372
48	0x3c99b083	0.018760925
49	0xbd1be096	-0.03805598
50	0xbbdc7cd8	-0.0067287497
51	0xbd68e506	-0.05685904
52	0x3db53b3f	0.08849191
53	0xbd34c892	-0.04413659
54	0x3ca6ee17	0.020377202
55	0xbd52abfe	-0.051433556
56	0xbddce0cc	-0.10785064
57	0x3d06f566	0.032948874
58	0xbd61571f	-0.055014726
59	0x3e0cc7bd	0.13748069
60	0xbdec7889	-0.11546428
61	0xbd28071c	-0.041022405
62	0x3d124edf	0.03571975
63	0x3d745fe4	0.05966176
64	0x3d32e2d2	0.043673344
65	0xbde1b3e1	-0.11020637
66	0x3d078fdb	0.033096176
67	0xbcdd2a2f	-0.026997654
68	0xbc03d4cb	-0.008046339
69	0x3b70cb2b	0.0036742191
70	0xbdaeabc6	-0.08528857
71	0x3d0b59f1	0.03402132
72	0x3e2097c2	0.15682891
73	0xbd2815d8	-0.041036457
74	0xbd358a3d	-0.044321287
75	0xbcd190bc	-0.02558171
76	0x3db934e6	0.09043293
77	0x3dc6ccd0	0.09707034
78	0xbd7fdb3b	-0.062464934
79	0x3d3b2652	0.045690842
80	0xbdc5910f	-0.09646808
81	0x3b8d3615	0.0043094256
82	0x3b32390a	0.0027194642
83	0x3dd84e1a	0.10561772
84	0x3d17be2f	0.037046608
85	0x3d958432	0.07300605
86	0x3daa475f	0.08314394
87	0xbdb697c8	-0.08915669
88	0x3d809c43	0.062798046
89	0xbda66abd	-0.081258275
90	0x3deb4c9c	0.114892215
91	0xbe7f2b7b	-0.2491893
92	0xbdaf2174	-0.085513026
93	0x3daae77e	0.08344935
94	0xbd302336	-0.04300233
95	0xbe21abd6	-0.15788206
96	0x3d842178	0.06451696
97	0x3d640108	0.055665046
98	0x3e0c2be5	0.1368862
99	0x3c9e893c	0.019352548
100	0x3da977e4	0.082748204
101	0xbd6f1240	-0.058367014
102	0xbd5a5f9e	-0.053313844
103	0x3d43d297	0.047808256
104	0xbd40c5ac	-0.047063515
105	0x3b489028	0.0030603502
106	0xbdaffb81	-0.085928924
107	0x3e06b166	0.1315361
108	0xbdd5f46f	-0.10447013
109	0x3cd5fb9f	0.026120959
110	0xbd0d243a	-0.034458376
111	0xbd375870	-0.044762075
112	0xbe497cef	-0.19676565
113	0x3d9738a3	0.073838495
114	0x3d8461eb	0.06463989
115	0xbd7dc74f	-0.061957654
116	0x3d4a2e3f	0.04936051
117	0xbd259367	-0.040423777
118	0xbc2bffdc	-0.010498013
119	0xbdca63ff	-0.09882354
120	0xbc59879b	-0.01327696
121	0x3cda25f8	0.026629433
122	0x3de0fee7	0.10986119
123	0xba8c9bc4	-0.0010727574
124	0x3c627b43	0.013823333
125	0xbc755d19	-0.0149758095
126	0xbe02aac5	-0.12760456
127	0x3cb23a13	0.021756208
128	0xbd8bb2c3	-0.068212055
129	0xbcfc8dc2	-0.030829314
130	0x3d0ee9a2	0.03489078
131	0x3c372829	0.0111790085
132	0xbb3d74f8	-0.002890883
133	0x3c7f847d	0.0155955525
134	0x3dea686e	0.114457
135	0xbd475f26	-0.048674725
136	0xbcb8a70b	-0.02254059
137	0xbdc88ec3	-0.09792855
138	0x3d3110a5	0.043228764
139	0xbe01e983	-0.12686734
140	0xbda9e400	-0.08295441
141	0x3dfb5584	0.1227217
142	0xbda19172	-0.078890696
143	0xbdf64006	-0.1202393
144	0xbd2a01ca	-0.041505612
145	0x3dcbf6f1	0.0995921
146	0xbd898257	-0.067143135
147	0xbc619c2e	-0.013770146
148	0x3d3bbcf7	0.045834508
149	0x3e170090	0.14746308
150	0xbe0ddee4	-0.13854557
151	0x3b379e92	0.00280181
152	0x3d26863f	0.04065537
153	0x3dbfe122	0.093691126
154	0x3c2fa3a9	0.010720172
155	0xbcd15425	-0.025552819
156	0x3a5e27aa	0.00084745383
157	0x3e22837c	0.1587047
158	0x3d95e3ad	0.07318816
159	0x3dc7f2a2	0.097630754
160	0x3d91c263	0.071171544
161	0xbdf441c8	-0.11926609
162	0x3dbfbc20	0.09362054
163	0xbc5acfa2	-0.013355168
164	0x3db2c6d8	0.08729333
165	0x3aa18956	0.0012324254
166	0x3de07340	0.10959482
167	0x3d861bff	0.065483086
168	0xbcb057a0	-0.021526158
169	0xbcd1d4b4	-0.02561412
170	0xbd34361c	-0.043996915
171	0xbdf392be	-0.11893223
172	0xbccd6bf0	-0.025075883
173	0xbd6dd274	-0.058062032
174	0xbbbd5f6f	-0.005779199
175	0x3ce00954	0.027348198
176	0x3bbed3e0	0.0058235973
177	0x3d9b30a8	0.0757764
178	0xbdcd6aa0	-0.10030103
179	0x3dad50a3	0.08462646
180	0xbdca53e6	-0.098792836
181	0x3b934b97	0.004495095
182	0x3d292c0d	0.041301776
183	0x3c89594b	0.016766211
184	0xbca32666	-0.01991577
185	0x3d92183b	0.07133528
186	0x3c068fc8	0.008212991
187	0xbbeb2e41	-0.0071771448
188	0x3dc03935	0.093859114
189	0xbdf4bf51	-0.11950553
190	0x3d9916ed	0.07475076
191	0xbd3f5a02	-0.046716698
192	0x3ab4da00	0.0013797879
193	0xbb9e7058	-0.0048351698
194	0xbb78db6c	-0.0037972583
195	0x3d24de7d	0.040251244
196	0x3d913480	0.07090092
197	0xbd9c2620	-0.07624459
198	0x3c9503ac	0.018190227
199	0xbd8ea403	-0.069648765
200	0x3d12db11	0.03585345
201	0xbdb57efe	-0.088621125
202	0xbd86ba49	-0.065785
203	0xbc36350d	-0.011121047
204	0xbd967ffb	-0.07348629
205	0xbdaf7487	-0.08567148
206	0x3dc0dd9d	0.094172694
207	0xbd1a3c7e	-0.037655346
208	0xbdb0ba2e	-0.08629261
209	0xbdcd4c96	-0.10024373
210	0xbdd4c45f	-0.10389017
211	0xbe26fb4d	-0.16306801
212	0x3b720f55	0.0036935408
213	0x3d8c2975	0.06843845
214	0x3c533583	0.012891176
215	0xbd8c31fc	-0.06845471
216	0xbdac895f	-0.08424639
217	0x3c84e9db	0.016224792
218	0x3c6a9164	0.01431689
219	0xbdad0b18	-0.084493816
220	0x3ca59fc8	0.020217791
221	0xbce8f1c8	-0.028435603
222	0x3da21171	0.07913483
223	0x3c865670	0.016398638
224	0x3a1a6db7	0.00058909826
225	0x3c97e482	0.018541578
226	0xbca3bc34	-0.019987203
227	0x3e0bf487	0.13667499
228	0xbd3b06b8	-0.045660704
229	0xbdc237c0	-0.0948329
230	0xbdcd7ba2	-0.10033347
231	0xbe175264	-0.14777523
232	0xbc5d0814	-0.0134906955
233	0xbdd207ce	-0.10255395
234	0x3dfdb287	0.12387567
235	0x3d1749c6	0.03693559
236	0x3d44c8c0	0.048043013
237	0x39dcdb5d	0.00042125108
238	0xbded39e0	-0.115833044
239	0xbbc00882	-0.005860389
240	0xbd7afe88	-0.061277896
241	0x3dae27df	0.085036986
242	0x3c0d7e49	0.008636066
243	0x3c9c2454	0.019060291
244	0x3d8e7402	0.069557205
245	0xbd691dbc	-0.056913123
246	0xbd3e5f3f	-0.046477553
247	0xbd1081cb	-0.03528003
248	0xbd1ce055	-0.038299877
249	0x3d466d80	0.04844427
250	0xbd9c3f10	-0.07629216
251	0x3d1a5511	0.037678782
252	0x3b799f5a	0.0038089366
253	0x3dcc48ce	0.09974824
254	0xbd359f34	-0.04434128
255	0x3dbed34a	0.09317644

bias f4 [64]
0	0xbd664629	-0.056219254
1	0xbc986ace	-0.018605616
2	0xbb54d89f	-0.003247775
3	0xbdeab7a3	-0.11460807
4	0xbd537b3a	-0.05163119
5	0xbcd00801	-0.025394442
6	0xbc102949	-0.008798906
7	0xbdca0f23	-0.09866168
8	0xbd76f852	-0.06029541
9	0xbca9000c	-0.020629905
10	0xbdef198f	-0.11674797
11	0xbd5cebf8	-0.053935975
12	0xbdbf09b4	-0.093280226
13	0xbd368b11	-0.044566218
14	0xbd69042b	-0.05688874
15	0xbd1cfade	-0.038325183
16	0x3c53c54c	0.012925457
17	0x3c70a471	0.014687643
18	0xbdd49432	-0.103798285
19	0xbd463716	-0.048392378
20	0xbd259e70	-0.0404343
21	0xbd27c64e	-0.040960602
22	0x3ae37a82	0.0017355236
23	0xbd3fb642	-0.046804674
24	0xbdb5307c	-0.08847138
25	0xbcb2dc60	-0.021833599
26	0xbe200d74	-0.15630132
27	0xbbacd125	-0.0052739554
28	0xbd3e42da	-0.046450473
29	0xbd55234c	-0.052035615
30	0xbd81d917	-0.06340235
31	0xbdbb3248	-0.0914045
32	0xbdaf85a9	-0.085704155
33	0xbe03d5bb	-0.128745
34	0x3d1695e6	0.036764048
35	0xbd57e6fe	-0.052710526
36	0xbc83d4dd	-0.016092712
37	0xbd1518e8	-0.036400706
38	0xbd586992	-0.052835055
39	0xbd4cb5ec	-0.04997818
40	0xbd8eff51	-0.069822915
41	0xbd2b805f	-0.04187047
42	0xbcdc2320	-0.026872218
43	0xbdf7225b	-0.120671
44	0xbd87a3e7	-0.06623059
45	0xbd02de26	-0.03195014
46	0xbd254b66	-0.04035511
47	0xbbdeed64	-0.0068032015
48	0xba834484	-0.0010014926
49	0x3d25cd68	0.040479094
50	0xbc01cd5c	-0.007922497
51	0xbd3fad11	-0.04679591
52	0xbd814146	-0.06311278
53	0xbd5deee8	-0.054182917
54	0xbd8044e5	-0.062631406
55	0xbd916149	-0.07098634
56	0xbd947cce	-0.07250367
57	0xbd829af1	-0.06377209
58	0xbd60c8cb	-0.05487899
59	0xbdafc326	-0.085821435
60	0xbd95ea06	-0.07320027
61	0xbd58e2f4	-0.052950814
62	0x3d092004	0.033477798
63	0x3d06803b	0.032837134

weight f4 [64, 192]
0	0xbd0bb69e	-0.034109704
1	0xbdb6329b	-0.08896371
2	0x3c1ef75f	0.009702533
3	0xbd66aa1f	-0.056314584
4	0x3d5d96a0	0.054098725
5	0x3c03c9a6	0.008043682
6	0x3e21b1d5	0.15790494
7	0x3d939569	0.07206232
8	0xbd8597f7	-0.065231256
9	0xbd3f7db8	-0.046750754
10	0x3e0f123d	0.13971801
11	0xbcb2ad93	-0.021811282
12	0x3d89ce95	0.067288555
13	0x3d8afdee	0.067867145
14	0xbd9c13a8	-0.07620937
15	0x3c843054	0.016136326
16	0x3d35a21c	0.044344053
17	0x3caf312a	0.021385748
18	0x3cdcc9d5	0.02695171
19	0xbd7dbdff	-0.061948773
20	0x3e130bdb	0.14359991
21	0xbda1de3b	-0.07903715
22	0x3d6cb895	0.05779322
23	0x3cbb5a57	0.022870226
24	0xbd0591fc	-0.032609925
25	0x3d9e425c	0.07727501
26	0xbc855851	-0.016277464
27	0xbd0d4340	-0.034487963
28	0xbd5ecd92	-0.054395266
29	0x3d42e1d2	0.04757864
30	0xbd80ef46	-0.06295638
31	0xbe0d00f0	-0.13769889
32	0xbdeae53c	-0.11469504
33	0x3db26e4a	0.08712442
34	0x3b150bd9	0.0022742657
35	0xbca633f7	-0.02028845
36	0xbcdb388c	-0.026760362
37	0xba246366	-0.0006270915
38	0x3cfb5bef	0.030683486
39	0x3cb20fe0	0.021736085
40	0x3d09834e	0.033572488
41	0x3d0bea17	0.034158792
42	0x3c4b487c	0.012407418
43	0xbd84d8e3	-0.0648668
44	0xbd28c7ed	-0.04120629
45	0xbc481029	-0.012210884
46	0xbd20500f	-0.03913885
47	0xbca783d9	-0.020448612
48	0xbde6c57f	-0.11268138
49	0xbca63ca3	-0.020292586
50	0x3d79d0dd	0.060990203
51	0xbe268754	-0.16262561
52	0xbd9b825e	-0.07593225
53	0x3d93a1f3	0.07208624
54	0x3cb91f3b	0.0225979
55	0x3ddc19cd	0.107471086
56	0x3d222565	0.039586443
57	0x3caba5af	0.020953028
58	0x3d2ba00a	0.041900672
59	0x3b877c83	0.004134716
60	0xbd077bad	-0.03307693
61	0x3dc56614	0.096386105
62	0x3d1cc680	0.03827524
63	0xbc31f656	-0.010861954
64	0x3e2b9382	0.16755489
65	0x3da678db	0.0812852
66	0x3c5a91fb	0.0133404685
67	0x3c83d70e	0.016093757
68	0xbdac498e	-0.08412467
69	0x3e34b22e	0.17646095
70	0x3cbd5c55	0.023115316
71	0x3df8fbdc	0.12157413
72	0x3d419f1a	0.04727087
73	0xbccfd409	-0.02536966
74	0x3e11abc1	0.14225675
75	0x3df85022	0.12124659
76	0x3e1105f1	0.14162423
77	0x3d0a3c3a	0.033748843
78	0xbcc9065a	-0.024539161
79	0xbd1120db	-0.035431724
80	0x3e141dc6	0.14464483
81	0x3dec7fbf	0.11547803
82	0xbc87f919	-0.016598271
83	0xbcbe9ae0	-0.02326721
84	0x3cf32ac1	0.029683473
85	0x3b526db4	0.0032108845
86	0xbcecd64e	-0.028910782
87	0x3d4bc2b7	0.04974624
88	0x3e298b17	0.16556965
89	0xbc00deda	-0.007865632
90	0xbb8dbe9f	-0.0043257023
91	0x3e152b72	0.14567354
92	0xbd600ccc	-0.054699704
93	0x3dc04acf	0.093892686
94	0xbdfe5a4d	-0.12419567
95	0x3d17f795	0.037101347
96	0x3d8ae34b	0.06781634
97	0x3d434a01	0.047677997
98	0xbbf29fb2	-0.007404291
99	0x3db5d862	0.08879162
100	0x3da9e08f	0.08294784
101	0x3e0783d6	0.13233885
102	0x3d31eee9	0.043440733
103	0xbd1f9465	-0.03895988
104	0x3df193ba	0.11795755
105	0xbc80eea9	-0.015738802
106	0x3dcb8219	0.099369235
107	0xbdfa8bec	-0.12233719
108	0xbc3c03a9	-0.011475482
109	0xbd83fcd8	-0.064447105
110	0xbdd80cb1	-0.10549296
111	0x3de6b79c	0.112654895
112	0x3ca285f7	0.01983927
113	0x3dae7686	0.085187
114	0x3d70adc5	0.05875947
115	0x3be132ec	0.0068725254
116	0xbcd853c9	-0.02640714
117	0xbd49c356	-0.049258552
118	0xbe08cf3a	-0.133603
119	0xbd976ba3	-0.07393577
120	0x3d878021	0.066162355
121	0x3e4f4a89	0.20243277
122	0xbdac434a	-0.08411272
123	0x3dc58444	0.09644368
124	0x3cac7e73	0.02105639
125	0xbd149304	-0.036273018
126	0x3de9d92b	0.11418375
127	0x3e3572e8	0.17719615
128	0xbd7a8869	-0.061165247
129	0x3de109cc	0.10988197
130	0x3d3a7004	0.045516983
131	0xbda491b9	-0.08035607
132	0x3e4efa91	0.20212771
133	0x3e48069e	0.19533774
134	0x3d801d15	0.06255547
135	0xbde2b6e1	-0.11070038
136	0xbdbc8e29	-0.092068024
137	0x3cadebae	0.021230545
138	0xbbeec9f6	-0.007287259
139	0xbe045acc	-0.12925261
140	0xbd582a45	-0.052774686
141	0xbd23e028	-0.040008694
142	0xbe1dd74b	-0.15414159
143	0x3d171421	0.03688443
144	0x3d9cc736	0.07655184
145	0x3de043d4	0.10950437
146	0xbbb0b243	-0.005392344
147	0xbe08e2c6	-0.13367757
148	0x3e285339	0.16437997
149	0x3e27e782	0.16396907
150	0x3e217a4c	0.15769309
151	0xbd9c7386	-0.07639222
152	0xbde7cf9e	-0.11318897
153	0xbdfcc929	-0.12343056
154	0xbd86abe0	-0.06575751
155	0x3dc3f596	0.09568326
156	0x3e8802a1	0.26564506
157	0xbd8e1f5b	-0.06939574
158	0x3d7a3e96	0.061094843
159	0xbd8dbdcb	-0.06920966
160	0xbdfe8856	-0.12428348
161	0x3854e59f	5.075859e-05
162	0x3e101dfa	0.14073935
163	0xbe15053b	-0.14552777
164	0x3cff6265	0.031174848
165	0xbd2e3946	-0.04253509
166	0xbe10998c	-0.14121073
167	0x3c91580f	0.017742185
168	0xbdb98c52	-0.09059967
169	0x3c997f68	0.01873751
170	0x3db96bd0	0.09053767
171	0x3c2e5ccc	0.010642242
172	0xbdbc25be	-0.09186886
173	0xbe056bfc	-0.13029474
174	0x3e4f9d0c	0.20274752
175	0x3cfb216c	0.030655585
176	0xbc097aea	-0.008391121
177	0x3de9141f	0.11380791
178	0x3dcf883f	0.10133409
179	0xbdd8ac75	-0.105797686
180	0xbe0e4fef	-0.1389768
181	0xbd83d02e	-0.064361915
182	0xbda9b831	-0.08287085
183	0xbdbebd64	-0.09313467
184	0xbdc698a5	-0.096970834
185	0x3c789a84	0.015173558
186	0x3e17ab5f	0.14811467
187	0xbbc2537d	-0.0059303627
188	0xbca92944	-0.02064956
189	0xbdde1221	-0.108433016
190	0x3e3c805b	0.18408339
191	0x3dd156be	0.10221623
192	0xbd46a067	-0.048492815
193	0xbdb17041	-0.08663989
194	0xbc6f97d5	-0.014623602
195	0xbdad93f4	-0.084754854
196	0xbd9dab73	-0.07698717
197	0xbdb1b177	-0.08676427
198	0x3d536ec8	0.05161932
199	0xbc29674c	-0.010339569
200	0xbdb50fde	-0.08840917
201	0x3d3a0f99	0.04542503
202	0xbd7682f2	-0.060183473
203	0x3d61ddfd	0.055143345
204	0xbb104840	-0.002201572
205	0x3d7fc6ed	0.06244557
206	0xbcdf1d39	-0.027235614
207	0xbd2a42ff	-0.0415678
208	0x3c505632	0.012715863
209	0xbd11b72d	-0.03557508
210	0xbcfd3264	-0.030907817
211	0x3d131e90	0.03591782
212	0x39a2c497	0.0003104552
213	0xbc4b89a8	-0.0124229565
214	0xbd537b20	-0.051631093
215	0xbd1b87b2	-0.037971206
216	0x3d15f0e5	0.036606688
217	0x3d6bf943	0.05761076
218	0xbccdf7d8	-0.025142595
219	0x3d2889a4	0.04114689
220	0xbdb29798	-0.087203205
221	0xbd6b0359	-0.05737624
222	0xbdb81195	-0.089877285
223	0xbd0b6394	-0.034030512
224	0xbbb1460a	-0.0054099606
225	0x3ce2347d	0.027612919
226	0x3d68e6be	0.056860678
227	0x3b4485b5	0.0029986922
228	0xbd233909	-0.039849315
229	0x3d72e104	0.059296623
230	0x3d0d773e	0.034537546
231	0xbc69fb0f	-0.014281048
232	0xbd210ece	-0.03932076
233	0x3cf53664	0.029933162
234	0xbd950b45	-0.0727754
235	0xbceb3404	-0.028711326
236	0xbd806779	-0.06269736
237	0xbd5e9046	-0.05433681
238	0x3cae3101	0.021263601
239	0xbd4ed480	-0.050495625
240	0x3d4ae886	0.049538158
241	0xbd52741f	-0.051380273
242	0xbcabeb13	-0.020986116
243	0xbb75d755	-0.003751238
244	0x3c871311	0.016488584
245	0xbbaade56	-0.005214493
246	0xbd895e79	-0.06707472
247	0xbd2e6a6a	-0.042581953
248	0x3c569c03	0.0130987195
249	0xbd65b342	-0.056079157
250	0x3d06ee23	0.03294195
251	0xbca167da	-0.01970284
252	0x3cb23f1f	0.021758614
253	0x3c95d02a	0.018287737
254	0xbd2ecdc7	-0.042676713
255	0xbd9332eb	-0.07187446

bias f4 [64]
0	0xb984b93b	-0.0002531501
1	0xbd80a26f	-0.06280982
2	0xbd8845fd	-0.06653974
3	0x3cad8c32	0.021185014
4	0xbcec815d	-0.028870279
5	0x3c9f10fe	0.019417282
6	0xbcc3f89c	-0.023922257
7	0x3d0472c1	0.032336
8	0xbbadf8a0	-0.0053091794
9	0xbd83a107	-0.06427198
10	0xbd9b5418	-0.07584399
11	0x3c71d5c0	0.014760435
12	0xbc761e72	-0.015021907
13	0x3af56730	0.0018722769
14	0xbd8098c9	-0.062791415
15	0x3c979851	0.018505247
16	0x3d1aaac6	0.03776052
17	0xbd098b5d	-0.033580173
18	0x3c0b661d	0.008508232
19	0xbd22f325	-0.039782662
20	0xbc57c1cc	-0.013168763
21	0xb977b04b	-0.0002362143
22	0x3d8a4082	0.06750585
23	0x3d2b3214	0.041795805
24	0x3d193781	0.03740645
25	0x3d6a3109	0.05717567
26	0xbd849231	-0.06473196
27	0xbd787c6a	-0.060665525
28	0x3cd75f93	0.02629069
29	0xbc91c5a0	-0.01779443
30	0xbccb6332	-0.024827573
31	0x3c8400f3	0.016113734
32	0xb778804f	-1.4811826e-05
33	0xbd5cdb96	-0.05392035
34	0x3d0a3958	0.033746094
35	0xbd2e35fa	-0.042531945
36	0x3d3efed0	0.046629727
37	0x3d8cf71e	0.06883071
38	0xbcff1e5c	-0.031142406
39	0x3be6f379	0.007048067
40	0xbd8a852f	-0.06763684
41	0x3c9e89a5	0.019352743
42	0xbd916065	-0.07098464
43	0x3d8806cc	0.066419214
44	0x3b501745	0.003175215
45	0x3d522def	0.051313337
46	0x3c176870	0.009241208
47	0x3ae7896c	0.0017664856
48	0xbd27b01e	-0.040939443
49	0xbdb373f6	-0.08762352
50	0x3cdace48	0.02670969
51	0x3d0b2022	0.03396619
52	0x3d2a8b03	0.04163648
53	0xbc00592d	-0.007833761
54	0x3cf980ff	0.030457018
55	0xbc313cb7	-0.010817698
56	0x3d6b9dd6	0.05752357
57	0xbc8de9f8	-0.017323479
58	0xbcc372b7	-0.023858411
59	0xbd4ef8a5	-0.050530095
60	0x3cee0951	0.029057177
61	0xbd36732c	-0.04454343
62	0x3ca98669	0.020693975
63	0x3ba1e4ee	0.0049406206

weight f4 [1, 64]
0	0xbe8266c7	-0.25469038
1	0xbc282dce	-0.010264827
2	0x3e3fd302	0.18732837
3	0x3e8ef942	0.27924544
4	0x3e753e6f	0.23949598
5	0x3c355816	0.011068365
6	0xbe212db3	-0.15740089
7	0x3e63abb0	0.22233462
8	0xbdcca000	-0.09991455
9	0xbe40c771	-0.18826081
10	0x3de591ea	0.112094715
11	0xbe4571b1	-0.19281651
12	0xbc475511	-0.0121662775
13	0xbe3dd99a	-0.1854004
14	0x3d31ace0	0.043377757
15	0x3ccfea77	0.025380356
16	0xbd955436	-0.072914526
17	0x3da8f4fd	0.08249853
18	0x3e89e232	0.26930386
19	0xbcf85695	-0.030314723
20	0x3e5b9af9	0.21445836
21	0xbe834afb	-0.25643143
22	0xbd915f01	-0.07098199
23	0xbe8225e8	-0.25419545
24	0x3c8a6b7d	0.016896958
25	0x3df0b02d	0.11752353
26	0xbd75fbf7	-0.060054746
27	0x3cd08548	0.025454178
28	0x3e6e86f6	0.23293671
29	0x3e8be6ad	0.2732443
30	0xbd704f58	-0.058669418
31	0xbe4f9d35	-0.20274813
32	0xbe5aabbf	-0.21354578
33	0xbe71122b	-0.23542087
34	0xbe5008d6	-0.2031587
35	0xbe831245	-0.25599876
36	0xbe7d0d13	-0.24712019
37	0xbb7974ae	-0.0038063931
38	0xbdb969ff	-0.0905342
39	0x3e5ff30e	0.21870062
40	0x3d4f24a9	0.05057207
41	0xbe3e577c	-0.1858806
42	0xbab9684a	-0.001414546
43	0xbe14f001	-0.14544679
44	0xbe59213c	-0.21204084
45	0x3e953cb8	0.29147887
46	0x3bbdafb0	0.005788766
47	0xbe4e5f19	-0.20153464
48	0x3e5d830c	0.21632022
49	0x3e6c48bf	0.23074625
50	0xbdd2278c	-0.10261449
51	0xbe5f7f4d	-0.21825905
52	0xbe3ccb7e	-0.18437001
53	0xbb5cdcc3	-0.003370092
54	0xbe667bbf	-0.22508143
55	0xbddcf3c8	-0.10788685
56	0xbe425bdc	-0.18980354
57	0x3e93f032	0.28894192
58	0x3e956d57	0.29184982
59	0xbe2cbb72	-0.1686838
60	0xbec4bc58	-0.38424945
61	0x3e76805b	0.24072401
62	0x3df4eff3	0.11959829
63	0xbe161705	-0.14657219
