models/url_cnn.pt (torch, 351348 bytes, 10 tensors)

weight f4 [128, 64]
0.0 0.0 0.0 0.0 0.0 0.0 0.0 0.0
0.0 0.0 0.0 0.0 0.0 0.0 0.0 0.0
0.0 0.0 0.0 0.0 0.0 0.0 0.0 0.0
0.0 0.0 0.0 0.0 0.0 0.0 0.0 0.0
0.0 0.0 0.0 0.0 0.0 0.0 0.0 0.0
0.0 0.0 0.0 0.0 0.0 0.0 0.0 0.0
0.0 0.0 0.0 0.0 0.0 0.0 0.0 0.0
0.0 0.0 0.0 0.0 0.0 0.0 0.0 0.0
0.18814473 -0.44254377 0.496208 0.39883515 -1.0609866 -0.09346555 2.9996562 -0.5138277
-1.8471583 1.1823035 -1.3802419 -0.68116665 1.1364231 2.7958822 0.15575542 0.8627255
1.3219148 0.21988784 0.024486037 0.09194376 0.031256024 -0.9318338 -0.34064117 2.4008253
0.25654364 2.0335507 -0.5334856 -0.26389906 -0.6097602 0.5957885 -2.1994953 -0.48766452
0.8818428 0.34669697 1.3450937 -1.4259056 -1.8773186 -0.4262539 -0.7838803 0.5283525
-0.66353047 -1.394834 -1.5330069 0.21155354 -0.8407752 -0.76440203 0.17603077 -1.0156446
0.24596268 0.32467616 -0.69911945 1.4790635 -0.32123327 1.8359061 1.7771713 -2.00517
-0.61119723 0.88880825 -0.27006677 0.70625496 0.42907193 0.9482052 -0.48877123 -0.57278216
-0.1188851 0.029112585 1.4116521 1.2480074 0.027902566 0.7376451 -0.35786682 0.23333709
-1.6414657 -1.3211757 -0.32381535 -0.97283137 0.7014606 -0.10233097 -1.6617929 -2.8458164
-0.5814954 -0.49768186 0.17521349 -0.7302043 -0.93725485 -0.9048072 -0.9672418 0.6266213
0.18931279 0.3694369 2.3076043 -0.51196074 0.28790462 -1.1573902 0.5656254 1.2696788
0.02390506 -2.2939312 -1.2601414 -0.1248383 -0.82299507 -0.3312686 0.6602536 -0.7155243
1.0038486 -1.7433637 -1.7513658 -0.1764344 0.61332035 -0.21366027 -0.4172171 -0.45336777
-0.44782066 -1.5101017 1.8359984 0.030725265 0.31726524 0.53597635 0.55764765 0.129448
0.48187226 0.77286303 0.2826037 0.8563955 0.33766308 -0.40963632 -0.26265138 -2.2183146
-0.5757937 1.4912531 -0.2914798 -0.37120816 2.4130158 0.2646983 -0.46330947 -0.5283107
-0.9206931 -0.400515 -0.8848032 0.22656639 -1.3969187 -0.13037266 -0.57742083 1.4331665
-0.64238316 0.46814504 1.509457 0.3449813 -0.23946324 -1.2528712 -0.646895 0.92409927
-0.2749955 1.1715553 -0.6342101 0.17728898 0.7933558 -0.2404439 1.7568893 0.559004
-0.6377695 -2.6272645 0.2494882 0.46757242 0.9404132 -0.77049226 0.8504433 0.23268981
-0.7243437 -1.5987595 1.516547 -0.86593777 0.07053806 1.366471 -0.2136194 0.8427491
1.9239182 -0.16503856 1.3608438 0.05236274 -0.5775704 1.4432312 -1.1271718 -0.74908876
-1.0090237 -0.4890749 -1.8098114 -1.1102247 0.044075694 0.30700296 1.7143179 -1.264229
00000000: 0000 0000 0000 0000 0000 0000 0000 0000
00000010: 0000 0000 0000 0000 0000 0000 0000 0000
00000020: 0000 0000 0000 0000 0000 0000 0000 0000
00000030: 0000 0000 0000 0000 0000 0000 0000 0000
00000040: 0000 0000 0000 0000 0000 0000 0000 0000
00000050: 0000 0000 0000 0000 0000 0000 0000 0000
00000060: 0000 0000 0000 0000 0000 0000 0000 0000
00000070: 0000 0000 0000 0000 0000 0000 0000 0000
00000080: 0000 0000 0000 0000 0000 0000 0000 0000
00000090: 0000 0000 0000 0000 0000 0000 0000 0000
000000a0: 0000 0000 0000 0000 0000 0000 0000 0000
000000b0: 0000 0000 0000 0000 0000 0000 0000 0000
000000c0: 0000 0000 0000 0000 0000 0000 0000 0000
000000d0: 0000 0000 0000 0000 0000 0000 0000 0000
000000e0: 0000 0000 0000 0000 0000 0000 0000 0000
000000f0: 0000 0000 0000 0000 0000 0000 0000 0000
00000100: 03a9 403e 1995 e2be fa0e fe3e 1f34 cc3e
00000110: 69ce 87bf de6a bfbd 5efa 3f40 368a 03bf
00000120: af6f ecbf b955 973f c4ab b0bf f060 2ebf
00000130: 5076 913f bcef 3240 597e 1f3e 94db 5c3f
00000140: 8134 a93f 472a 613e f196 c83c 034d bc3d
00000150: 5106 003d a98c 6ebf 8568 aebe 1fa7 1940
00000160: b059 833e b225 0240 8392 08bf c71d 87be
00000170: 3f19 1cbf 9885 183f 88c4 0cc0 2aaf f9be
00000180: 73c0 613f 4482 b13e 082c ac3f 1384 b6bf
00000190: fa4b f0bf f43d dabe 61ac 48bf 1c42 073f
000001a0: 22dd 29bf ec89 b2bf 9239 c4bf 7ea1 583e
000001b0: 0b3d 57bf daaf 43bf 6941 343e a400 82bf
000001c0: a4dd 7b3e f43b a63e 7ef9 32bf f451 bd3f
000001d0: b078 a4be f9fe ea3f 597a e33f b554 00c0
000001e0: 6c77 1cbf f088 633f 3146 8abe 20cd 343f
000001f0: 51af db3e 93bd 723f 3940 fabe daa1 12bf
00000200: 087a f3bd 847d ee3c 04b1 b43f b5be 9f3f
00000210: ec93 e43c 4fd6 3c3f 523a b7be ebef 6e3e
00000220: 8c1b d2bf 491c a9bf 20cb a5be 7a0b 79bf
00000230: ec92 333f e692 d1bd a1b5 d4bf db21 36c0
00000240: e2dc 14bf 28d0 febe 2a6b 333e abee 3abf
00000250: efef 6fbf 72a1 67bf 299d 77bf 416a 203f
00000260: 36db 413e d526 bd3e caaf 1340 dc0f 03bf
00000270: 3c68 933e 5d25 94bf d4cc 103f d684 a23f
00000280: 8bd4 c33c c5cf 12c0 504c a1bf 39ab ffbd
00000290: ceaf 52bf 0a9c a9be 6106 293f 9a2c 37bf
000002a0: 1c7e 803f 8b26 dfbf c12c e0bf 38ab 34be
000002b0: 9002 1d3f c2c9 5abe 7b9d d5be d21f e8be
000002c0: c048 e5be 034b c1bf ff01 eb3f 8db3 fb3c
000002d0: 9770 a23e bf35 093f ffc1 0e3f 048e 043e
000002e0: f6b7 f63e 5ada 453f 6fb1 903e bc3c 5b3f
000002f0: 2de2 ac3e dabb d1be 3e7a 86be def8 0dc0
00000300: 3767 13bf 62e1 be3f d73c 95be ff0e bebe
00000310: da6e 1a40 8986 873e e636 edbe 5f3f 07bf
00000320: 8bb2 6bbf 4d10 cdbe 7682 62bf 0501 683e
00000330: 3bce b2bf 6980 05be dad1 13bf 0072 b73f
00000340: 3973 24bf b5b0 ef3e e335 c13f 64a1 b03e
00000350: da35 75be 155e a0bf e99a 25bf c591 6c3f
00000360: 36cc 8cbe 86f5 953f 985b 22bf 3e8b 353e
00000370: 5e19 4b3f ed36 76be c0e1 e03f e31a 0f3f
00000380: dd44 23bf 1a25 28c0 d679 7f3e a765 ef3e
00000390: ebbe 703f fb3e 45bf a7b6 593f 3d46 6e3e
000003a0: 976e 39bf 27a4 ccbf 361e c23f 19ae 5dbf
000003b0: 4276 903d 86e8 ae3f 0bbf 5abe 68be 573f
000003c0: f442 f63f deff 28be 2130 ae3f 507a 563d
000003d0: a7db 13bf cdbb b83f 2a47 90bf 48c4 3fbf
000003e0: b027 81bf 0668 fabe e6a7 e7bf d81b 8ebf
000003f0: b788 343d 7e2f 9d3e c56e db3f 42d2 a1bf

weight f4 [64, 64, 3]
0.03683468 -0.036392823 -0.008902636 0.106378466 -0.116278954 -0.023989828 0.05971204 -0.070944905
0.026894137 -0.08229041 0.08060313 0.033085898 0.079343505 0.038210183 0.15291595 0.052755605
-0.1204232 -0.07003912 0.11895062 -0.00377812 0.07212078 -0.017043104 -0.020331422 -0.0034142532
0.12711783 0.075188175 0.05745758 -0.008730957 0.11640758 -0.09670839 0.05059708 0.08548837
-0.053857848 0.04964668 -0.22106187 -0.092091605 -0.03613951 -0.093862556 -0.026781656 -0.0024842448
0.04677143 0.028339094 0.09868581 -0.14929248 -0.07713102 0.037206963 -0.0034483592 0.0029078755
-0.01780366 -0.010267134 -0.040916134 -0.07622317 0.04333493 0.082565755 0.005999244 0.08860114
-0.051217653 0.07751191 -0.017324738 0.008836346 0.20086426 0.104051135 0.030015102 -0.040631283
0.025398284 0.018723337 0.14673649 -0.03497512 0.038859837 0.0010360996 -0.03834692 -0.0071784914
0.10370777 0.111317106 0.016947214 -0.069934115 -0.014323423 -0.11999151 -0.16100457 -0.10365707
-0.12081718 -0.039051622 0.05073724 -0.083715826 0.037342016 -0.015152517 -0.07686466 -0.03044352
0.003145352 -0.08165757 -0.034839798 0.17760842 0.04021218 0.056305934 -0.024458492 -0.098292075
-0.0009763649 0.042604472 0.01456984 -0.073836446 -0.04658043 -0.088695906 -0.01749342 0.120515235
0.11857217 -0.012962493 0.07689183 0.03716518 0.028969701 0.008811658 0.027371516 -0.08772785
0.01634644 0.006052173 0.04541378 -0.16533482 0.11572122 0.2065977 0.08505957 0.08516987
-0.08197751 0.17521665 0.033849474 -0.075173244 0.014779161 0.06398256 0.108330004 0.13416548
0.009762643 0.0505164 -0.06256273 -0.12479134 0.13424873 0.028131574 0.11006706 0.04352306
-0.044741202 0.05830251 0.070738725 -0.0010029675 0.111486025 -0.07700571 0.08881734 -0.060617562
0.124363296 0.010868995 -0.0027013966 -0.14441483 -0.07141614 -0.11847256 0.09908324 -0.03375879
-0.015001204 -0.061776686 -0.022967516 -0.20346175 0.040215176 0.02904507 0.038231317 0.07656193
0.005303457 -0.08494648 0.06267078 -0.008384643 -0.09609333 -0.024226453 0.033720467 0.0871006
0.0064362003 0.071304634 -0.14305946 -0.096247874 0.0721721 -0.119293176 -0.041659664 0.033699315
0.16159806 0.012461163 0.19408236 0.03989415 -0.19660386 0.024066433 -0.05031135 0.0356344
-0.036394767 0.09409334 -0.019068193 0.008902952 -0.1493994 0.028955672 -0.02022094 -0.02289888
-0.058821674 -0.07992411 0.022656573 -0.059100974 -0.035696417 -0.028668547 -0.07665464 0.009653069
0.102544025 0.032447975 0.062207177 -0.031514306 0.04949513 0.058893085 0.06979466 0.02869204
-0.051137637 0.044792626 0.05916884 -0.026732506 -0.14698006 0.155777 0.08222963 0.02170426
0.1617387 0.03026437 -0.0023402087 0.02609167 -0.03475307 0.036788683 -0.048033413 -0.011888813
0.10243732 -0.064154245 -0.06160347 -0.059964787 -0.10216074 0.08273085 -0.044416297 -0.027638773
0.008336888 -0.021196706 0.00474007 0.021612704 -0.0022132318 -0.081070594 -0.04902185 -0.03597285
0.053830918 -0.022713134 0.016453743 -0.016939303 0.035348542 0.07711108 -0.017233476 -0.0142538315
0.039966334 -0.100604154 -0.02270669 -0.066074125 0.024018751 0.067069545 0.05680078 -0.021466315
00000000: f6df 163d a410 15bd 5ddc 11bc f4dc d93d
00000010: a923 eebd 5186 c4bc 9d94 743d 904b 91bd
00000020: 1851 dc3c e087 a8bd 4113 a53d 1485 073d
00000030: d97e a23d 4882 1c3d 0096 1c3e 4316 583d
00000040: 70a0 f6bd ac70 8fbd 629c f33d 569a 77bb
00000050: 0fb4 933d fb9d 8bbc 158e a6bc aac1 5fbb
00000060: 2d2b 023e 42fc 993d a458 6b3d 4a0c 0fbc
00000070: 1967 ee3d 0c0f c6bd e23e 4f3d 8714 af3d
00000080: 0c9a 5cbd 515a 4b3d 0b5e 62be 869a bcbd
00000090: 0607 14bd 033b c0bd 3465 dbbc b6ce 22bb
000000a0: 6693 3f3d 6327 e83c c91b ca3d 21e0 18be
000000b0: def6 9dbd 5466 183d defd 61bb 0e92 3e3b
000000c0: fbd8 91bc 7b37 28bc ad97 27bd e51a 9cbd
000000d0: f87f 313d 3c18 a93d 4e95 c43b 8474 b53d
000000e0: 9ac9 51bd 90be 9e3d 9cec 8dbc 52c6 103c
000000f0: 5caf 4d3e c318 d53d 3be2 f53c fd6c 26bd
00000100: 1010 d03c af61 993c 1742 163e 1242 0fbd
00000110: 7e2b 1f3d bccd 873a a911 1dbd 8d39 ebbb
00000120: bd64 d43d 39fa e33d e2d4 8a3c 9e39 8fbd
00000130: caac 6abc 1cbe f5bd 62de 24be 284a d4bd
00000140: ff6e f7bd 98f4 1fbd dad1 4f3d 3473 abbd
00000150: f1f3 183d 4342 78bc 386b 9dbd b064 f9bc
00000160: 4022 4e3b 163c a7bd 2db4 0ebd fbde 353e
00000170: 87b5 243d 0da1 663d 2d5d c8bc 5b4d c9bd
00000180: bdf2 7fba 0782 2e3d 57b6 6e3c 9037 97bd
00000190: 1fcb 3ebd 33a6 b5bd 5c4e 8fbc b1d0 f63d
000001a0: f7d5 f23d a360 54bc 7779 9d3d 843a 183d
000001b0: de51 ed3c c65e 103c 3b3a e03c a9aa b3bd
000001c0: f8e8 853c 4f51 c63b cd03 3a3d 884d 29be
000001d0: 3fff ec3d 598e 533e b633 ae3d 8a6d ae3d
000001e0: d3e3 a7bd fe6b 333e bfa5 0a3d 6ef4 99bd
000001f0: 4b24 723c 4a09 833d 1fdc dd3d ad62 093e
00000200: 7ef3 1f3c 49ea 4e3d e320 80bd 9a92 ffbd
00000210: 8078 093e 3074 e63c d76a e13d 3c45 323d
00000220: 8d42 37bd 9dce 6e3d 77df 903d 0176 83ba
00000230: c952 e43d 2bb5 9dbd dee5 b53d 1f4a 78bd
00000240: 2fb2 fe3d df13 323c ea09 31bb 7be1 13be
00000250: a042 92bd bea1 f2bd 27ec ca3d a846 0abd
00000260: 9cc7 75bc 8d09 7dbd 5f26 bcbc 4758 50be
00000270: abb8 243d edef ed3c 7198 1c3d 80cc 9c3d
00000280: 9fc8 ad3b 6cf8 adbd 8a59 803d be5f 09bc
00000290: 94cc c4bd 8e76 c6bc 791e 0a3d cd61 b23d
000002a0: c3e6 d23b 2a08 923d 2e7e 12be 9b1d c5bd
000002b0: f7ce 933d fb4f f4bd 53a3 2abd 4b08 0a3d
000002c0: f679 253e e829 4c3c 87bd 463e 0c68 233d
000002d0: 8652 49be f826 c53c 4613 4ebd 60f5 113d
000002e0: ae12 15bd 02b4 c03d e634 9cbc b0dd 113c
000002f0: 28fc 18be 7234 ed3c 62a6 a5bc 6f96 bbbc
00000300: ffee 70bd 40af a3bd 479a b93c dd13 72bd
00000310: 6836 12bd 4dda eabc 1cfd 9cbd e827 1e3c
00000320: 9a02 d23d 2be8 043d f4cc 7e3d 2515 01bd
00000330: 68bb 4a3d e039 713d 81f0 8e3d 920b eb3c
00000340: b375 51bd 7978 373d 075b 723d 21fe dabc
00000350: f181 16be 0284 1f3e 0268 a83d 22cd b13c
00000360: d49e 253e fcec f73c 305e 19bb 33be d53c
00000370: 3c59 0ebd bbaf 163d afbe 44bd 4cc9 42bc
00000380: a8ca d13d 4d63 83bd ec53 7cbd a39d 75bd
00000390: a639 d1bd cb6e a93d dded 35bd b56a e2bc
000003a0: 7197 083c b7a4 adbc 9752 9b3b 200d b13c
000003b0: de0b 11bb 5708 a6bd 23cb 48bd 4458 13bd
000003c0: cf7d 5c3d e510 babc 00ca 863c 4bc4 8abc
000003d0: a2c9 103d 6aec 9d3d 382d 8dbc e788 69bc
000003e0: bdb3 233d 8d09 cebd 6103 babc df51 87bd
000003f0: f9c2 c43c c25b 893d efa7 683d 20da afbc

bias f4 [64]
-0.15197326 -0.1127257 -0.11712778 -0.10088209 -0.15079679 -0.07154085 0.021331428 -0.0036194632
-0.14460005 -0.06695458 -0.062498372 -0.10903422 -0.108032264 0.010759664 -0.10527578 -0.037138373
-0.09096078 -0.09222275 -0.049594726 -0.07861183 -0.080283925 -0.037203826 0.008069977 -0.22347482
-0.042359006 -0.08359459 -0.04218804 -0.10471328 -0.11502602 -0.075476475 -0.029611088 -0.06369289
-0.108789556 -0.071981035 -0.15752338 -0.013690809 -0.15084285 -0.020348117 0.012196698 0.026422385
-0.05247678 -0.16300006 -0.17276911 -0.097822286 -0.11253949 -0.1280275 -0.12882611 -0.08197136
-0.124095015 -0.23587915 -0.042642567 -0.13371846 -0.081913464 -0.09675334 -0.08908852 -0.05042463
-0.09539499 -0.032822967 -0.055173986 -0.13184461 -0.037513554 0.013425927 -0.01725292 -0.08908775
00000000: e19e 1bbe bbdc e6bd b1e0 efbd 459b cebd
00000010: 796a 1abe 0284 92bd 3fbf ae3c 8434 6dbb
00000020: 0912 14be 7c1f 89bd 4bfe 7fbd 554d dfbd
00000030: 0540 ddbd 4d49 303c d49a d7bd 681e 18bd
00000040: a549 babd 48df bcbd d723 4bbd 3dff a0bd
00000050: e66b a4bd 0a63 18bd f037 043c 95d6 64be
00000060: a380 2dbd a433 abbd 5ecd 2cbd eb73 d6bd
00000070: c392 ebbd 6993 9abd f492 f2bc 6b71 82bd
00000080: 0fcd debd cb6a 93bd cf4d 21be 6a4f 60bc
00000090: 8c76 1abe 18b1 a6bc a9d4 473c c273 d83c
000000a0: e4f1 56bd 7de9 26be 63ea 30be 0d57 c8bd
000000b0: 1b7b e6bd a419 03be feea 03be 9ae0 a7bd
000000c0: 8725 febd 4e8a 71be f9a9 2ebd 7eed 08be
000000d0: 3fc2 a7bd 9d26 c6bd 0b74 b6bd 0f8a 4ebd
000000e0: 735e c3bd 6071 06bd 1efe 61bd 4602 07be
000000f0: d0a7 19bd 6bf8 5b3c ff55 8dbc a373 b6bd

weight f4 [64, 64, 5]
-0.04842168 0.23495147 0.1449043 -0.06909083 0.017796611 0.14153637 0.009064197 0.15609823
-0.14596377 -0.018310808 0.003169744 -0.048883256 0.19391315 0.068851985 0.03279509 -0.12958209
-0.03879551 -0.107604675 0.17407028 0.08769569 -0.047652226 0.14992104 0.084927306 -0.029930564
0.15601844 -0.2038375 0.017804902 0.04997239 0.09272112 0.004850593 -0.014513253 0.15542203
0.25934812 -0.048112996 -0.046637658 0.082482554 -0.041426033 -0.047966033 -0.028476272 0.014751436
-0.12340804 -0.0147977015 0.096837245 0.24554849 0.16581269 0.19315639 0.10776885 -0.23368187
-0.021257734 -0.10658505 -0.045316823 -0.15672085 -0.19462514 0.047510564 -0.0056514437 -0.15237488
0.05791612 0.20515054 0.03229736 -0.014729841 0.04950844 -0.25635326 -0.15057522 0.14333735
0.04472715 -0.14846238 0.14344177 0.14192212 -0.075211935 0.0121596 -0.048883747 0.042884693
-0.0848478 -0.054771885 -0.036376655 -0.20621103 0.13494255 0.07392944 0.033160713 0.017078107
0.020977363 -0.13979879 -0.12582868 -0.070918776 -0.10080496 -0.111971155 0.20306733 -0.0070531596
-0.08668559 0.059615303 0.17502354 -0.10856198 -0.012599949 0.08372161 0.0021913128 0.10397082
0.27903795 -0.024694746 0.009361661 -0.07765218 0.11254145 0.022216143 0.089510195 -0.17462954
0.06387055 -0.07821429 -0.03035691 -0.0041367835 0.013161189 -0.13092956 0.12528397 -0.18651563
0.25233248 -0.034266267 0.08741443 0.2551433 -0.29963753 -0.0732622 -0.06646913 0.09747763
-0.093337595 0.24874598 -0.043301623 -0.1962487 -0.14037298 0.18256852 -0.09001651 0.023191668
-0.14312744 0.0074842423 0.1675639 0.039117653 -0.10993292 -0.04458789 0.04376329 0.124543056
0.1144716 -0.0884179 0.038528576 0.09736761 -0.24215066 -0.072947696 -0.09651646 0.0020447692
-0.054078337 0.09300269 0.0600547 -0.20381348 -0.06662523 0.09542364 -0.06389818 -0.097983494
-0.16317414 0.0827574 0.018770432 0.08822106 0.15376152 0.08951757 -0.0048495624 -0.16216692
-0.08544496 0.23860456 -0.08391 0.03304923 0.045228954 -0.056199595 0.05017948 -0.062514395
0.10836338 0.12524138 -0.08142578 -0.12642342 0.26726246 0.073130734 0.06960298 0.06293057
-0.07500174 0.01451328 -0.121234834 0.18729857 0.04076612 0.23418084 -0.1339318 -0.0022516304
0.2759177 0.04049589 -0.0061559617 -0.02678326 -0.08386921 0.059911318 0.016422782 -0.13613608
-0.03524081 -0.119018406 0.034697704 0.064588875 0.24759895 0.026308974 -0.264098 -0.06652313
0.003949851 0.12385391 -0.252587 -0.1587562 0.027859787 -0.20236845 0.14829999 -0.16019131
-0.16247252 -0.060675025 0.10711683 -0.09480369 -0.10383704 0.08336764 0.079480216 -0.08377668
-0.04653312 0.011214346 0.1277216 0.040171545 0.07715617 0.07963567 0.07452356 0.0580264
-0.06808305 0.041385688 -0.07590545 0.20014483 0.0022014289 -0.07793299 0.0063571706 0.19422741
0.025169302 -0.097717546 0.12511289 0.12222769 0.0067667044 -0.13400118 0.14154725 0.06555998
0.022938933 -0.11397561 -0.06554555 -0.033747874 -0.008704714 0.024008753 -0.15640256 0.06335124
0.046042897 -0.15217893 -0.05391757 -0.028995618 0.14551632 0.030939562 0.08133266 0.112986386
00000000: d055 46bd 1e97 703e cb61 143e 7e7f 8dbd
00000010: 33ca 913c e9ee 103e ff81 143c 37d8 1f3e
00000020: 8777 15be 8c00 96bc 7bbb 4f3b cf39 48bd
00000030: 2b91 463e 4502 8d3d 2554 063d 2bb1 04be
00000040: 0ae8 1ebd d75f dcbd 7b3f 323e cc99 b33d
00000050: fb2e 43bd e784 193e 5eee ad3d f130 f5bc
00000060: 4cc3 1f3e c7ba 50be 96db 913c d9af 4c3d
00000070: 92e4 bd3d b9f1 9e3b ffc8 6dbc f426 1f3e
00000080: 47c9 843e 2212 45bd 2107 3fbd 9dec a83d
00000090: 58ae 29bd 0878 44bd 1247 e9bc 02b0 713c
000000a0: 5bbd fcbd 0f72 72bc 9b52 c63d 1071 7b3e
000000b0: cdca 293e caca 453e eab5 dc3d 4d4a 6fbe
000000c0: b324 aebc 4349 dabd 229e 39bd 6e7b 20be
000000d0: d04b 47be 709a 423d bf2f b9bb 2908 1cbe
000000e0: 7439 6d3d fc12 523e 3d4a 043d 6e55 71bc
000000f0: 5dc9 4a3d bc40 83be 6430 1abe 07c7 123e
00000100: d133 373d 8606 18be 66e2 123e 0854 113e
00000110: b708 9abd 0f39 473c 533a 48bd dca7 2f3d
00000120: afc4 adbd 7c58 60bd b0ff 14bd fc28 53be
00000130: 612e 0a3e 5168 973d 87d3 073d 63e7 8b3c
00000140: b8d8 ab3c 6a27 0fbe 3cd9 00be dd3d 91bd
00000150: d572 cebd 2251 e5bd e2f0 4f3e 311e e7bb
00000160: 3788 b1bd 2d2f 743d 5f39 333e be55 debd
00000170: 0470 4ebc 3c76 ab3d 219c 0f3b a7ee d43d
00000180: 10de 8e3e a34c cabc a761 193c 1b08 9fbd
00000190: 227c e63d a1fe b53c 1f51 b73d 16d2 32be
000001a0: 90ce 823d d02e a0bd 0eaf f8bc db8d 87bb
000001b0: 07a2 573c 6612 06be 714a 003e f4fd 3ebe
000001c0: b931 813e c95a 0cbd 5606 b33d 25a2 823e
000001d0: 176a 99be 7e0a 96bd f820 88bd 5aa2 c73d
000001e0: c827 bfbd 44b7 7e3e 0b5d 31bd 6bf5 48be
000001f0: efbd 0fbe 3ef3 3a3e 935a b8bd 74fc bd3c
00000200: 0090 12be 603e f53b df95 2b3e d539 203d
00000210: 8324 e1bd cba1 36bd 2341 333d 6e10 ff3d
00000220: 1670 ea3d 7214 b5bd 24d0 1d3d ab68 c73d
00000230: 58f6 77be 9a65 95bd 6caa c5bd 8901 063b
00000240: 3f81 5dbd 3278 be3d ebfb 753d 7bb4 50be
00000250: cf72 88bd 786d c33d 0ddd 82bd 92ab c8bd
00000260: 1f17 27be b67c a93d 73c4 993c 3ead b43d
00000270: a973 1d3e fd54 b73d 14e9 9ebb 160f 26be
00000280: c4fd aebd c154 743e 02d9 abbd a15e 073d
00000290: ff41 393d 8c31 66bd 0089 4d3d 8c07 80bd
000002a0: 9fed dd3d 473f 003e 8fc2 a6bd 2475 01be
000002b0: a0d6 883e 91c5 953d 028c 8e3d bee1 803d
000002c0: 839a 99bd 1cc9 6d3c f849 f8bd 32cb 3f3e
000002d0: 60fa 263d 1acd 6f3e 6b25 09be 1790 13bb
000002e0: 1645 8d3e 05df 253d f3b7 c9bb 9168 dbbc
000002f0: 9fc3 abbd 9265 753d 1289 863c 4267 0bbe
00000300: ab58 10bd ecbf f3bd 2e1f 0e3d 2c47 843d
00000310: 948a 7d3e eb85 d73c da37 87be 473d 88bd
00000320: c06d 813b 1ea7 fd3d 1553 81be fc90 22be
00000330: 353a e43c ad39 4fbe f4db 173e 3109 24be
00000340: 325f 26be 6086 78bd 1260 db3d 7028 c2bd
00000350: 84a8 d4bd a7bc aa3d 86c6 a23d 1c93 abbd
00000360: 8399 3ebd 60bc 373c 73c9 023e eb8a 243d
00000370: 0e04 9e3d 0718 a33d cf9f 983d 17ad 6d3d
00000380: 206f 8bbd 0a84 293d 5174 9bbd c4f2 4c3e
00000390: d945 103b 559b 9fbd d04f d03b 8de3 463e
000003a0: da2f ce3c 2320 c8bd 981d 003e 8352 fa3d
000003b0: 3bbb dd3b 9b37 09be c3f1 103e 5044 863d
000003c0: 6eea bb3c 0b6c e9bd bf3c 86bd 363b 0abd
000003d0: 379e 0ebc 01ae c43c fe27 20be 4bbe 813d
000003e0: 7a97 3c3d cbd4 1bbe abd8 5cbd 3888 edbc
000003f0: 3b02 153e f774 fd3c bd91 a63d 6865 e73d

bias f4 [64]
0.04587201 0.029622978 -0.1716295 -0.047281865 -0.117842525 -0.053822577 -0.10077023 0.03562646
-0.017515657 -0.05525918 -0.024806712 -0.071675494 -0.007707681 -0.060520787 -0.16114825 -0.06721466
0.00682042 -0.18057351 -0.10442882 -0.1072671 -0.028951593 -0.08529541 -0.11342318 -0.01661003
-0.03161151 -0.043825928 -0.11858085 -0.054164764 -0.12316599 -0.14096437 -0.074466385 -0.11227002
-0.002600044 -0.050639685 -0.057717826 -0.015724381 -0.0018652839 0.023526648 -0.18691476 -0.12054918
-0.001980637 -0.06546728 0.02311559 -0.06173403 -0.07588099 -0.11294978 -0.025647145 -0.0018908842
-0.055482674 -0.058959786 -0.08661067 -0.10190225 -0.14879942 -0.18724303 -0.06306078 -0.10376361
-0.035727747 -0.0151509 -0.057308882 -0.0041279946 -0.077330306 -0.028114995 -0.060595173 -4.204788e-05
00000000: 4ae4 3b3d e3ab f23c a5bf 2fbe a1aa 41bd
00000010: 6c57 f1bd 1075 5cbd 9f60 cebd 0ded 113d
00000020: ff7c 8fbc 7357 62bd 7237 cbbc 9aca 92bd
00000030: b790 fcbb a5e4 77bd 0c04 25be d7a7 89bd
00000040: d47d df3b 43e8 38be c7de d5bd daae dbbd
00000050: e42b edbc 5caf aebd 6a4a e8bd c211 88bc
00000060: 127b 01bd d182 33bd 84da f2bd dfdb 5dbd
00000070: 733e fcbd f758 10be d581 98bd d3ed e5bd
00000080: 8065 2abb 8f6b 4fbd 8769 6cbd 6bd0 80bc
00000090: 8b7c f4ba f5ba c03c 9566 3fbe 7de2 f6bd
000000a0: 93cd 01bb b613 86bd e85c bd3c d2dc 7cbd
000000b0: 7e67 9bbd 3752 e7bd f619 d2bc 8cd7 f7ba
000000c0: cd41 63bd d17f 71bd ef60 b1bd 20b2 d0bd
000000d0: e05e 18be a3bc 3fbe 0326 81bd 0482 d4bd
000000e0: 4257 12bd 7b3b 78bc b8bc 6abd 2144 87bb
000000f0: 5a5f 9ebd 6b51 e6bc a532 78bd 915c 30b8

weight f4 [64, 64, 7]
0.016430292 -0.1256304 0.10197713 -0.019669212 0.0119020995 0.067274556 -0.13663828 -0.025272446
0.0125944335 -0.046215113 -0.10196624 0.03905826 0.06692262 0.036551993 -0.2007726 0.0015384794
-0.11999099 0.014304601 0.038806178 0.062252868 0.029525006 -0.10853046 -0.037581444 -0.029833566
-0.0008788558 0.0001811615 0.06954924 -0.018767525 -0.016167112 0.04988374 -0.1293412 0.07044267
-0.09075043 -0.050258588 0.11394946 0.028693238 0.096600175 0.0398589 -0.07381333 0.13283041
-0.06328846 0.08672354 0.022685204 -0.040851418 0.027090648 -0.06527879 0.026129274 -0.049986083
0.019349175 -0.03855851 -0.012127637 -0.053814944 0.0873568 -0.042905975 0.020477222 -0.050607003
-0.109471746 0.034026086 -0.058648333 0.13682136 -0.11531353 -0.04355912 0.03797621 0.06705625
0.04371696 -0.11675452 0.032026444 -0.025969638 -0.0071077733 0.004640998 -0.090780176 0.030983439
0.1576063 -0.0402168 -0.045051403 -0.024995714 0.09382424 0.09586822 -0.05763492 0.046773743
-0.09616625 0.006911039 0.0034889956 0.10805017 0.03780724 0.07650329 0.0784143 -0.088646114
0.066454336 -0.0838375 0.112759195 -0.24814883 -0.083223626 0.084045686 -0.046503562 -0.16308475
0.06805302 0.057875987 0.13956858 0.016728984 0.08319805 -0.059108224 -0.05389619 0.047097147
-0.043747585 0.0041658147 -0.08173866 0.13340174 -0.10326025 0.032128032 -0.03025588 -0.047848206
-0.1950982 0.07584958 0.06893773 -0.06438594 0.0444212 -0.039856013 -0.012435083 -0.097074874
-0.01269358 0.03314177 0.112933636 -0.0036312274 0.011940049 -0.017380405 -0.1301372 0.018152086
-0.06685426 -0.035542894 0.036009412 0.011119122 -0.0012814931 0.01809317 0.11236295 -0.045217756
-0.020653259 -0.097330004 0.04205777 -0.130732 -0.08566125 0.121256515 -0.07767653 -0.12185077
-0.041582722 0.10095221 -0.07254585 -0.013488712 0.042661022 0.15493031 -0.1349407 0.008006859
0.04213044 0.09270545 0.009003956 -0.02203671 -0.0011214796 0.1566922 0.07396496 0.09747453
0.07162038 -0.119425885 0.09397104 -0.012149743 0.083266765 0.0009968706 0.108817704 0.067135125
-0.021787958 -0.026555952 -0.037141155 -0.11986851 -0.024585051 -0.060506776 -0.008874028 0.022331296
0.0003889063 0.07714596 -0.09854493 0.08126503 -0.09597237 0.0035088111 0.04060527 0.021792447
-0.013706768 0.07603683 0.009012144 -0.0061364085 0.09488984 -0.120390914 0.07098272 -0.045226816
0.0044195824 -0.0027770526 -0.0041867085 0.038090367 0.07253511 -0.07154849 0.014907779 -0.06528754
0.03512685 -0.09379451 -0.067086875 -0.007944811 -0.07622131 -0.093367696 0.09719834 -0.03874308
-0.085478954 -0.10365954 -0.1023223 -0.15839975 0.00076299504 0.071919605 0.014593307 -0.068182684
-0.08832373 0.011835612 0.007881118 -0.08238073 0.027764194 -0.029717045 0.078296356 0.01783976
0.0032099136 0.019756773 -0.017399242 0.139137 -0.045993116 -0.0969789 -0.10349984 -0.14587276
-0.008730553 -0.104174875 0.12513365 0.0397037 0.051593967 0.0054884343 -0.122645594 -0.007911531
-0.05850666 0.09008029 0.008022604 0.01874216 0.0681581 -0.061967965 -0.04570866 -0.034522437
-0.03165977 0.04363156 -0.07721322 0.036852505 0.0061219945 0.10301458 -0.045544297 0.08840647
00000000: d298 863c 41a5 00be 63d9 d03d 5421 a1bc
00000010: 0601 433c 3ec7 893d e8ea 0bbe 2908 cfbc
00000020: e258 4e3c 0f4c 3dbd add3 d0bd 8efb 1f3d
00000030: ba0e 893d 8bb7 153d 5597 4dbe cda6 c93a
00000040: d6bd f5bd d85d 6a3c 3af3 1e3d ddfc 7e3d
00000050: 6dde f13c 3845 debd 00ef 19bd 8665 f4bc
00000060: 0463 66ba 2bf6 3d39 d56f 8e3d 5abe 99bc
00000070: e470 84bc e452 4c3d 0572 04be 3f44 903d
00000080: 5ddb b9bd f3db 4dbd 565e e93d 150e eb3c
00000090: 50d6 c53d 1643 233d 712b 97bd b204 083e
000000a0: 619d 81bd 1d9c b13d 52d6 b93c d153 27bd
000000b0: 35ed dd3c e3b0 85bd 0f0d d63c 35be 4cbd
000000c0: 2982 9e3c 87ef 1dbd ffb2 46bc 0f6d 5cbd
000000d0: 1fe8 b23d 2dbe 2fbd d9bf a73c 4a49 4fbd
000000e0: b932 e0bd f05e 0b3d 3c39 70bd e61a 0c3e
000000f0: 8029 ecbd 0c6b 32bd f18c 1b3d ca54 893d
00000100: 8e10 333d fe1c efbd 292e 033d 47be d4bc
00000110: 53e8 e8bb 8313 983b f5ea b9bd fbd0 fd3c
00000120: 8c63 213e 5fba 24bd d287 38bd d0c3 ccbc
00000130: ec26 c03d 8f56 c43d 9812 6cbd d395 3f3d
00000140: d0f2 c4bd ff75 e23b a2a7 643b 6849 dd3d
00000150: c4db 1a3d c2ad 9c3d ad97 a03d 188c b5bd
00000160: 3619 883d ffb2 abbd 4bee e63d ba1a 7ebe
00000170: 2671 aabd 2520 ac3d 857a 3ebd b0ff 26be
00000180: 625f 8b3d 5f0f 6d3d 11eb 0e3e 390b 893c
00000190: bd63 aa3d 771b 72bd 40c2 5cbd f0e8 403d
000001a0: ab30 33bd 6381 883b 9966 a7bd 779a 083e
000001b0: 1c7a d3bd af98 033d 2edb f7bc 7bfc 43bd
000001c0: d3c7 47be 0657 9b3d 392f 8d3d c7dc 83bd
000001d0: 01f3 353d 0f40 23bd 85bc 4bbc 31cf c6bd
000001e0: bcf8 4fbc aabf 073d c049 e73d e3f9 6dbb
000001f0: 32a0 433c 5a61 8ebc b042 05be afb3 943c
00000200: e3ea 88bd 6d95 11bd 9b7e 133d fa2c 363c
00000210: c6f7 a7ba 2138 943c 8c1e e63d 4136 39bd
00000220: 0631 a9bc f454 c7bd c544 2c3d 9cde 05be
00000230: 2a6f afbd 5655 f83d df14 9fbd e68c f9bd
00000240: a552 2abd 08c0 ce3d eb92 94bd c2ff 5cbc
00000250: 53bd 2e3d 0da6 1e3e e52d 0abe 332f 033c
00000260: f890 2c3d 5bdc bd3d 5485 133c 5586 b4bc
00000270: 9cfe 92ba ec73 203e f17a 973d baa0 c73d
00000280: b5ad 923d 8f95 f4bd e373 c03d b70f 47bc
00000290: c487 aa3d 6da9 823a d1db de3d 247e 893d
000002a0: a97c b2bc de8b d9bc 5321 18bd 9f7d f5bd
000002b0: 9766 c9bc f4d5 77bd 5f64 11bc 1ff0 b63c
000002c0: 1fe6 cb39 b3fe 9d3d edd1 c9bd 486e a63d
000002d0: 298d c4bd 15f4 653b b651 263d 1386 b23c
000002e0: 5a92 60bc 33b9 9b3d aca7 133c ed13 c9bb
000002f0: 9b55 c23d 838f f6bd 635f 913d c13f 39bd
00000300: 25d2 903b 36ff 35bb a830 89bb a504 1c3d
00000310: 4a8d 943d 0488 92bd c23f 743c 79b5 85bd
00000320: 2ce1 0f3d 5617 c0bd d864 89bd f42a 02bc
00000330: eb19 9cbd 9037 bfbd ec0f c73d 10b1 1ebd
00000340: 970f afbd 744b d4bd 5b8e d1bd 8b33 22be
00000350: bb03 483a 964a 933d c418 6f3c 5da3 8bbd
00000360: 12e3 b4bd 28ea 413c ce1f 013c 3ab7 a8bd
00000370: bc71 e33c 2971 f3bc d759 a03d b024 923c
00000380: 6a5d 523b f5d8 a13c db88 8ebc ee79 0e3e
00000390: 4763 3cbd e09c c6bd b9f7 d3bd ab5f 15be
000003a0: 980a 0fbc a359 d5bd 0923 003e 59a0 223d
000003b0: 3254 533d 53d8 b33b 9d2d fbbd 5e9f 01bc
000003c0: aea4 6fbd 047c b83d 3d71 033c 2989 993c
000003d0: 7996 8b3d 1fd2 7dbd 0139 3bbd 6667 0dbd
000003e0: adad 01bd 02b7 323d f721 9ebd a7f2 163d
000003f0: 039b c83b 4ff9 d23d a88c 3abd 740e b53d

bias f4 [64]
-0.053850036 -0.022476219 -0.005952476 -0.11360097 -0.05427598 -0.029089523 -0.011616971 -0.09662236
-0.059277028 -0.024093756 -0.11465018 -0.052969184 -0.091203876 -0.046014633 -0.054585602 -0.040650684
0.0095133325 0.01214576 -0.1072586 -0.04780045 -0.043719996 -0.04464106 -0.0023690215 -0.042053863
-0.08709817 -0.016184885 -0.15977366 -0.00870341 -0.049224395 -0.05057848 -0.06657522 -0.09273502
-0.085654445 -0.119764425 0.033732083 -0.051328152 -0.019109255 -0.036571793 -0.049546454 -0.050980303
-0.06740748 -0.04311374 -0.030208433 -0.12163679 -0.06470677 -0.029558761 -0.04332016 -0.009986868
-0.00091625156 0.037680704 -0.00939031 -0.04587074 -0.064491 -0.053354498 -0.060790855 -0.06728769
-0.07117507 -0.06560296 -0.058107313 -0.08231924 -0.06991917 -0.04977563 0.031316224 0.03078354
00000000: db91 5cbd 0c20 b8bc fd0c c3bb a0a7 e8bd
00000010: 7d50 5ebd 274d eebc 1c55 3ebc f2e1 c5bd
00000020: 78cc 72bd 4560 c5bc b7cd eabd 37f6 58bd
00000030: 19c9 babd d779 3cbd 2795 5fbd 5581 26bd
00000040: cfdd 1b3c 02ff 463c 66aa dbbd 68ca 43bd
00000050: bd13 33bd 8bd9 36bd 9641 1bbb ac40 2cbd
00000060: 8660 b2bd 2a96 84bc b59b 23be bf98 0ebc
00000070: 859f 49bd 612b 4fbd 9758 88bd dceb bdbd
00000080: 996b afbd 0d47 f5bd a72a 0a3d 783d 52bd
00000090: 038b 9cbc 4ecc 15bd 39f1 4abd b9d0 50bd
000000a0: ef0c 8abd 0898 30bd ad77 f7bc b61c f9bd
000000b0: fc84 84bd 3725 f2bc 7b70 31bd f69f 23bc
000000c0: 9a30 70ba 1557 1a3d d1d9 19bc f5e2 3bbd
000000d0: db13 84bd 3f8a 5abd d5ff 78bd 21ce 89bd
000000e0: 3cc4 91bd d85a 86bd ef01 6ebd fd96 a8bd
000000f0: c831 8fbd 88e1 4bbd 7145 003d c32d fc3c

weight f4 [64, 192]
-0.03465715 -0.08867222 0.009372332 -0.056485165 0.053561322 0.012117053 0.15745896 0.07194225
-0.06546972 -0.047055963 0.13938636 -0.022429004 0.066735454 0.067531325 -0.07663463 0.01580031
0.048848 0.021019747 0.026210118 -0.062431466 0.14364353 -0.07973108 0.05766449 0.027258852
-0.032895643 0.077689946 -0.017032683 -0.03394158 -0.05349233 0.047012795 -0.06376005 -0.13797927
-0.11489623 0.086727165 0.0037826863 -0.020583581 -0.026292084 -0.0004657781 0.030357877 0.021606106
0.03500064 0.033701062 0.0114247985 -0.065558344 -0.04143733 -0.013157151 -0.038585592 -0.021328231
-0.11284077 -0.020898731 0.060698386 -0.16267696 -0.07605266 0.072310664 0.021311007 0.107962765
0.03951794 0.020628963 0.041204177 0.003923062 -0.033270817 0.09649689 0.037650425 -0.011313455
0.16806908 0.08111972 0.015694043 0.015723944 -0.08424389 0.17640957 0.022292417 0.12150469
0.046928864 -0.025314491 0.1421465 0.12082781 0.14129137 0.033535015 -0.025491744 -0.035958882
0.14547789 0.11638621 -0.017500816 -0.023492126 0.029210918 0.003633775 -0.0294628 0.04944168
0.1654027 -0.008533665 -0.004541953 0.14531386 -0.055019118 0.09329491 -0.124382034 0.038686417
0.06809903 0.047300808 -0.007472372 0.09008254 0.082530946 0.13197057 0.04110257 -0.03875395
0.117524594 -0.015904872 0.09900718 -0.122500874 -0.011871017 -0.06304085 -0.1052317 0.11259437
0.020083373 0.084858835 0.05890601 0.006479362 -0.026241371 -0.047585513 -0.13360026 -0.07413647
0.065835185 0.20216191 -0.08426656 0.09703072 0.020320116 -0.036484342 0.11363027 0.1774867
-0.061422158 0.10983144 0.0451683 -0.08058544 0.20168263 0.19557235 0.062315688 -0.110921554
-0.09238674 0.02087077 -0.0074845552 -0.12944531 -0.052966345 -0.04025401 -0.15473151 0.0373245
0.07626089 0.10906942 -0.005689741 -0.13408695 0.16361368 0.16335891 0.15734215 -0.07652858
-0.11349025 -0.12355993 -0.06572676 0.09513854 0.26595736 -0.069906175 0.060737956 -0.069473475
-0.12456699 -0.0001723668 0.14060882 -0.14570262 0.030955642 -0.043038975 -0.14142573 0.017368155
-0.09079687 0.018569527 0.09017005 0.011553551 -0.09209903 -0.1304977 0.20296632 0.030620541
-0.008895887 0.11432201 0.10098712 -0.10594005 -0.13920127 -0.06492094 -0.08326055 -0.09330143
-0.09720716 0.014827445 0.14741737 -0.0056641023 -0.020872306 -0.108596094 0.18416397 0.10196963
-0.048492815 -0.08663989 -0.014623602 -0.084754854 -0.07698717 -0.08676427 0.05161932 -0.010339569
-0.08840917 0.04542503 -0.060183473 0.055143345 -0.002201572 0.06244557 -0.027235614 -0.0415678
0.012715863 -0.03557508 -0.030907817 0.03591782 0.0003104552 -0.0124229565 -0.051631093 -0.037971206
0.036606688 0.05761076 -0.025142595 0.04114689 -0.087203205 -0.05737624 -0.089877285 -0.034030512
-0.0054099606 0.027612919 0.056860678 0.0029986922 -0.039849315 0.059296623 0.034537546 -0.014281048
-0.03932076 0.029933162 -0.0727754 -0.028711326 -0.06269736 -0.05433681 0.021263601 -0.050495625
0.049538158 -0.051380273 -0.020986116 -0.003751238 0.016488584 -0.005214493 -0.06707472 -0.042581953
0.0130987195 -0.056079157 0.03294195 -0.01970284 0.021758614 0.018287737 -0.042676713 -0.07187446
00000000: a8f4 0dbd c899 b5bd 698e 193c fd5c 67bd
00000010: 1e63 5b3d 9b86 463c ec3c 213e 7556 933d
00000020: fd14 86bd c1bd 40bd 4cbb 0e3e 08bd b7bc
00000030: 99ac 883d dd4d 8a3d 9ef2 9cbd a76f 813c
00000040: d714 483d 9b31 ac3c 9ab6 d63c 23b8 7fbd
00000050: 4a17 133e 0c4a a3bd 9a31 6c3d f54d df3c
00000060: 95bd 06bd e81b 9f3d 2088 8bbc 5406 0bbd
00000070: c61a 5bbd 7d90 403d a194 82bd 704a 0dbe
00000080: b74e ebbd 039e b13d f2e6 773b e69e a8bc
00000090: 7f62 d7bc ae33 f4b9 15b1 f83c 4aff b03c
000000a0: d55c 0f3d 200a 0a3d 142f 3b3c 7443 86bd
000000b0: 31ba 29bd 1791 57bc ed0b 1ebd 8bb8 aebc
000000c0: 1019 e7bd d133 abbc df9e 783d ca94 26be
000000d0: 7fc1 9bbd 9d17 943d 6c94 ae3c 951b dd3d
000000e0: 90dd 213d 12fe a83c b6c5 283d 078d 803b
000000f0: fb46 08bd 29a0 c53d 5537 1a3d 125c 39bc
00000100: 4d1a 2c3e 1922 a63d cb90 803c 80cf 803c
00000110: 1088 acbd b6a4 343e 969e b63c 73d7 f83d
00000120: 7b38 403d 5660 cfbc da8e 113e 9274 f73d
00000130: afae 103e 035c 093d 10d4 d0bc 9f49 13bd
00000140: 28f8 143e e55b ee3d df5d 8fbc 8f72 c0bc
00000150: bc4b ef3c a124 6e3b f85b f1bc 5c83 4a3d
00000160: 535f 293e c9d0 0bbc aad4 94bb 28cd 143e
00000170: ba5b 61bd 6711 bf3d 02bc febd a675 1e3d
00000180: 8177 8b3d 7ebe 413d cdda f4bb 327d b83d
00000190: fc05 a93d 4b23 073e 2b5b 283d 76bc 1ebd
000001a0: bcb0 f03d ef4a 82bc 47c4 ca3d bde1 fabd
000001b0: a77e 42bc 901b 81bd b883 d7bd e197 e63d
000001c0: e385 a43c 78ca ad3d 6e47 713d d450 d43b
000001d0: 25f8 d6bc 07e9 42bd 82ce 08be ddd4 97bd
000001e0: 99d4 863d 8803 4f3e f293 acbd 0bb8 c63d
000001f0: 5f76 a63c 9b70 15bd fdb6 e83d 13bf 353e
00000200: cd95 7bbd 4eef e03d 6502 393d fb09 a5bd
00000210: e485 4e3e 1e44 483e bc3e 7f3d d72a e3bd
00000220: 4235 bdbd 2df9 aa3c 0041 f5bb 508d 04be
00000230: 3df3 58bd 64e1 24bd f071 1ebe 93e1 183d
00000240: ab2e 9c3d ca5f df3d 0271 babb 174e 09be
00000250: 588a 273e 8f47 273e 4d1e 213e 04bb 9cbd
00000260: 946d e8bd fd0c fdbd c09b 86bd ffd7 c23d
00000270: 902b 883e f82a 8fbd 5dc8 783d 1c48 8ebd
00000280: fa1c ffbd 5cbd 34b9 c2fb 0f3e 1133 15be
00000290: b096 fd3c a349 30bd e8d1 10be a947 8e3c
000002a0: b6f3 b9bd 1f1f 983c 13ab b83d 1b4b 3d3c
000002b0: 6b9e bcbd 30a1 05be 67d6 4f3e eed7 fa3c
000002c0: 0ec0 11bc a821 ea3d 56d2 ce3d 19f7 d8bd
000002d0: c78a 0ebe 45f5 84bd 8284 aabd d214 bfbd
000002e0: 8c14 c7bd d0ee 723c 94f4 163e ef99 b9bb
000002f0: 66fc aabc a167 debd 7b95 3c3e 74d5 d03d
00000300: 67a0 46bd 4170 b1bd d597 6fbc f493 adbd
00000310: 73ab 9dbd 77b1 b1bd c86e 533d 4c67 29bc
00000320: de0f b5bd 990f 3a3d f282 76bd fddd 613d
00000330: 4048 10bb edc6 7f3d 391d dfbc ff42 2abd
00000340: 3256 503c 2db7 11bd 6432 fdbc 901e 133d
00000350: 97c4 a239 a889 4bbc 207b 53bd b287 1bbd
00000360: e5f0 153d 43f9 6b3d d8f7 cdbc a489 283d
00000370: 9897 b2bd 5903 6bbd 9511 b8bd 9463 0bbd
00000380: 0a46 b1bb 7d34 e23c bee6 683d b585 443b
00000390: 0939 23bd 04e1 723d 3e77 0d3d 0ffb 69bc
000003a0: ce0e 21bd 6436 f53c 450b 95bd 0434 ebbc
000003b0: 7967 80bd 4690 5ebd 0131 ae3c 80d4 4ebd
000003c0: 86e8 4a3d 1f74 52bd 13eb abbc 55d7 75bb
000003d0: 1113 873c 56de aabb 795e 89bd 6a6a 2ebd
000003e0: 039c 563c 42b3 65bd 23ee 063d da67 a1bc
000003f0: 1f3f b23c 2ad0 953c c7cd 2ebd eb32 93bd

bias f4 [64]
-0.00058067957 -0.06280982 -0.069239505 0.020300355 -0.025531393 0.019417282 -0.022592794 0.028620077
-0.0053091794 -0.061523296 -0.07584399 0.01793267 -0.015021907 0.0038373617 -0.062791415 0.018505247
0.03776052 -0.033580173 0.0040246006 -0.039782662 -0.015297158 0.0033454974 0.06750585 0.045257874
0.03740645 0.05717567 -0.06473196 -0.060665525 0.022469807 -0.021235364 -0.024827573 0.016654339
0.002635425 -0.053158216 0.036069896 -0.03956938 0.05010005 0.06883071 -0.031142406 0.0020996495
-0.06763684 0.019359343 -0.07098464 0.066419214 0.006116195 0.048232887 0.009241208 0.0018983743
-0.04122821 -0.08952127 0.02670969 0.03396619 0.04208831 -0.007833761 0.03432223 -0.010817698
0.058758613 -0.020665977 -0.027699633 -0.050530095 0.028798187 -0.04496278 0.020693975 0.0049406206
00000000: bf38 18ba 6fa2 80bd 71cd 8dbd ee4c a63c
00000010: 3627 d1bc fe10 9f3c 8614 b9bc a774 ea3c
00000020: a0f8 adbb daff 7bbd 1854 9bbd 89e7 923c
00000030: 721e 76bc 3f7c 7b3b c998 80bd 5198 973c
00000040: c6aa 1a3d 5d8b 09bd cce0 833b 25f3 22bd
00000050: eea0 7abc 2240 5b3b 8240 8a3d 5260 393d
00000060: 8137 193d 0931 6a3d 3192 84bd 6a7c 78bd
00000070: 9a12 b83c c9f5 adbc 3263 cbbc ae6e 883c
00000080: 18b7 2c3b 6ebc 59bd 07be 133d 8113 22bd
00000090: b635 4d3d 1ef7 8c3d 5c1e ffbc 469a 093b
000000a0: 2f85 8abd 7c97 9e3c 6560 91bd cc06 883d
000000b0: 5d6a c83b d98f 453d 7068 173c dfd2 f83a
000000c0: e9de 28bd ed56 b7bd 48ce da3c 2220 0b3d
000000d0: cb64 2c3d 2d59 00bc 7795 0c3d b73c 31bc
000000e0: dfac 703d b24b a9bc 57ea e2bc a5f8 4ebd
000000f0: 2dea eb3c e42a 38bd 6986 a93c eee4 a13b

weight f4 [1, 64]
-0.25542498 -0.010264827 0.18746056 0.28213543 0.25498074 0.011068365 -0.16398641 0.22998914
-0.09991455 -0.20202503 0.112094715 -0.1964011 -0.012166375 -0.18929175 0.043377757 0.025380356
-0.072914526 0.08249853 0.2670692 -0.030314723 0.21851817 -0.26013651 -0.07098199 -0.2627431
0.016896958 0.11752353 -0.060054746 0.025454178 0.23686063 0.2781819 -0.058669418 -0.20752354
-0.21874742 -0.24687624 -0.21487027 -0.26482478 -0.25094023 -0.0038063931 -0.0905342 0.2166191
0.05057207 -0.1859192 -0.001414546 -0.14544679 -0.21814992 0.29018393 0.005788766 -0.20546533
0.23056602 0.23204377 -0.10261449 -0.21825905 -0.19518551 -0.003370092 -0.23119156 -0.10788685
-0.19464578 0.28854224 0.2973683 -0.1686838 -0.38712296 0.2535448 0.11959829 -0.14657219
00000000: 10c7 82be ce2d 28bc a9f5 3f3e 0e74 903e
00000010: d68c 823e 1658 353c 0eec 27be 4682 6b3e
00000020: 00a0 ccbd a6df 4ebe ea91 e53d 5f1d 49be
00000030: 7a55 47bc b2d5 41be e0ac 313d 77ea cf3c
00000040: 3654 95bd fdf4 a83d 4bbd 883e 9556 f8bc
00000050: 3ac3 5f3e 9d30 85be 015f 91bd 4386 86be
00000060: 7d6b 8a3c 2db0 f03d f7fb 75bd 4885 d03c
00000070: 988b 723e dc6d 8e3e 584f 70bd 0d81 54be
00000080: 53ff 5fbe 20cd 7cbe f406 5cbe 1d97 87be
00000090: 3d7b 80be ae74 79bb ff69 b9bd 66d1 5d3e
000000a0: a924 4f3d 9a61 3ebe 4a68 b9ba 01f0 14be
000000b0: b162 5fbe fd92 943e b0af bd3b 8165 52be
000000c0: 8019 6c3e e29c 6d3e 8c27 d2bd 4d7f 5fbe
000000d0: b6de 47be c3dc 5cbb 7bbd 6cbe c8f3 dcbd
000000e0: 3951 47be cfbb 933e a840 983e 72bb 2cbe
000000f0: fb34 c6be a0d0 813e f3ef f43d 0517 16be
