models/url_cnn.pth (torch, 332674 bytes, 10 tensors)

embedding.weight f4 [128, 64]
0.0 0.0 0.0 0.0 0.0 0.0 0.0 0.0
0.0 0.0 0.0 0.0 0.0 0.0 0.0 0.0
0.0 0.0 0.0 0.0 0.0 0.0 0.0 0.0
0.0 0.0 0.0 0.0 0.0 0.0 0.0 0.0
0.0 0.0 0.0 0.0 0.0 0.0 0.0 0.0
0.0 0.0 0.0 0.0 0.0 0.0 0.0 0.0
0.0 0.0 0.0 0.0 0.0 0.0 0.0 0.0
0.0 0.0 0.0 0.0 0.0 0.0 0.0 0.0
0.18706304 0.9740692 -0.7716989 1.32045 0.67431897 0.13558564 0.32663473 -0.49205273
-0.020748861 1.5354925 1.0162371 -0.6316393 -0.43874586 -0.014726976 0.633121 -0.8910752
-0.5451545 -0.19649842 -0.4655906 0.16505784 -2.1027138 -1.7135069 -0.2388536 0.7046037
-0.2546444 0.8374656 -0.25933874 -1.5188551 -0.9054881 -0.1937585 1.4373937 -0.6573709
-1.0072149 0.2743471 1.4392444 -1.8277909 0.42311344 -0.1305601 -1.0172013 1.0153073
0.5924479 0.51944053 -0.04052972 0.6840606 0.75803417 -0.40043965 -0.19874004 -0.022610497
-0.10924309 1.0847753 0.27776387 -0.88340116 -0.879746 1.5025293 0.37802747 -1.3695642
0.8519414 0.8452367 -1.7581537 -1.1384964 1.1739606 -0.03334586 -0.96064675 0.34028253
-0.9247636 -0.32085472 0.011150928 -0.5797619 1.4636979 -1.6079226 0.8733131 0.057743046
0.6503733 1.2898769 0.5678975 -0.30559888 0.11450808 -0.060396288 0.7165237 0.503098
-0.36529803 0.64318717 0.86745214 -0.95658225 -1.3833721 0.37442744 -1.4324696 0.011364639
-1.3004601 0.7682054 -0.8083978 -0.8477512 -1.4821548 0.87715316 -0.21008636 0.20984551
-0.95614284 0.020728938 -0.66452557 0.24745573 0.6521673 -0.2707309 0.8212047 -0.9136924
-0.33894622 -0.5442602 -2.2943118 -0.38849503 0.8354934 1.4340088 1.189607 -0.5158433
-0.77282655 0.64505243 1.0194684 -0.6005875 -0.117180176 -1.1662604 -0.5885363 -0.49267998
-0.6883473 0.27597755 -2.4954526 -0.012437895 -0.36406738 -0.70620245 -0.6463841 0.9262504
1.4762084 0.05511938 1.4758623 0.90870124 1.4813067 -0.59646094 -2.020332 -0.5185539
2.0874574 2.6516173 -0.5876689 -0.33625814 -0.5703845 0.44579402 0.9776441 -0.5317416
0.46025074 -0.91897196 0.1046212 -0.32695192 -0.1957408 -0.43512487 0.71186674 -0.4075081
1.3028493 -0.7679815 -0.84899473 -0.31623083 -0.25147828 0.28664204 1.8008608 -1.8050655
-1.3471543 -1.0262094 -0.0027510885 1.2066594 -0.34280038 1.6879027 0.6797777 -0.49380535
-0.14027348 0.5033439 -1.2769567 1.632079 0.55331403 0.64246315 0.91547 1.0695481
-0.33481845 -0.2330006 0.18221438 0.057672247 -0.27655947 -0.22951032 -0.6167603 1.1947075
0.62795365 0.7763912 -0.07642174 0.74658597 0.014107134 1.5736847 -0.098282665 -0.75224036
00000000: 0000 0000 0000 0000 0000 0000 0000 0000
00000010: 0000 0000 0000 0000 0000 0000 0000 0000
00000020: 0000 0000 0000 0000 0000 0000 0000 0000
00000030: 0000 0000 0000 0000 0000 0000 0000 0000
00000040: 0000 0000 0000 0000 0000 0000 0000 0000
00000050: 0000 0000 0000 0000 0000 0000 0000 0000
00000060: 0000 0000 0000 0000 0000 0000 0000 0000
00000070: 0000 0000 0000 0000 0000 0000 0000 0000
00000080: 0000 0000 0000 0000 0000 0000 0000 0000
00000090: 0000 0000 0000 0000 0000 0000 0000 0000
000000a0: 0000 0000 0000 0000 0000 0000 0000 0000
000000b0: 0000 0000 0000 0000 0000 0000 0000 0000
000000c0: 0000 0000 0000 0000 0000 0000 0000 0000
000000d0: 0000 0000 0000 0000 0000 0000 0000 0000
000000e0: 0000 0000 0000 0000 0000 0000 0000 0000
000000f0: 0000 0000 0000 0000 0000 0000 0000 0000
00000100: 748d 3f3e 995c 793f 0f8e 45bf 8104 a93f
00000110: 2ba0 2c3f f6d6 0a3e ab3c a73e 56ee fbbe
00000120: 84f9 a9bc 058b c43f 0f14 823f 1db3 21bf
00000130: 4ca3 e0be 6a49 71bc 3814 223f 811d 64bf
00000140: 3f8f 0bbf e236 49be e461 eebe ec04 293e
00000150: dd92 06c0 3254 dbbf 0a96 74be e860 343f
00000160: c060 82be 2564 563f 0cc8 84be d869 c2bf
00000170: 11ce 67bf a168 46be 84fc b73f 7649 28bf
00000180: 6bec 80bf 3977 8c3e 2939 b83f 0df5 e9bf
00000190: 53a2 d83e 8cb1 05be a733 82bf 97f5 813f
000001a0: aaaa 173f 0efa 043f 7e02 26bd 981e 2f3f
000001b0: 870e 423f 6d06 cdbe 8282 4bbe a639 b9bc
000001c0: d7ba dfbd ebd9 8a3f 1137 8e3e 9426 62bf
000001d0: 0937 61bf e152 c03f d18c c13e e14d afbf
000001e0: d518 5a3f 6f61 583f 2e0b e1bf 40ba 91bf
000001f0: 5744 963f ab95 08bd f2ec 75bf 8339 ae3e
00000200: 4fbd 6cbf 1247 a4be 62b2 363c 476b 14bf
00000210: 745a bb3f 68d0 cdbf 7391 5f3f f983 6c3d
00000220: dd7e 263f b01a a53f bb61 113f 7577 9cbe
00000230: 3683 ea3d 1962 77bd 196e 373f 08cb 003f
00000240: 5808 bbbe eaa7 243f 5811 5e3f 93e2 74bf
00000250: 5612 b1bf f4b4 bf3e 2a5b b7bf c032 3a3c
00000260: 7a75 a6bf 1ca9 443f 29f3 4ebf 3906 59bf
00000270: 40b7 bdbf 1c8d 603f e120 57be bee1 563e
00000280: c7c5 74bf bccf a93c 591e 2abf 0965 7d3e
00000290: 70f4 263f 3e9d 8abe 793a 523f bfe7 69bf
000002a0: 5c8a adbe a354 0bbf 01d6 12c0 d2e8 c6be
000002b0: e5e2 553f 9a8d b73f 0b45 983f 4e0e 04bf
000002c0: f6d7 45bf 2822 253f f17d 823f 1ac0 19bf
000002d0: 29fc efbd 0548 95bf 51aa 16bf 8d40 fcbe
000002e0: 8737 30bf ee4c 8d3e 7fb5 1fc0 50c8 4bbc
000002f0: 0a67 babe afc9 34bf 6e79 25bf bf1e 6d3f
00000300: 66f4 bc3f dcc4 613d 0ee9 bc3f a5a0 683f
00000310: 759b bd3f aab1 18bf 1f4d 01c0 f3bf 04bf
00000320: e798 0540 19b4 2940 7871 16bf 072a acbe
00000330: b804 12bf 1d3f e43e e246 7a3f 3820 08bf
00000340: fca5 eb3e bf41 6bbf a443 d63d 3e66 a7be
00000350: 4770 48be b0c8 debe e63c 363f e7a4 d0be
00000360: c4c3 a63f 709a 44bf b857 59bf 02e9 a1be
00000370: c3c1 80be bfc2 923e 9b82 e63f 630c e7bf
00000380: 8d6f acbf d45a 83bf 9b4b 34bb d173 9a3f
00000390: 8883 afbe 320d d83f e905 2e3f 0ed4 fcbe
000003a0: daa3 0fbe 25db 003f 5173 a3bf f7e7 d03f
000003b0: fda5 0d3f 7778 243f 3e5c 6a3f f4e6 883f
000003c0: 536d abbe b697 6ebe 6896 3a3e bc39 6c3d
000003d0: 3499 8dbe c104 6bbe 01e4 1dbf 2dec 983f
000003e0: 92c1 203f 93c1 463f 0083 9cbd 4220 3f3f
000003f0: 9c21 673c 806e c93f 6c48 c9bd d392 40bf

convs.0.weight f4 [64, 64, 3]
0.022326365 -0.12181583 -0.1537153 0.031909604 0.08669486 0.08475862 -0.03249082 -0.26721874
0.30091658 0.14499947 0.07776242 0.20656592 -0.15614389 0.019213803 -0.044630516 0.30345246
-0.23387821 -0.20534565 -0.117492266 -0.16479363 -0.09422512 -0.058159266 -0.12902135 0.1283492
-0.06798384 0.06948607 0.07662379 -0.006516551 -0.12964122 0.17149514 -0.03384956 0.07023032
-0.14220925 0.09702068 0.043947063 0.006367393 -0.0686873 0.010284765 -0.1883273 -0.14925516
-0.054877408 0.18150431 -0.17094369 -0.082180455 0.22661744 0.01980799 -0.1275429 -0.12239472
-0.1846892 0.18225025 -0.15482362 -0.0860051 0.13106081 -0.013824163 -0.19508204 -0.18929198
-0.115228064 -0.26307207 -0.07307819 -0.05381118 -0.10533067 -0.10498574 0.022350399 -0.30171373
-0.10145808 -0.024524506 -0.0024771232 -0.23911771 -0.22903478 -0.028734509 -0.038372282 0.06712009
0.22840641 0.012416301 0.083899684 0.1731395 0.052076794 0.25631517 0.031430677 -0.27217558
-0.027897812 0.07558447 -0.12479607 0.052970324 -0.2235488 -0.16416591 -0.11863533 -0.10677284
-0.21924889 -0.058796063 -0.22028401 -0.4054593 0.012120127 0.14493175 -0.1416999 -0.17916623
0.17023018 0.15873608 0.036249217 0.19703715 -0.42500892 -0.15309659 -0.041667532 0.008346612
-0.01378924 0.068667896 -0.06717192 -0.047909874 0.07148066 -0.073968746 0.052067786 -0.0096910475
0.1320493 0.16790976 0.11490845 0.2847224 -0.103094734 -0.124687366 0.17408155 0.12588264
0.026268316 0.1533651 0.071793936 0.14415905 -0.03900529 -0.11134185 0.031511217 -0.08234438
-0.1171211 0.17109093 -0.23623599 -0.0021685038 -0.0035286474 -0.0038044555 0.2399693 0.087340906
0.08238517 0.06513831 -0.19686687 -0.12681381 -0.118471086 -0.11169252 0.09255179 0.011765196
-0.041212164 0.48434925 -0.05500996 0.1331984 0.12880744 -0.17409486 0.05967738 0.3936695
0.25764564 0.13440654 -0.115447946 -0.1963577 -0.24594818 -0.007560912 0.18541703 0.15119822
-0.136223 0.2368913 -0.19189234 -0.26918444 -0.05158991 0.08219179 0.08846066 0.0015590524
0.061175287 -0.21869804 -0.07800927 -0.17872603 0.013785919 -0.12736292 -0.37167943 -0.11014755
-0.29609972 0.16535442 -0.08547104 0.37966323 0.10952718 0.20141663 0.0038827376 -0.049777657
-0.15771721 -0.061489884 -0.066991694 -0.06738993 -0.27235967 0.0824283 -0.057449155 0.058852393
0.2107335 0.0691043 0.17317864 -0.05134102 0.12006057 -0.051382083 0.095622554 -0.10009506
-0.04390874 -0.0656286 -0.11263928 -0.31449434 0.1126354 -0.11223584 -0.004877276 0.0019235762
0.073628314 -0.16257891 -0.09182803 -0.26301122 0.020731123 -0.021068534 0.11332438 0.1626022
-0.17906325 0.041047838 0.112120524 -0.31403312 -0.03705805 0.076847985 0.0008247961 -0.25263396
-0.0650654 0.08813485 -0.05928544 -0.08117459 0.06640767 0.111327924 -0.052952923 -0.11483366
-0.0072608064 -0.09751221 0.040623087 0.007783306 0.09071157 0.100031175 -0.24393184 -0.17152658
-0.12134712 -0.0768993 -0.19249189 0.15586878 0.07591608 0.044613436 0.21541771 -0.13798694
-0.053007647 0.01845301 0.09260528 0.15175407 0.09080234 0.017191378 -0.108295195 -0.1784459
00000000: c8e5 b63c 947a f9bd 8b67 1dbe a5b3 023d
00000010: 138d b13d ed95 ad3d 1815 05bd e5d0 88be
00000020: bd11 9a3e be7a 143e e741 9f3d 0486 533e
00000030: 2fe4 1fbe 4466 9d3c 7dce 36bd 1f5e 9b3e
00000040: c57d 6fbe 2146 52be c99f f0bd a9bf 28be
00000050: 1af9 c0bd 6938 6ebd 2c1e 04be f96d 033e
00000060: 1d3b 8bbd b64e 8e3d efec 9c3d cb88 d5bb
00000070: abc0 04be 6c9c 2f3e d6a5 0abd ead4 8f3d
00000080: 4d9f 11be c7b2 c63d d601 343d 90a5 d03b
00000090: edab 8cbd 6e81 283c dfd8 40be 58d6 18be
000000a0: 22c7 60bd 44dc 393e dd0b 2fbe 3a4e a8bd
000000b0: 670e 683e 5e44 a23c 9b9a 02be 15aa fabd
000000c0: 2a1f 3dbe cf9f 3a3e 158a 1ebe 7123 b0bd
000000d0: ce34 063e be7e 62bc 96c3 47be c2d5 41be
000000e0: b1fc ebbd 62b1 86be 05aa 95bd 1d69 5cbd
000000f0: 9bb7 d7bd c302 d7bd 2f18 b73c 397a 9abe
00000100: 41c9 cfbd 9ee7 c8bc 3b57 22bb 46db 74be
00000110: 1888 6abe a264 ebbc 412c 1dbd 4276 893d
00000120: 5fe3 693e be6d 4b3c 99d3 ab3d 7b4b 313e
00000130: 7a4e 553d be3b 833e 74bd 003d 995a 8bbe
00000140: f489 e4bc 08cc 9a3d 1595 ffbd 69f7 583d
00000150: fae9 64be 1c1b 28be 14f7 f2bd b8ab dabd
00000160: c882 60be 24d4 70bd 2292 61be 5d98 cfbe
00000170: 7f93 463c fd68 143e c719 11be 5a77 37be
00000180: d250 2e3e b68b 223e 0f7a 143d 1bc4 493e
00000190: c59a d9be 5ac5 1cbe 93ab 2abd 3ac0 083c
000001a0: 44ec 61bc c1a1 8c3d 6e91 89bd 253d 44bd
000001b0: 7464 923d ed7c 97bd 0845 553d 33c7 1ebc
000001c0: ef37 073e 89f0 2b3e 1f55 eb3d 22c7 913e
000001d0: 5523 d3bd 175c ffbd 6f42 323e 61e7 003e
000001e0: a730 d73c be0b 1d3e b308 933d 6e9e 133e
000001f0: 03c4 1fbd 3207 e4bd e811 013d 2ca4 a8bd
00000200: 30dd efbd 7632 2f3e d9e7 71be 751d 0ebb
00000210: e140 67bb 2c54 79bb 83ba 753e cadf b23d
00000220: 8eb9 a83d 3c67 853d 7897 49be 7bdb 01be
00000230: f8a0 f2bd 0cbf e4bd cb8b bd3d cfc2 403c
00000240: 16ce 28bd a0fc f73e 2052 61bd 2965 083e
00000250: 19e6 033e ec45 32be 4570 743d 0c8f c93e
00000260: 21ea 833e dea1 093e f96f ecbd fe11 49be
00000270: d7d9 7bbe 87c1 f7bb f6dd 3d3e b5d3 1a3e
00000280: 0b7e 0bbe a293 723e 6d7f 44be 8bd2 89be
00000290: f14f 53bd 2b54 a83d dd2a b53d 1e59 cc3a
000002a0: f092 7a3d 61f2 5fbe 53c3 9fbd f503 37be
000002b0: 56de 613c 6d6b 02be c44c bebe 0a95 e1bd
000002c0: 629a 97be ab52 293e 710b afbd 3863 c23e
000002d0: c94f e03d 2940 4e3e 8775 7e3b a8e3 4bbd
000002e0: 9f80 21be d1dc 7bbd f132 89bd bb03 8abd
000002f0: ba72 8bbe 2bd0 a83d ce4f 6bbd 350f 713d
00000300: 86ca 573e 8e86 8d3d be55 313e f64a 52bd
00000310: 51e2 f53d 0576 52bd c2d5 c33d a4fe ccbd
00000320: a7d9 33bd 4a68 86bd 6caf e6bd 6705 a1be
00000330: 63ad e63d e7db e5bd 8ed1 9fbb 8220 fc3a
00000340: 71ca 963d 167b 26be 5610 bcbd 68a9 86be
00000350: 51d4 a93c eb97 acbc 9d16 e83d 3181 263e
00000360: 5b5c 37be c721 283d 729f e53d f3c8 a0be
00000370: 2fca 17bd 7a62 9d3d 2137 583a 3d59 81be
00000380: 0241 85bd 0b80 b43d 4ad5 72bd dd3e a6bd
00000390: bf00 883d e5ff e33d 2ae5 58bd e92d ebbd
000003a0: 0fec edbb 7bb4 c7bd 6564 263d 1a0b ff3b
000003b0: fdc6 b93d 25dd cc3d 45c9 79be aaa4 2fbe
000003c0: d784 f8bd 617d 9dbd 981c 45be 119c 1f3e
000003d0: e479 9b3d 94bc 363d 7696 5c3e 734c 0dbe
000003e0: 8c1e 59bd c42a 973c d6a7 bd3d 6b65 1b3e
000003f0: 94f6 b93d efd4 8c3c dfc9 ddbd 86ba 36be

convs.0.bias f4 [64]
-0.27850232 -0.17790917 -0.124061525 -0.09527133 -0.15125628 -0.14528085 -0.34379333 -0.34766006
-0.22778021 -0.21810825 -0.2894066 -0.36722496 -0.15942398 -0.16689363 -0.23281379 -0.089170404
-0.2251555 -0.13155043 -0.33927682 -0.13909625 -0.34481966 -0.37300253 -0.23032905 -0.17610033
-0.29261288 -0.2187741 -0.28433335 -0.2082439 -0.18957728 -0.16441959 -0.22093315 -0.18424067
-0.2671219 -0.46245795 -0.3785751 -0.18139833 -0.018907756 -0.1334009 -0.17901216 -0.0929078
-0.047216322 -0.28608987 -0.21246697 -0.40652302 -0.2287003 -0.32349628 -0.19094744 -0.19865832
-0.26002863 -0.20868859 -0.20227626 -0.1453715 -0.31775364 -0.195374 -0.2224262 -0.3934969
-0.1615993 -0.20195428 -0.27173164 -0.50879085 -0.42421436 -0.22810967 -0.32105947 -0.42845157
00000000: db97 8ebe d22d 36be f813 febd 9d1d c3bd
00000010: ede2 1abe 81c4 14be ae05 b0be 8000 b2be
00000020: 373f 69be c557 5fbe 1a2d 94be e904 bcbe
00000030: 0a40 23be 2ae6 2abe bd66 6ebe f99e b6bd
00000040: 2a8f 66be 28b5 06be b1b5 adbe 3f6f 0ebe
00000050: 348c b0be 30fa bebe 61db 6bbe a553 34be
00000060: 5bd1 95be 5106 60be 2494 91be e43d 55be
00000070: 8c20 42be 9c5d 28be 4d3c 62be 96a9 3cbe
00000080: 34c4 88be 4ac7 ecbe 98d4 c1be 7cc0 39be
00000090: 70e4 9abc 3f9a 08be f74e 37be 7246 bebd
000000a0: e765 41bd 5f7a 92be f190 59be c923 d0be
000000b0: 6930 6abe 4ea1 a5be ba87 43be 166d 4bbe
000000c0: 7922 85be 76b2 55be 8221 4fbe 44dc 14be
000000d0: 9bb0 a2be 1f10 48be b2c3 63be 6d78 c9be
000000e0: 497a 25be 1acd 4ebe 6920 8bbe 1e40 02bf
000000f0: a032 d9be 9595 69be e861 a4be 015e dbbe

convs.1.weight f4 [64, 64, 5]
-0.12147103 0.14935423 -0.19320333 0.060221072 -0.07499793 0.25353977 -0.050294753 -0.111079566
-0.05064196 -0.02338081 -0.10335599 -0.09813262 -0.16153857 0.20563579 -0.03439738 0.03662356
-0.04307944 -0.123361066 0.06920226 -0.17674106 0.11508744 0.022716397 -0.23454152 -0.13874766
-0.055902373 -0.019882925 -0.018889325 -0.11000354 -0.099191606 -0.046741582 -0.46664107 0.30366075
0.16468248 -0.11389759 -0.045433737 -0.16972207 -0.26496372 0.08567588 0.25698918 0.04773457
-0.24728395 0.18187445 -0.00943077 -0.23660763 -0.10534902 0.18884414 -0.055538677 0.15709086
-0.07532245 0.10547208 -0.14303815 -0.055859495 -0.3692795 -0.23128313 -0.23148486 0.10375307
-0.11214146 -0.101518534 0.01827708 0.02347623 -0.0040434594 -0.080561586 -0.08873112 -0.15600197
0.10424398 -0.073827334 -0.074986525 0.32131878 -0.0022086538 -0.07419228 -0.1543373 -0.20412275
0.24334243 0.18182035 0.05006335 -0.29788655 0.025446093 0.13622579 -0.104249686 0.024106456
0.15269268 0.109247245 0.11388558 0.03782808 -0.08310521 0.08940712 0.054127023 0.15145321
-0.062961124 -0.027671019 -0.30160925 0.032410443 -0.014043345 -0.11915321 -0.3077692 -0.004319519
-0.060412023 -0.035998855 -0.00023887168 0.050859384 -0.2858218 -0.13416725 -0.1457309 0.15148965
-0.18212831 -0.12541974 -0.14915355 0.013222433 -0.083729856 -0.10202667 0.1425575 0.3102842
0.018642303 -0.17847079 -0.09825333 0.03435829 0.0373792 0.28378314 0.006694937 0.36370996
0.024621328 -0.00029282016 -0.016621701 0.16547301 0.004332372 0.36082995 -0.09019993 0.045362595
0.26184452 0.1014124 -0.132572 -0.10038205 0.024955736 0.14716563 0.13350686 -0.06380931
0.05718129 0.12488 -0.20428151 0.06634709 0.12608768 0.25700024 0.3131141 -0.05738221
0.328643 0.0028424808 -0.027141146 0.30935553 0.09199962 0.038808808 -0.039322373 -0.11927096
-0.047765836 -0.021269968 -0.20970972 0.21590804 0.20556189 0.1253701 -0.17888974 0.28777334
-0.13013452 -0.112245485 0.17634371 0.21293892 -0.13217218 0.16711268 0.32012933 -0.32636458
0.1701751 0.050750658 0.23595776 -0.1738141 0.18115291 0.13128828 0.27944458 0.15756369
0.36210805 -0.07121708 0.30326894 0.20710137 0.015947534 0.10403155 -0.20738773 0.013707094
0.024426663 0.06966039 -0.18469964 -0.1367238 0.33749458 -0.17194335 -0.07396877 0.26404753
0.020661868 -0.19384414 -0.06457517 0.16996641 0.21988799 0.11718521 -0.1864663 -0.15054834
0.051448382 -0.53711313 -0.24952814 -0.009909605 -0.21904321 -0.101801 -0.23138192 0.04674411
-0.23153202 -0.0625237 0.29302925 0.076887965 0.21800174 -0.13966087 0.05196449 -0.11243402
-0.14164288 0.159384 0.05386202 0.122461274 0.10770618 -0.041638855 0.41982767 0.11484884
0.20983627 -0.02124794 0.13548166 -0.12761012 -0.090202376 -0.09051224 -0.097491115 0.085163735
-0.32156432 -0.044139132 0.24483486 -0.09687717 -0.060996633 -0.046985712 -0.27723637 -0.077572905
0.14382425 -0.053408112 0.24084306 0.08833396 0.30683783 0.42455325 0.18728958 -0.1551996
-0.0080401655 0.078933075 0.057790995 0.18482628 -0.22631483 -0.03499069 -0.09340658 0.023344746
00000000: cec5 f8bd 51f0 183e 18d7 45be 5faa 763d
00000010: 8498 99bd f7cf 813e df01 4ebd af7d e3bd
00000020: f26d 4fbd 1d89 bfbc 4eac d3bd c1f9 c8bd
00000030: 5e6a 25be 3092 523e 44e4 0cbd 9602 163d
00000040: 1174 30bd baa4 fcbd eab9 8d3d 9cfb 34be
00000050: f7b2 eb3d bd17 ba3c a72b 70be de13 0ebe
00000060: e3f9 64bd 84e1 a2bc c9bd 9abc 8949 e1bd
00000070: f824 cbbd 1a74 3fbd 94eb eebe 6c79 9b3e
00000080: 86a2 283e 2443 e9bd ba18 3abd 9fcb 2dbe
00000090: 53a9 87be d676 af3d 1694 833e 5385 433d
000000a0: 0138 7dbe 4c3d 3a3e 8483 1abc 4549 72be
000000b0: 3ac1 d7bd 5c60 413e 867c 63bd 6ddc 203e
000000c0: a842 9abd bf01 d83d 9878 12be edcc 64bd
000000d0: 3412 bdbe 7cd5 6cbe 5e0a 6dbe 7d7c d43d
000000e0: 6caa e5bd f3e8 cfbd d1b9 953c 3951 c03c
000000f0: ff7e 84bb 79fd a4bd a9b8 b5bd fbbe 1fbe
00000100: de7d d53d c932 97bd 8992 99bd e583 a43e
00000110: 10bf 10bb 1ff2 97bd 990a 1ebe 8e05 51be
00000120: c22e 793e 1d2f 3a3e 3a0f 4d3d 9684 98be
00000130: 5374 d03c c67e 0b3e dc80 d5bd e77a c53c
00000140: 785b 1c3e 05bd df3d d83c e93d 9ef1 1a3d
00000150: 1033 aabd 151b b73d 4cb4 5d3d 8d16 1b3e
00000160: c3f1 80bd 55ae e2bc 876c 9abe d0c0 043d
00000170: 0f16 66bc 9906 f4bd ed93 9dbe c08a 8dbb
00000180: 9972 77bd 8973 13bd a179 7ab9 ee51 503d
00000190: 3c57 92be 2463 09be 7b3a 15be 1a20 1b3e
000001a0: d87f 3abe 086e 00be b5bb 18be e7a2 583c
000001b0: 8f7a abbd 5cf3 d0bd 98fa 113e 92dd 9e3e
000001c0: beb7 983c 0cc1 36be 0b39 c9bd 47bb 0c3d
000001d0: ef1a 193d 064c 913e 3461 db3b 3138 ba3e
000001e0: abb2 c93c a885 99b9 3c2a 88bc c271 293e
000001f0: 92f6 8d3b b4be b83e beba b8bd 21ce 393d
00000200: 7c10 863e 4eb1 cf3d f4c0 07be 1b95 cdbd
00000210: f96f cc3c 96b2 163e 06b6 083e 75ae 82bd
00000220: ee36 6a3d 16c1 ff3d 2c2f 51be fce0 873d
00000230: 211d 013e 8995 833e 7e50 a03e 9c09 6bbd
00000240: e543 a83e ea48 3a3b 1c57 debc d963 9e3e
00000250: 4c6a bc3d fcf5 1e3d 7f10 21bd 5544 f4bd
00000260: 1ca6 43bd 5b3e aebc 25be 56be ff16 5d3e
00000270: d17e 523e 0561 003e df2e 37be 0757 933e
00000280: fc41 05be f6e0 e5bd 7293 343e a90c 5a3e
00000290: 2558 07be 961f 2b3e fee7 a33e 4219 a7be
000002a0: 6242 2e3e ecdf 4f3d e99e 713e 53fc 31be
000002b0: 2680 393e 6f70 063e 5c13 8f3e 6058 213e
000002c0: 3a66 b93e 43da 91bd 1146 9b3e 6212 543e
000002d0: 67a4 823c 7e0e d53d 735d 54be b893 603c
000002e0: 6d1a c83c 1baa 8e3d e721 3dbe 5301 0cbe
000002f0: 17cc ac3e eb11 30be f07c 97bd 3d31 873e
00000300: 1443 a93c 147f 46be fd3f 84bd ad0b 2e3e
00000310: 512a 613e cdfe ef3d 06f1 3ebe 5829 1abe
00000320: 8abb 523d 3f80 09bf 4e84 7fbe e55b 22bc
00000330: dd4c 60be 0b7d d0bd 62ef 6cbe c076 3f3d
00000340: bb16 6dbe 6d0c 80bd ee07 963e 7077 9d3d
00000350: d93b 5f3e 4203 0fbe b8d8 543d cf43 e6bd
00000360: d50a 11be 8f35 233e 6c9e 5c3d facc fa3d
00000370: 0f95 dc3d 818d 2abd a7f3 d63e de35 eb3d
00000380: 52df 563e 2910 aebc b4bb 0a3e 3aac 02be
00000390: 06bc b8bd 7b5e b9bd 6ca9 c7bd 536a ae3d
000003a0: 14a4 a4be 3ccb 34bd fdb5 7a3e 8a67 c6bd
000003b0: 9bd7 79bd 1774 40bd edf1 8dbe 8bde 9ebd
000003c0: aa46 133e 77c2 5abd 909f 763e 6fe8 b43d
000003d0: d919 9d3e 0b5f d93e d7c8 3f3e a5ec 1ebe
000003e0: e6ba 03bc aaa7 a13d 40b6 6c3d 1a43 3d3e
000003f0: 13bf 67be 6652 0fbd f34b bfbd 7b3d bf3c

convs.1.bias f4 [64]
-0.23786385 -0.16372792 -0.16597718 -0.25648177 -0.12836547 -0.20402165 -0.13383704 -0.3140235
-0.1238219 -0.17320159 -0.28661716 -0.25169986 -0.21369 -0.2473729 -0.24208184 -0.25586328
-0.1851186 -0.19214337 -0.26441598 -0.116971634 -0.062036637 -0.12356623 -0.17980365 -0.12810005
-0.22250444 -0.1176852 -0.2170714 -0.12539694 -0.23662919 -0.21759894 -0.14292882 -0.14408588
-0.17710334 -0.18574865 -0.1761398 -0.105772845 -0.1949646 -0.18168719 -0.16412699 -0.15148658
-0.30092317 -0.13118622 -0.05847508 -0.24116646 -0.049262688 -0.1937375 -0.26398107 -0.24529423
-0.1641878 -0.19056636 -0.17782009 -0.09323376 -0.09280674 -0.29411992 -0.15849999 -0.2440167
-0.12196627 -0.2916398 -0.16101561 -0.20898038 -0.04086427 -0.1720172 -0.19527021 -0.13308187
00000000: 9592 73be 4ba8 27be ecf5 29be 9451 83be
00000010: 3d72 03be 0deb 50be 940c 09be b0c7 a0be
00000020: 5696 fdbd c25b 31be 7cbf 92be cede 80be
00000030: 8dd1 5abe 524f 7dbe 4de4 77be 8300 83be
00000040: bb8f 3dbe 3bc1 44be 8861 87be d38e efbd
00000050: 211a 7ebd 4b10 fdbd 731e 38be a92c 03be
00000060: 34d8 63be f004 f1bd f747 5ebe 0e68 00be
00000070: ec4e 72be 42d2 5ebe ef5b 12be 408b 13be
00000080: 945a 35be e534 3ebe fe5d 34be 6f9f d8bd
00000090: cda4 47be 350c 3abe e810 28be 4c1f 1bbe
000000a0: 9a12 9abe ae55 06be 9183 6fbd 57f4 76be
000000b0: acc7 49bd 2063 46be 8728 87be 692e 7bbe
000000c0: d920 28be d423 43be 7816 36be 57f1 bebd
000000d0: 7611 bebd e396 96be d24d 22be 84df 79be
000000e0: 74c9 f9bd d051 95be 47e1 24be f4fe 55be
000000f0: 4b61 27bd 4725 30be eaf4 47be 9d46 08be

convs.2.weight f4 [64, 64, 7]
-0.20358577 0.044421803 0.023763096 0.18252695 0.100651436 -0.031233259 0.11623018 0.43232042
0.07707165 -0.06499694 -0.18960528 0.29138276 -0.036133878 -0.0016316753 -0.24049926 0.0878068
0.06838347 0.08716066 0.008679721 0.047441352 -0.040820632 0.02426059 0.0829093 -0.09162098
0.044578742 -0.12368728 -0.23305681 0.16572422 0.0909927 -0.20401424 0.055740625 -0.101953514
0.15906785 0.11278588 -0.055708513 -0.11120522 0.067810155 0.03396807 -0.08114234 0.04854641
-0.22469506 0.20202364 -0.16132158 0.062316604 -0.1701625 0.12885445 -0.09987475 0.078103855
0.10507109 0.105560005 0.11127036 -0.02916175 0.2174568 0.14429505 -0.03379983 -0.20942016
-0.11416336 -0.19094047 0.18640058 -0.29236475 0.13909073 0.32377124 -0.09692649 0.0942037
-0.06403559 -0.02662302 0.0054271445 -0.49469116 -0.19646585 -0.009128753 -0.04323794 0.0068726754
0.050975632 -0.13719894 -0.24107587 -0.8434789 -0.4461151 -0.053095035 0.004160285 0.012726013
0.18066406 0.26343584 -0.38420656 -0.030601189 0.05768034 0.0032856022 0.019729232 -0.13770887
0.32235497 0.007341214 0.43759656 -0.04056932 -0.0122864945 -0.11807925 0.07366922 0.091296166
-0.022043489 0.15692845 0.19309445 -0.19201623 0.07354053 0.18986529 0.025610892 -0.23094401
0.21383561 -0.07211375 -0.0376541 -0.1339099 0.11526406 0.12471016 0.03315056 0.32064348
0.01760155 -0.14267798 -0.05837153 -0.20585601 0.116334096 -0.2055555 -0.117440395 -0.13565563
0.1757752 -0.18812677 -0.15022653 0.22243078 0.15929924 0.28734684 -0.54549545 0.0004283556
0.067835316 0.29968232 0.01887711 0.13398027 -0.100031555 -0.11868348 -0.16546936 -0.030058866
0.14764653 -0.005801849 -0.14053795 -0.14305246 -0.13145283 -0.05294797 -0.35415325 0.13197862
-0.0037219934 -0.16083932 -0.030055214 -0.053865943 -0.37886629 0.011606182 0.079532064 -0.14796528
0.11462856 -0.019244246 -0.047858067 -0.08629047 -0.032231685 0.15060946 0.11760726 -0.06612948
0.19302721 -0.032536615 0.2482198 0.06513992 -0.21555078 0.29490116 -0.07215217 0.19724241
0.23925775 0.05709495 0.033958245 0.009323174 0.010585067 0.14048468 0.1560213 0.13763773
-0.04998132 0.09279326 -0.06544773 -0.028221453 -0.039165054 0.12248695 0.032223903 -0.053894386
0.094943784 0.05836884 -0.1984427 0.04130797 0.006766068 0.11973646 -0.07902663 -0.10830969
-0.32995918 0.03393831 0.11990374 0.35799068 0.16088831 -0.03310834 0.1620016 0.061652917
-0.21437185 0.15077831 0.22650337 -0.0004233847 -0.14627343 0.2433699 -0.1703315 -0.05263267
0.011373937 0.1276467 0.33777386 0.0680758 -0.37849167 0.060952168 0.013424172 0.15619405
-0.19342831 0.20120649 -0.0044844244 -0.008161254 0.08588464 0.04017854 -0.038461972 0.09583591
-0.014833823 -0.29762414 -0.21562357 -0.055155184 -0.13405807 -0.22890665 0.048181765 0.024179947
0.24857147 0.30005765 -0.11121705 0.22898456 -0.10510979 0.05450572 0.031992104 -0.07550808
0.19063006 -0.062267546 0.26291993 0.19675547 0.12402109 -0.04847148 0.1685622 0.12101764
0.0014129227 0.22613676 -0.17861041 0.10792027 0.121098444 -0.09391969 -0.10777016 0.11087911
00000000: ca78 50be a3f3 353d d3aa c23c 58e8 3a3e
00000010: 5722 ce3d e4dc ffbc 170a ee3d 1a59 dd3e
00000020: bed7 9d3d 1e1d 85bd e327 42be 1f30 953e
00000030: 1e01 14bd f0dd d5ba 7045 76be 0dd4 b33d
00000040: a20c 8c3d 4a81 b23d 6335 0e3c dd51 423d
00000050: 8933 27bd 25be c63c 5acc a93d c8a3 bbbd
00000060: 3398 363d c24f fdbd 72a6 6ebe 9cb3 293e
00000070: 615a ba3d 1ce9 50be 4850 643d 01cd d0bd
00000080: afe2 223e 49fc e63d 9c2e 64bd 90bf e3bd
00000090: 0de0 8a3d 1a22 0b3d f52d a6bd 9ad8 463d
000000a0: 7616 66be 49df 4e3e 7c31 25be b23f 7f3d
000000b0: 143f 2ebe 6cf2 033e 228b ccbd eaf4 9f3d
000000c0: 832f d73d d82f d83d b7e1 e33d 9fe4 eebc
000000d0: ffac 5e3e 15c2 133e b171 0abd 3d72 56be
000000e0: 7bce e9bd e685 43be cbdf 3e3e d5b0 95be
000000f0: cd6d 0e3e 58c5 a53e 6581 c6bd dfed c03d
00000100: 1725 83bd 8518 dabc 30d6 b13b 2948 fdbe
00000110: 582e 49be c490 15bc 441a 31bd 2e34 e13b
00000120: d3cb 503d e17d 0cbe 98dc 76be 3cee 57bf
00000130: 3369 e4be 2e7a 59bd 0053 883b c480 503c
00000140: 0000 393e 10e1 863e b9b6 c4be 58af fabc
00000150: 3842 6c3d 4253 573b 339f a13c 8e03 0dbe
00000160: b60b a53e 918e f03b a80c e03e 042c 26bd
00000170: 4b4d 49bc 89d3 f1bd e3df 963d 7cf9 ba3d
00000180: 8c94 b4bc dab1 203e 8dba 453e e79f 44be
00000190: 6b9c 963d 0c6c 423e efcd d13c 967c 6cbe
000001a0: b9f7 5a3e 60b0 93bd 303b 1abd ad1f 09be
000001b0: 900f ec3d 0a68 ff3d e2c8 073d 622b a43e
000001c0: 2031 903c 2d1a 12be fc16 6fbd ebcb 52be
000001d0: 9240 ee3d 247d 52be 9784 f0bd 4fe9 0abe
000001e0: 6afe 333e 4ea4 40be fcd4 19be e5c4 633e
000001f0: 571f 233e 201f 933e 97a5 0bbf ea94 e039
00000200: 3eed 8a3d f66f 993e 2ba4 9a3c 2032 093e
00000210: 58dd ccbd 5310 f3bd cd70 29be 033e f6bc
00000220: a730 173e 701d bebb 2ee9 0fbe 587c 12be
00000230: 929b 06be f8df 58bd 9353 b5be 6725 073e
00000240: b0ec 73bb 10b3 24be 5a36 f6bc 89a2 5cbd
00000250: c3fa c1be db27 3e3c b5e1 a23d 3684 17be
00000260: 61c2 ea3d 1ca6 9dbc d206 44bd 0fb9 b0bd
00000270: 5f05 04bd 5e39 1a3e 13dc f03d e56e 87bd
00000280: eda8 453e 1d45 05bd 552d 7e3e 1468 853d
00000290: 58b9 5cbe 49fd 963e 84c4 93bd eaf9 493e
000002a0: fcff 743e 65dc 693d cd17 0b3d 3ac0 183c
000002b0: fd6c 2d3c 37db 0f3e 0cc4 1f3e e8f0 0c3e
000002c0: 36b9 4cbd 650a be3d 7609 86bd ad30 e7bc
000002d0: 896b 20bd 70da fa3d 36fd 033d 5cc0 5cbd
000002e0: e371 c23d 2a14 6f3d 9034 4bbe 8c32 293d
000002f0: e4b5 dd3b 6438 f53d b7d8 a1bd 79d1 ddbd
00000300: 69f0 a8be e602 0b3d 1890 f53d 8e4a b73e
00000310: e8bf 243e 9c9c 07bd bfe3 253e c587 7c3d
00000320: 4b84 5bbe a165 1a3e 80f0 673e bcf9 ddb9
00000330: b4c8 15be f635 793e 616b 2ebe 5b95 57bd
00000340: c059 3a3c d1b5 023e b2f0 ac3e 536b 8b3d
00000350: a9c9 c1be fba8 793d 0ff1 5b3c 55f1 1f3e
00000360: 1212 46be 1309 4e3e 14f2 92bb c8b6 05bc
00000370: 49e4 af3d 4192 243d 4d8a 1dbd 9e45 c43d
00000380: 9009 73bc 3162 98be 6dcc 5cbe 67ea 61bd
00000390: 8546 09be 8166 6abe 3e5a 453d 0615 c63c
000003a0: 8589 7e3e 28a1 993e c4c5 e3bd ee7a 6a3e
000003b0: cd43 d7bd 6441 5f3d 270a 033d fba3 9abd
000003c0: 8734 433e 410c 7fbd 719d 863e 447a 493e
000003d0: c5fe fd3d 088a 46bd 929b 2c3e 19d8 f73d
000003e0: d231 b93a 6590 673e a6e5 36be 4d05 dd3d
000003f0: 7602 f83d f758 c0bd 9ab6 dcbd 9614 e33d

convs.2.bias f4 [64]
-0.09439863 -0.14693037 -0.124901935 -0.285007 -0.22004037 -0.11982527 -0.09758224 -0.23764518
-0.15605523 -0.1618967 -0.1476449 -0.08567394 -0.1312015 -0.15262173 -0.13202362 -0.1803979
-0.072428435 -0.13227372 -0.22701108 -0.07725533 -0.16956885 -0.18831263 -0.20679991 -0.19525985
-0.21069483 -0.1726079 -0.108709276 -0.24576458 -0.16331166 -0.039298832 -0.124299705 -0.16851588
-0.18032718 -0.15626344 -0.22551012 -0.22077858 -0.2195502 -0.1580402 -0.20178992 -0.13332422
-0.09775422 -0.22948477 -0.21280402 -0.2560542 -0.13049689 -0.13021174 -0.19362086 -0.17572041
-0.20243965 -0.15020289 -0.21692628 -0.16776833 -0.15888385 -0.1223802 -0.14635633 -0.201544
-0.1335211 -0.13903975 -0.12374853 -0.14433429 -0.12004193 -0.18656176 -0.15016599 -0.17225225
00000000: 1254 c1bd ea74 16be 96cc ffbd 70ec 91be
00000010: 4352 61be f366 f5bd 33d9 c7bd 4259 73be
00000020: f1cc 1fbe 40c8 25be 3a30 17be d275 afbd
00000030: b059 06be df48 1cbe 3331 07be 3aba 38be
00000040: 5c55 94bd c372 07be 9875 68be 0b38 9ebd
00000050: 75a3 2dbe 07d5 40be 5bc3 53be 33f2 47be
00000060: 63c0 57be 20c0 30be f8a2 debd b6a9 7bbe
00000070: 2c3b 27be d0f7 20bd d890 febd 6d8f 2cbe
00000080: b0a7 38be 8603 20be 20ec 66be c813 62be
00000090: c5d1 60be 4ad5 21be 04a2 4ebe 2586 08be
000000a0: 5d33 c8bd 0efe 6abe 4ce9 59be 8919 83be
000000b0: faa0 05be 3a56 05be 8c44 46be 0df0 33be
000000c0: 574c 4fbe c9ce 19be ec21 5ebe 76cb 2bbe
000000d0: 73b2 22be 78a2 fabd 6fde 15be 8d61 4ebe
000000e0: c1b9 08be 7060 0ebe df6f fdbd 5ecc 13be
000000f0: 8bd8 f5bd 0c0a 3fbe 1dc5 19be e562 30be

fc1.weight f4 [64, 192]
-0.054199968 -0.0031913198 -0.06278782 -0.091011144 -0.033823397 -0.031315114 0.008495479 0.03360077
-0.06452459 -0.012907987 -0.080929786 -0.00977375 0.045053404 0.014345342 0.02563802 -0.036146425
-0.0746913 0.003090684 -0.0526913 0.051739097 -0.07073168 0.059969176 -0.013651321 -0.020654015
-0.01871173 -0.039450206 -0.018847063 -0.035914004 0.00010146512 -0.015217721 -0.074971125 0.03074172
0.010701913 -0.015965864 -0.07500543 -0.059685685 0.04915371 0.0240466 -0.07421195 0.031163968
0.05246789 0.008810593 -0.03492139 -0.037426133 -0.0031385692 -0.0794472 -0.050909992 0.06489289
-0.009881288 -0.0027355945 -0.08385197 0.031610426 -0.014958465 0.07393213 -0.043872032 0.070646755
0.04193189 0.015919285 -0.034474242 -0.058378942 0.072426826 -0.037007608 -0.025980873 0.020906838
0.033616662 -0.051304117 0.059468303 -0.07041797 -0.0323584 -0.025101978 -0.069304496 -0.066073135
-0.07506219 -0.08871675 -0.04420153 -0.03957929 -0.069876164 -0.0856509 -0.05622529 0.029445002
0.04539055 -0.01713924 -0.036818415 -0.018416218 0.060752094 0.0067081344 0.016647695 -0.041081447
-0.027913664 0.06643079 -0.064440474 -0.07847532 -0.009034056 -0.06680667 -0.07657958 0.036931362
0.044606183 -0.060513224 -0.043873563 -0.0071650674 0.028535366 0.035085864 0.023549538 -0.02512762
-0.09480299 -0.076507844 -0.043991152 0.04579329 0.030465025 0.05541497 0.020325037 0.018592784
0.020320525 -0.030165933 0.050135784 0.02850781 -0.014743733 -0.07389553 -0.067670934 -0.07588879
0.026897814 0.04853476 -0.013402851 -0.031367317 0.046223845 -0.08478157 -0.015698818 0.01103843
0.035021994 -0.020347023 0.025745329 0.00776018 0.022060871 -0.007033668 -0.041556656 -0.09183328
-0.03954934 -0.022553016 0.024336394 -0.070279785 0.033157364 -0.033379015 0.052495033 0.057069927
0.012527353 0.044487096 0.022164654 -0.043586284 0.0551215 -0.0681204 -0.010984898 -0.013023267
0.010409246 -0.00037373058 -0.009488066 0.023889676 -0.00647353 -0.04973502 0.05790151 -0.036659937
-0.025032029 -0.088574424 -0.05696535 -0.0047758482 0.03232958 0.05232129 -0.08400083 -0.06407466
-0.02807978 0.047373448 0.04555803 0.04947645 0.020786686 -0.068447754 0.03428156 -0.035473585
0.044914138 -0.032452483 0.034753483 0.013029858 -0.039294273 -0.04025766 -0.050751265 0.0379215
-0.001383022 0.033516407 -0.061723404 -0.05680339 -0.066420056 -0.051047217 -0.08905832 -0.063934386
0.095202744 -0.1874928 -0.04851902 0.1291459 -0.060438175 0.07310086 -0.056838777 0.16876845
0.15069231 -0.16446581 0.084772795 -0.13254334 0.08162444 -0.1576584 0.16033137 -0.091933094
0.072218604 0.09984039 -0.15342575 -0.13551418 0.16368775 0.015512767 0.22974254 -0.057224628
0.15270364 -0.08320805 0.13946016 -0.06261789 0.045860074 0.06821506 0.15431519 -0.09020894
0.089574054 -0.12802356 -0.05418993 0.11472234 0.026913567 -0.16425538 -0.20273747 0.2343928
0.21457572 0.14773329 0.15620877 0.12918583 0.15357666 -0.124954596 0.1460914 -0.11544273
0.15200609 -0.124112956 0.12902468 -0.031642444 0.03839884 0.061154835 -0.03044878 0.109888636
0.20889948 -0.15902062 0.1391218 -0.14881484 -0.20364907 -0.017454661 0.22199947 0.10093254
00000000: c900 5ebd 7625 51bb e796 80bd 0d64 babd
00000010: 678a 0abd 4744 00bd 9f30 0b3c f6a0 093d
00000020: 7825 84bd 067c 53bc 84be a5bd 1422 20bc
00000030: eb89 383d ba08 6b3c d306 d23c 460e 14bd
00000040: c1f7 98bd 138d 4a3b d5d2 57bd 60ec 533d
00000050: c5db 90bd 3da2 753d caa9 5fbc 9c32 a9bc
00000060: 5849 99bc 8a96 21bd 2865 9abc 901a 13bd
00000070: acc9 d438 c053 79bc 768a 99bd 0fd6 fb3c
00000080: 1457 2f3c d8ca 82bc 729c 99bd fa78 74bd
00000090: 6755 493d 60fd c43c 6ffc 97bd 944b ff3c
000000a0: 92e8 563d 4e5a 103c bb09 0fbd 254c 19bd
000000b0: 74b0 4dbb 37b5 a2bd ff86 50bd 90e6 843d
000000c0: 20e5 21bc a947 33bb 95ba abbd ef79 013d
000000d0: 5914 75bc bb69 973d 29b3 33bd 3faf 903d
000000e0: c6c0 2b3d 2969 823c dd34 0dbd c21e 6fbd
000000f0: 8454 943d 4a95 17bd d7d5 d4bc d144 ab3c
00000100: a0b1 093d 4424 52bd 0995 733d 4c37 90bd
00000110: 3e8a 04bd aaa2 cdbc 84ef 8dbd 5a51 87bd
00000120: 35ba 99bd 21b1 b5bd aa0c 35bd e51d 22bd
00000130: 3c1b 8fbd bd69 afbd 7d4c 66bd a536 f13c
00000140: 71eb 393d 9767 8cbc e8ce 16bd 9cdd 96bc
00000150: 30d7 783d e9cf db3b bf60 883c 0545 28bd
00000160: 32ab e4bc de0c 883d 5ef9 83bd abb7 a0bd
00000170: 9403 14bc efd1 88bd c1d5 9cbd 5745 173d
00000180: f9b4 363d b7dc 77bd c4b4 33bd f1c8 eabb
00000190: 00c3 e93c 32b6 0f3d f6ea c03c 70d8 cdbc
000001a0: 1228 c2bd 25b0 9cbd 1130 34bd bf91 3b3d
000001b0: ca91 f93c cffa 623d b180 a63c e54f 983c
000001c0: 3b77 a63c 8c1e f7bc 2e5b 4d3d 3689 e93c
000001d0: b38f 71bc 8a56 97bd 0f97 8abd 956b 9bbd
000001e0: ce58 dc3c 62cc 463d a297 5bbc 047b 00bd
000001f0: 3755 3d3d f6a1 adbd cf9a 80bc 88da 343c
00000200: 3973 0f3d cdae a6bc dee7 d23c 1c49 fe3b
00000210: 00b9 b43c af7a e6bb 5037 2abd 1613 bcbd
00000220: 7dfe 21bd 1ac1 b8bc 1e5d c73c d9ee 8fbd
00000230: 04d0 073d 6fb8 08bd 0805 573d 28c2 693d
00000240: 873f 4d3c 1a38 363d a692 b53c 8887 32bd
00000250: 15c7 613d b582 8bbd 00fa 33bc 8a5f 55bc
00000260: 8b8b 2a3c 45f1 c3b9 d573 1bbc 48b4 c33c
00000270: e81f d4bb f3b6 4bbd 222a 6d3d bb28 16bd
00000280: f80f cdbc 8266 b5bd 8054 69bd b87e 9cbb
00000290: 066c 043d d94e 563d a108 acbd 9339 83bd
000002a0: 9107 e6bc a90a 423d 0f9b 3a3d d1a7 4a3d
000002b0: d748 aa3c 562e 8cbd d26a 0c3d c04c 11bd
000002c0: e3f7 373d e5ec 04bd ab59 0e3d 2f7b 553c
000002d0: 08f3 20bd 37e5 24bd 8fe0 4fbd 9353 1b3d
000002e0: 8546 b5ba 8048 093d aed1 7cbd acaa 68bd
000002f0: 3d07 88bd e316 51bd 3564 b6bd 08f0 82bd
00000300: a8f9 c23d 1dfe 3fbe e1bb 46bd d33e 043e
00000310: 058e 77bd e7b5 953d c7cf 68bd a3d1 2c3e
00000320: 164f 1a3e ba69 28be 5c9d ad3d 71b9 07be
00000330: b72a a73d 3471 21be e82d 243e 6b47 bcbd
00000340: 59e7 933d 1e79 cc3d a41b 1dbe 3bc4 0abe
00000350: c39d 273e 4329 7e3c a141 6b3e 5f64 6abd
00000360: 585e 1c3e fb68 aabd a5ce 0e3e cf3d 80bd
00000370: c6d7 3b3d 56b4 8b3d cd04 1e3e 77bf b8bd
00000380: 9a72 b73d 9c18 03be 43f6 5dbd 8cf3 ea3d
00000390: d779 dc3c 9032 28be 699a 4fbe ab04 703e
000003a0: bdb9 5b3e 6547 173e 31f5 1f3e 4a49 043e
000003b0: 3343 1d3e 32e8 ffbd fc98 153e 3d6d ecbd
000003c0: 7ca7 1b3e ef2e febd 0c1f 043e 829b 01bd
000003d0: 1a48 1d3d 7e7d 7a3d b86f f9bc 4b0d e13d
000003e0: bfe9 553e 4dd6 22be f275 0e3e eb62 18be
000003f0: 6289 50be 14fd 8ebc d453 633e b8b5 ce3d

fc1.bias f4 [64]
-0.0076994523 -0.101823755 -0.055257063 -0.09759862 -0.03827027 -0.111278445 -0.077495895 -0.1366305
-0.0855466 -0.039950237 0.037873644 0.023422047 0.0051153814 0.046998452 0.015454745 -0.029614877
0.020382237 -0.039550275 0.008275342 -0.07188497 0.023959396 0.033177108 0.03161759 -0.06751112
0.008270275 -0.003168285 -0.06230314 0.0008114389 -0.08162443 -0.010202361 -0.058424506 0.079715796
-0.0049985456 0.031383894 0.0414174 -0.018340826 0.049452264 -0.07629408 -0.058024224 -0.10837799
-0.035989437 -0.008187788 0.0020896099 -0.017241113 -0.03563369 0.0012214413 -0.014417767 -0.115071096
0.055564072 -0.07778474 -0.023395937 -0.051627174 -0.027660847 -0.023892391 0.009946909 -0.033420615
0.008011102 -0.066854484 -0.028778385 -0.0027812207 0.010506144 -0.06155798 -0.034194537 0.010310699
00000000: b04b fcbb f988 d0bd 3b55 62bd c9e1 c7bd
00000010: 49c1 1cbd f4e5 e3bd 2bb6 9ebd dee8 0bbe
00000020: 0e33 afbd dca2 23bd 6521 1b3d 98df bf3c
00000030: ee9e a73b 7381 403d e635 7d3c e69a f2bc
00000040: a6f8 a63c 78ff 21bd 4d95 073c 6d38 93bd
00000050: 7f46 c43c b8e4 073d 7281 013d 4543 8abd
00000060: 0c80 073c 00a3 4fbb 9431 7fbd beb6 543a
00000070: b62a a7bd ce27 27bc 894e 6fbd 0942 a33d
00000080: d7ca a3bb 668c 003d 4ba5 293d 803f 96bc
00000090: 758e 4a3d 1240 9cbd cfaa 6dbd 48f5 ddbd
000000a0: a969 13bd 1226 06bc d6f1 083b 3c3d 8dbc
000000b0: a2f4 11bd c518 a03a 7f38 6cbc 65aa ebbd
000000c0: 2797 633d 9b4d 9fbd d6a8 bfbc 0477 53bd
000000d0: 0099 e2bc fab9 c3bc 5cf8 223c 0ee4 08bd
000000e0: ff40 033c 01eb 88bd a6c0 ebbc 2445 36bb
000000f0: f621 2c3c 3824 7cbd 920f 0cbd 35ee 283c

fc2.weight f4 [1, 64]
0.013743918 0.13036217 -0.018674089 0.05648923 0.013262849 0.12753062 0.119447984 0.16053058
0.001811179 -0.11662907 0.14213462 -0.056216016 0.041900355 -0.10814155 0.1164264 0.067090616
0.056093678 0.047745038 -0.09466416 -0.00075906055 -0.12544627 0.034831863 0.12891646 0.037502527
0.13193615 -0.013417792 -0.13368055 -0.0059294887 0.12928577 -0.013618028 -0.060813285 -0.10774053
-0.109778345 0.014588024 0.059620846 0.13585676 -0.11676137 -0.008346272 0.05683034 0.12515157
-0.11303852 -0.03076057 -0.09728226 -0.11282761 0.11839922 -0.1074996 0.07015026 0.14087754
0.023391778 0.12053059 0.056930043 0.05653071 -0.0062949117 -0.008700861 -0.11995021 -0.0028250746
-0.09290226 -0.003924529 0.10637848 -0.104501836 -0.076889396 -0.11410151 0.07505345 -0.023705484
00000000: 2c2e 613c a97d 053e 67fa 98bc 4061 673d
00000010: 6c4c 593c 6397 023e 25a1 f43d 2162 243e
00000020: 1565 ed3a 39db eebd bd8b 113e c442 66bd
00000030: b59f 2b3d 5179 ddbd f770 ee3d ce66 893d
00000040: 7cc2 653d 4d90 433d 48df c1bd b1fb 46ba
00000050: fd74 00be dbab 0e3d ad02 043e 409c 193d
00000060: 451a 073e 4cd6 5bbc 8ee3 08be 284c c2bb
00000070: 7d63 043e 261e 5fbc 5a17 79bd 11a7 dcbd
00000080: 78d3 e0bd 9b02 6f3c fd34 743d 091e 0b3e
00000090: 9620 efbd cdbe 08bc eec6 683d bc27 003e
000000a0: bd80 e7bd 97fd fbbc ec3b c7bd 2912 e7bd
000000b0: 4a7b f23d c028 dcbd f1aa 8f3d 3442 103e
000000c0: 1da0 bf3c bed8 f63d 7a2f 693d bf8c 673d
000000d0: 8c45 cebb 0e8e 0ebc 75a8 f5bd e324 39bb
000000e0: 8a43 bebd 5699 80bb f6dc d93d 0f05 d6bd
000000f0: 3078 9dbd 0dae e9bd a0b5 993d 0132 c2bc
