models/url_cnn.pt (torch, 346232 bytes, 10 tensors)

weight f4 [128, 64]
0.0 0.0 0.0 0.0 0.0 0.0 0.0 0.0
0.0 0.0 0.0 0.0 0.0 0.0 0.0 0.0
0.0 0.0 0.0 0.0 0.0 0.0 0.0 0.0
0.0 0.0 0.0 0.0 0.0 0.0 0.0 0.0
0.0 0.0 0.0 0.0 0.0 0.0 0.0 0.0
0.0 0.0 0.0 0.0 0.0 0.0 0.0 0.0
0.0 0.0 0.0 0.0 0.0 0.0 0.0 0.0
0.0 0.0 0.0 0.0 0.0 0.0 0.0 0.0
0.6576296 -0.22416613 0.38245317 -0.99951905 0.31618556 0.48371315 0.30035812 0.6127555
1.1815785 -0.3703515 -0.52265984 -0.30272475 0.78138787 -0.5528415 1.0923368 -1.4111408
-0.28842524 -0.075663865 0.23425874 0.1774173 -1.0171871 0.9348309 0.46251205 -0.32277158
1.7146485 0.6898212 0.9218977 -1.704603 1.1371585 -0.17849545 1.9023101 0.34702572
-1.0353518 -0.39175236 -0.75335723 -1.3410892 -1.4078292 0.07009588 -2.3213625 0.5790001
-0.3693356 -0.037791736 -1.0885254 -0.57825345 -0.0055162944 0.76135784 -1.1621159 1.1193033
0.25742194 -0.34140432 0.71092874 1.0504658 0.5239905 0.14481774 -0.20421252 0.12866603
-1.185371 0.04758347 0.08280321 -0.33413425 0.5095963 -1.8301796 2.4453156 -1.6598316
1.0169997 0.95364887 0.31344265 -0.44046715 -0.86085254 -1.2709949 0.8967149 1.1275659
1.9575152 -0.9835791 0.23221144 1.9532665 -0.85099906 -1.8296384 -1.6492791 -0.41359955
-0.73253834 -0.16044196 -0.2652743 -0.9307674 0.8510349 -0.5543698 -0.43954214 -0.24450792
0.9840335 -0.56537205 -0.66652024 -0.17524521 0.598646 -0.603976 -1.2425122 1.2010598
2.2133799 1.1476398 -1.3791474 1.1911595 -0.24015 -1.0384393 -0.98430985 1.1316961
1.2116989 -0.04946371 -1.6116998 -2.2503915 0.4189181 2.1732914 0.40877363 -0.07378174
-0.1741293 -0.3596598 0.45139667 -0.85727674 -1.278661 -0.7239852 -0.6190035 0.74323475
-0.14672351 0.9066191 1.0683794 -0.1407565 0.040650986 0.34322193 1.3197114 1.7303236
-0.35393012 0.64879036 0.965861 -1.2074288 -1.188253 -0.9765924 -1.186107 -0.6791433
-0.9486401 -0.32146636 0.45435485 1.9314036 0.3352537 0.22284202 -0.9371502 0.3400946
0.2770044 -1.3862112 -0.46634 -1.9540375 -1.3036516 -0.68276155 0.49148023 0.55962014
1.4862294 0.341171 0.28422707 0.23071036 -0.2336014 0.37899697 1.4948902 -1.0538288
-1.3408835 1.0720878 -0.4682894 -0.96802527 2.3567727 0.74904567 -1.9696013 -0.7046168
-0.74706316 1.0155653 0.660635 -0.20887561 1.2999263 -1.3450383 0.63744587 -0.3957475
-1.9384764 0.6035763 0.32890433 1.0620209 -0.72912765 -0.21786134 -0.14188433 0.3738
-0.08065188 0.97303474 -1.9038041 -1.8035903 -1.0280696 0.011819643 2.015894 -1.3669732
00000000: 0000 0000 0000 0000 0000 0000 0000 0000
00000010: 0000 0000 0000 0000 0000 0000 0000 0000
00000020: 0000 0000 0000 0000 0000 0000 0000 0000
00000030: 0000 0000 0000 0000 0000 0000 0000 0000
00000040: 0000 0000 0000 0000 0000 0000 0000 0000
00000050: 0000 0000 0000 0000 0000 0000 0000 0000
00000060: 0000 0000 0000 0000 0000 0000 0000 0000
00000070: 0000 0000 0000 0000 0000 0000 0000 0000
00000080: 0000 0000 0000 0000 0000 0000 0000 0000
00000090: 0000 0000 0000 0000 0000 0000 0000 0000
000000a0: 0000 0000 0000 0000 0000 0000 0000 0000
000000b0: 0000 0000 0000 0000 0000 0000 0000 0000
000000c0: 0000 0000 0000 0000 0000 0000 0000 0000
000000d0: 0000 0000 0000 0000 0000 0000 0000 0000
000000e0: 0000 0000 0000 0000 0000 0000 0000 0000
000000f0: 0000 0000 0000 0000 0000 0000 0000 0000
00000100: 6a5a 283f ce8b 65be e7d0 c33e 7be0 7fbf
00000110: 13e3 a13e 40a9 f73e 8ac8 993e 8bdd 1c3f
00000120: f73d 973f b69e bdbe 09cd 05bf bdfe 9abe
00000130: 0909 483f 0587 0dbf b1d1 8b3f 43a0 b4bf
00000140: 79ac 93be a8f5 9abd 86e1 6f3e e1ac 353e
00000150: 3033 82bf 1451 6f3f 61ce ec3e 5142 a5be
00000160: 9a79 db3f 1f98 303f 7d01 6c3f 6e30 dabf
00000170: 698e 913f 83c7 36be e67e f33f 5bad b13e
00000180: 6886 84bf c493 c8be 05dc 40bf d0a8 abbf
00000190: bf33 b4bf 6e8e 8f3d 3491 14c0 5a39 143f
000001a0: 8e19 bdbe 82cb 1abd cd54 8bbf 6b08 14bf
000001b0: 08c2 b4bb 59e8 423f 37c0 94bf 5545 8f3f
000001c0: cfcc 833e 8ccc aebe 6dff 353f aa75 863f
000001d0: 3e24 063f 1a4b 143e 161d 51be 07c1 033e
000001e0: 3dba 97bf e2e6 423d bb94 a93d a513 abbe
000001f0: e774 023f 5343 eabf 0d80 1c40 5d75 d4bf
00000200: 0c2d 823f 5522 743f 8e7b a03e e984 e1be
00000210: d560 5cbf f6af a2bf 1c8f 653f 1454 903f
00000220: dc8f fa3f d7cb 7bbf d6c8 6d3e a304 fa3f
00000230: 13db 59bf 9731 eabf 941b d3bf 52c3 d3be
00000240: a287 3bbf e64a 24be 08d2 87be c646 6ebf
00000250: 6cdd 593f 2eeb 0dbf ab0b e1be 4960 7abe
00000260: 9fe9 7b3f 39bc 10bf 12a1 2abf 7b73 33be
00000270: dd40 193f 2c9e 1abf a40a 9fbf 54bc 993f
00000280: 04a8 0d40 dce5 923f e787 b0bf ea77 983f
00000290: e2e9 75be 94eb 84bf bbfb 7bbf 6bdb 903f
000002a0: f318 9b3f 769a 4abd 2e4c cebf 6a06 10c0
000002b0: 6f7c d63e 3517 0b40 c74a d13e e21a 97bd
000002c0: f44e 32be 5425 b8be 771d e73e 7d76 5bbf
000002d0: 2aab a3bf 1857 39bf 0377 1ebf a244 3e3f
000002e0: b03e 16be 3018 683f a8c0 883f 7922 10be
000002f0: a681 263d c9ba af3e 4eec a83f 3e7b dd3f
00000300: 5436 b5be 2017 263f ab42 773f 078d 9abf
00000310: ad18 98bf f601 7abf 5bd2 97bf 56dc 2dbf
00000320: 14da 72bf 3d97 a4be 33a1 e83e 3c38 f73f
00000330: 5fa6 ab3e b330 643e 13e9 6fbf e120 ae3e
00000340: 85d3 8d3e 5e6f b1bf 1ec4 eebe e71d fabf
00000350: 0ede a6bf 76c9 2ebf 4ca3 fb3e 4443 0f3f
00000360: c43c be3f f7ad ae3e 3686 913e 563f 6c3e
00000370: 3535 6fbe e40b c23e 9058 bf3f dde3 86bf
00000380: 12a2 abbf 2c3a 893f a1c3 efbe 81d0 77bf
00000390: 5dd5 1640 75c1 3f3f e51b fcbf c461 34bf
000003a0: 883f 3fbf 0bfe 813f 601f 293f 7de3 55be
000003b0: fc63 a63f 372a acbf a72f 233f 6b9f cabe
000003c0: ff1f f8bf fa83 1a3f 2666 a83e 4df0 873f
000003d0: 1ca8 3abf 0b17 5fbe 204a 11be b762 bf3e
000003e0: d02c a5bd ce18 793f daaf f3bf 0cdc e6bf
000003f0: c997 83bf 2da7 413c 6804 0140 faf8 aebf

weight f4 [64, 64, 3]
-0.070557036 -0.0057933945 -0.08949622 0.0049952487 -0.124013685 -0.07261118 0.04677683 -0.032100286
0.10212427 0.09143926 0.0049011996 0.11887587 0.053797297 0.13904345 0.10972439 0.14117292
-0.006580678 0.05649794 0.06355985 0.020228684 -0.06050218 0.09824937 0.06491757 -0.18649995
0.054015778 -0.23142198 0.081830174 -0.13314079 0.10310382 0.18477586 -0.14164324 -0.029960835
0.10909213 0.1463025 0.18134893 0.21296819 -0.014930333 0.07093601 0.087660626 0.04935851
0.07409315 -0.069837496 0.1245555 0.05197271 -0.13766441 -0.048730157 0.05491341 0.014601377
-0.027070826 -0.070164464 -0.15773001 -0.15777649 -0.14433126 -0.080373645 -0.07025962 -0.1356513
0.02073695 -0.02697142 -0.15955494 -0.021307562 -0.108219944 -0.033659745 -0.0390379 0.013344753
-0.15800403 -0.12930198 -0.15576883 0.28555867 0.13946588 0.029371351 -0.007173696 -0.049309146
-0.17429093 -0.13375711 -0.057677872 0.09395555 -0.0025093076 0.015577129 0.110678844 0.106331244
0.1170896 -0.05352448 0.03751805 -0.1031197 -0.079410255 0.15052052 0.053063285 -0.063512206
0.005352715 0.0029386978 -0.024441667 0.029136296 -0.0128277065 -0.077292174 0.0750279 -0.1381631
0.0608061 0.16992833 0.0956196 0.14328322 0.12027949 -0.025922488 -0.018313628 0.17109637
-0.096025854 0.033924934 -0.1582464 -0.024963016 0.09160534 -0.0081979185 0.13754283 0.044253897
0.032187596 0.14350434 0.085829005 0.06272704 0.13019973 0.065739594 0.008877805 0.10096148
-0.058294974 0.048440546 0.009385528 0.031004906 -0.0069157225 0.10886647 -0.07752162 -0.04995499
-0.21679549 0.11561227 -0.032158162 0.17914538 -0.13417439 0.014446642 0.031640593 -0.26330128
0.110304825 0.041238397 -0.14381725 -0.013598816 0.10367689 0.16772951 0.11265 -0.18632293
-0.02364937 -0.060379814 -0.15484297 -0.026628364 0.09679109 -0.073991284 -0.109207585 0.0022493093
0.06018112 -0.025728097 0.25636113 0.20239979 0.07440906 -0.1712733 0.0028368481 0.06885314
-0.058996174 0.034296516 0.08133724 -0.04619283 0.04462377 -0.0838257 -0.15150152 -0.36660114
-0.10595864 -0.21603253 -0.028231073 -0.15405443 -0.028994394 0.1851438 -0.07234353 -0.017773522
-0.10034237 0.18277355 0.046566796 -0.032574296 0.028928932 0.18327676 -0.06054273 0.12949409
-0.06333713 -0.21918473 -0.11501987 -0.0025692927 -0.043247033 -0.058502868 0.06830297 -0.022262929
-0.38574556 -0.016161015 -0.03605871 -0.14399555 -0.12504292 0.084155194 0.016260799 0.023148507
0.0054886565 0.1648631 0.025072534 -0.04005571 0.21589684 0.1844138 -0.070055075 -0.018567558
0.1454242 0.045826558 0.20317388 0.06857316 0.19621618 0.17667332 0.17983313 -0.17922948
-0.21589924 -0.06617851 -0.0077528753 0.25466725 0.19216791 -0.03245355 0.0011112515 0.10600995
0.11063189 -0.11315531 0.0893393 0.04207573 -0.10152887 -0.23711279 0.13878682 0.17421147
-0.066145256 -0.082610734 0.1730512 0.0710988 -0.09631884 -0.032635998 -0.04072452 -0.013826432
-0.24740113 0.12803492 0.08041941 0.023764033 -0.06891248 0.18821767 0.044330843 -0.09948684
-0.077618875 -0.2573264 -0.1307102 -0.022230197 0.06034872 0.01049504 0.051983442 -0.14391506
00000000: 3580 90bd 84d6 bdbb cb49 b7bd 2faf a33b
00000010: e3fa fdbd 2cb5 94bd 1099 3f3d 977b 03bd
00000020: 8726 d13d 8244 bb3d 3e9a a03b 3175 f33d
00000030: 8e5a 5c3d 6861 0e3e 2eb7 e03d a28f 103e
00000040: baa2 d7bb 626a 673d ab2b 823d a0b6 a53c
00000050: 22d1 77bd f736 c93d 81f3 843d d8f9 3ebe
00000060: a63f 5d3d e2f9 6cbe 9496 a73d 0f56 08be
00000070: 1828 d33d e235 3d3e ed0a 11be 6d70 f5bc
00000080: b26b df3d 53d0 153e 89b3 393e 5514 5a3e
00000090: 5b9e 74bc e646 913d 6a87 b33d 262c 4a3d
000000a0: 26be 973d f606 8fbd f416 ff3d 56e1 543d
000000b0: e6f7 0cbe 4699 47bd e2ec 603d 9d3a 6f3c
000000c0: a3c3 ddbc 63b2 8fbd fa83 21be 2990 21be
000000d0: 93cb 13be f09a a4bd 47e4 8fbd 2de8 0abe
000000e0: 89e0 a93c 2bf3 dcbc 5f62 23be 328d aebc
000000f0: 6ba2 ddbd cdde 09bd 34e6 1fbd f3a3 5a3c
00000100: cfcb 21be bd67 04be dd81 1fbe bf34 923e
00000110: 25d0 0e3e 309c f03c 5311 ebbb 63f8 49bd
00000120: 5279 32be a0f7 08be a23f 6cbd c46b c03d
00000130: 3273 24bb 3737 7f3c 97ab e23d 32c4 d93d
00000140: accc ef3d 7c3c 5bbd 87ac 193d 6c30 d3bd
00000150: d8a1 a2bd 0d22 1a3e e358 593d b012 82bd
00000160: d465 af3b 2b97 403b e439 c8bc 3eaf ee3c
00000170: 4d2b 52bc 5c4b 9ebd 3aa8 993d a17a 0dbe
00000180: d10f 793d b101 2e3e 35d4 c33d d6b8 123e
00000190: 1855 f63d 665b d4bc 7606 96bc e333 2f3e
000001a0: 34a9 c4bd dff4 0a3d 580b 22be 3d7f ccbc
000001b0: 959b bb3d 9050 06bc 07d8 0c3e 9343 353d
000001c0: 24d7 033d cdf2 123e 1ec7 af3d 0977 803d
000001d0: 1453 053e 7ba2 863d 3774 113c e4c4 ce3d
000001e0: b6c6 6ebd 9869 463d c2c5 193c 00fe fd3c
000001f0: 499d e2bb 62f5 de3d a8c3 9ebd 9b9d 4cbd
00000200: a3ff 5dbe 20c6 ec3d 47b8 03bd e371 373e
00000210: 0365 09be 9cb1 6c3c 9199 013d 6dcf 86be
00000220: 7fe7 e13d 98e9 283d d444 13be 91cd 5ebc
00000230: 8d54 d43d 49c1 2b3e 0bb5 e63d 70cb 3ebe
00000240: 53bc c1bc d350 77bd 288f 1ebe ba23 dabc
00000250: 683a c63d be88 97bd 3aa8 dfbd 2669 133b
00000260: 7a80 763d bbc3 d2bc c441 833e e441 4f3e
00000270: c763 983d 4562 2fbe 6aea 393b e002 8d3d
00000280: f9a5 71bd 817a 0c3d 2494 a63d b134 3dbd
00000290: 6ac7 363d cfac abbd 3723 1bbe 25b3 bbbe
000002a0: d800 d9bd a237 5dbe da44 e7bc 72c0 1dbe
000002b0: a785 edbc 5696 3d3e d828 94bd c799 91bc
000002c0: 4d80 cdbd fd28 3b3e d3bc 3e3d a06c 05bd
000002d0: 5efc ec3c e7ac 3b3e a7fb 77bd 199a 043e
000002e0: e6b6 81bd f671 60be 8a8f ebbd 9461 28bb
000002f0: cd23 31bd b4a0 6fbd 6de2 8b3d bf60 b6bc
00000300: 7180 c5be 1b64 84bc 4cb2 13bd 9273 13be
00000310: 400b 00be 8f59 ac3d 5e35 853c f0a1 bd3c
00000320: 30da b33b dfd1 283e ea64 cd3c 7511 24bd
00000330: 1014 5d3e f9d6 3c3e 0979 8fbd fe1a 98bc
00000340: 15ea 143e a1b4 3b3d d00c 503e 1670 8c3d
00000350: e5ec 483e dae9 343e 2d26 383e ef87 37be
00000360: b114 5dbe 9988 87bd d50b febb bf63 823e
00000370: aac7 443e 03ee 04bd 6aa7 913a bf1b d93d
00000380: f992 e23d f9bd e7bd 86f7 b63d 9a57 2c3d
00000390: 5eee cfbd b2cd 72be 221e 0e3e 7e64 323e
000003a0: 2a77 87bd d12f a9bd 5534 313e 3f9c 913d
000003b0: d042 c5bd 53ad 05bd c1ce 26bd 4288 62bc
000003c0: b956 7dbe 961b 033e eeb2 a43d caac c23c
000003d0: fc21 8dbd 22bc 403e 4294 353d c2bf cbbd
000003e0: a5f6 9ebd 49c0 83be e5d8 05be 1a1c b6bc
000003f0: 3830 773d 63f3 2b3c 97ec 543d 785e 13be

bias f4 [64]
-0.20457232 -0.11650995 -0.17385879 -0.31501925 -0.12971939 -0.14531833 -0.08109717 -0.18851206
-0.17397824 -0.1616787 -0.20079373 -0.23187584 -0.15463583 -0.019030849 -0.26225796 -0.14991553
-0.05791226 -0.027594391 -0.23483023 -0.1501886 -0.12294042 -0.13510731 -0.22832716 -0.19075416
-0.08864226 -0.27148026 -0.06370427 -0.13192324 -0.08948077 -0.30696025 -0.08111342 -0.22269842
-0.09720109 -0.16661735 -0.054280996 -0.09224438 -0.29140723 -0.16864456 -0.2249087 -0.13490683
-0.21450756 -0.2109955 -0.12230312 -0.058189817 -0.1483516 -0.04651477 -0.28809872 -0.19549157
-0.10284201 -0.33304554 -0.18545443 -0.1706148 -0.17588755 -0.26128688 -0.106521636 -0.12262865
-0.15802996 -0.19683206 -0.13957307 -0.020282958 -0.22078814 -0.09344493 -0.22663864 -0.30346677
00000000: 687b 51be c59c eebd 0a08 32be 344a a1be
00000010: 29d5 04be 54ce 14be 4616 a6bd 4e09 41be
00000020: 5a27 32be 1a8f 25be df9c 4dbe dc70 6dbe
00000030: db58 1ebe 95e6 9bbc ad46 86be 7583 19be
00000040: 6835 6dbd a20d e2bc 5677 70be 0acb 19be
00000050: 30c8 fbbd 9259 0abe 98ce 69be 0f55 43be
00000060: 138a b5bd 76ff 8abe 6277 82bd e316 07be
00000070: b241 b7bd e529 9dbe cb1e a6bd 0e0b 64be
00000080: 5d11 c7bd bd9d 2abe c055 5ebd 9fea bcbd
00000090: 5433 95be 29b1 2cbe 774e 66be 0425 0abe
000000a0: dfa7 5bbe 340f 58be 0f7a fabd 7258 6ebd
000000b0: 7be9 17be 4586 3ebd ad81 93be f12e 48be
000000c0: d59e d2bd f284 aabe c4e7 3dbe a5b5 2ebe
000000d0: de1b 34be 65c7 85be 0428 dabd bb24 fbbd
000000e0: 9bd2 21be 588e 49be 3eec 0ebe 7228 a6bc
000000f0: 4916 62be 0e60 bfbd f613 68be ff5f 9bbe

weight f4 [64, 64, 5]
0.053811204 -0.28336558 0.006132627 -0.019597001 -0.1553884 -0.007730831 0.06402191 0.0049222293
0.00049684395 0.143706 -0.05217715 -0.045114696 0.09614111 -0.026076714 0.10727954 0.17823458
0.057529587 0.014523974 -0.10451848 0.30788234 0.06359894 -0.03883931 0.1233336 0.14099845
0.2998617 0.06965876 0.05408639 -0.025457464 0.009445664 0.0363044 -0.10533664 -0.052264493
-0.058999993 -0.0129562095 -0.03523242 0.1333568 0.058270276 0.041384157 -0.08623938 -0.054409854
0.02862419 -0.19059767 -0.08937181 0.010180122 -0.11101298 -0.107640244 -0.19832908 -0.10770363
0.2001938 -0.07720674 -0.13982591 -0.2694964 0.15955086 -0.10846486 0.09249055 0.1815491
-0.09583224 0.34386855 0.06371908 0.3721812 0.03094465 0.2201663 0.20863722 0.07909607
-0.02295157 0.08118353 -0.10390988 0.22693294 0.105671726 0.20056394 -0.14273079 0.16872156
-0.12512755 -0.18096296 0.01826258 0.08422231 0.13296238 0.007952515 0.06291593 0.007085421
-0.16894507 -0.031126065 -0.17456317 -0.18690044 0.044527475 0.048385713 -0.015653951 -0.025172217
0.0014145585 0.119781174 -0.15566708 -0.16040121 0.011134595 -0.06993318 0.05202904 0.11745317
0.050223768 0.22616778 -0.0412819 0.10780405 -0.041559394 0.14425853 -0.067026556 -0.0847162
-0.0851884 0.0551549 0.010269354 -0.18348934 -0.23941754 0.04805375 -0.15935943 -0.18722044
0.17005196 0.16056521 -0.0455071 0.13637276 0.08818312 0.13608961 0.08288702 -0.15337344
0.018932408 -0.04179156 0.021520678 -0.037224554 -0.06995497 0.011677954 -0.23244433 0.09924794
-0.112894565 0.13592903 0.15860213 -0.019275254 -0.0020478037 0.087263174 0.012518455 -0.32095477
0.020371908 0.031619497 0.06547397 0.10251084 0.10625847 -0.018067552 -0.006230898 -0.11015056
0.12059105 0.29274428 -0.21943279 -0.040662855 -0.12843944 -0.00015461355 -0.049275976 -0.23541918
0.015046387 0.17441931 0.05937926 -0.18482004 0.10108406 -0.12264287 -0.02316855 0.0039720954
-0.07764313 0.21525094 0.076572545 0.24791496 -0.09455271 -0.04470196 0.011424318 -0.046635818
0.106936306 0.16138019 -0.062463526 -0.012764661 0.15813592 -0.016313871 0.011120606 -0.0116192205
-0.04338948 0.07766679 -0.08292742 -0.25320953 0.1414564 0.15090746 -0.224763 0.09226859
-0.0966943 0.19885789 -0.004001737 0.15974039 0.052991908 -0.056982066 0.013841814 0.25920263
-0.06874549 0.047950704 0.07472224 0.2185438 0.18947029 0.05627218 0.25371137 -0.10014747
0.06034276 -0.30620012 -0.16039748 -0.030379476 0.16305915 0.14784002 -0.27566755 0.09132016
0.07689368 0.14557709 0.00502358 -0.060046114 -0.28242752 -0.17221645 0.027611034 0.1001497
0.143262 -0.101324014 -0.05414768 0.13158138 -0.018623812 0.13591684 -0.33973494 0.056955785
-0.01803588 -0.12648594 0.087697394 -0.061952703 0.0643977 -0.067462906 -0.13424826 0.08823296
0.05122972 0.044685096 0.12388291 0.03993774 0.24490707 -0.10145405 0.16099371 0.14684965
-0.026897281 -0.3304064 -0.13991109 -0.07370308 0.054462608 0.10573485 0.0009248534 0.20561549
0.034834117 0.21860622 0.21003431 0.14616425 -0.116012834 -0.070350826 -0.06440074 0.16904081
00000000: 2369 5c3d 4b15 91be 34f4 c83b e489 a0bc
00000010: 231e 1fbe e952 fdbb eb1d 833d a74a a13b
00000020: a23e 023a aa27 133e b5b7 55bd 30ca 38bd
00000030: a1e5 c43d d59e d5bc 60b5 db3d 2083 363e
00000040: 25a4 6b3d f6f5 6d3c c90d d6bd c1a2 9d3e
00000050: 2940 823d f815 1fbd 5496 fc3d e661 103e
00000060: 7987 993e 41a9 8e3d b189 5d3d 2c8c d0bc
00000070: fcc1 1a3c ecb3 143d bcba d7bd 4b13 56bd
00000080: faa9 71bd 4846 54bc df4f 10bd af8e 083e
00000090: d0ac 6e3d 6f82 293d 469e b0bd dedc 5ebd
000000a0: 477d ea3c 092c 43be 9108 b7bd 87ca 263c
000000b0: c65a e3bd 7d72 dcbd c716 4bbe b993 dcbd
000000c0: 9aff 4c3e 911e 9ebd 862e 0fbe 6ffb 89be
000000d0: 4d61 233e d322 debd af6b bd3d 02e8 393e
000000e0: b243 c4bd 8a0f b03e 267f 823d 898e be3e
000000f0: a27f fd3c 4673 613e ffa4 553e 1ffd a13d
00000100: ee04 bcbc 8d43 a63d b4ce d4bd 1c61 683e
00000110: 6b6a d83d a260 4d3e 0528 12be 58c5 2c3e
00000120: 7021 00be 5b4e 39be 689b 953c bf7c ac3d
00000130: 4a27 083e 444b 023c 11da 803d d22c e83b
00000140: f0ff 2cbe 17fc febc b0c0 32be d462 3fbe
00000150: 7162 363d 1930 463d b73c 80bc f735 cebc
00000160: b568 b93a d54f f53d 3167 1fbe 3740 24be
00000170: e06d 363c 2139 8fbd 671c 553d 4a8b f03d
00000180: 70b7 4d3d 8798 673e 3617 29bd 5fc8 dc3d
00000190: 2f3a 2abd 82b8 133e 3845 89bd b07f adbd
000001a0: 4177 aebd 1bea 613d cb40 283c a1e4 3bbe
000001b0: df29 75be 02d4 443d 1e2f 23be b7b6 3fbe
000001c0: 1a22 2e3e 356b 243e a765 3abd 4da5 0b3e
000001d0: 5a99 b43d 135b 0b3e acc0 a93d ed0d 1dbe
000001e0: 2318 9b3c a02d 2bbd 224c b03c c678 18bd
000001f0: 8d44 8fbd e454 3f3c e305 6ebe 8142 cb3d
00000200: 4435 e7bd fb30 0b3e 9968 223e 23e7 9dbc
00000210: 7234 06bb 09b7 b23d 351a 4d3c 2f54 a4be
00000220: fde2 a63c 7283 013d 3717 863d 34f1 d13d
00000230: 0a9e d93d 6702 94bc 902c ccbb 9e96 e1bd
00000240: 71f8 f63d 94e2 953e fdb2 60be 188e 26bd
00000250: a185 03be c21f 22b9 9bd5 49bd ba11 71be
00000260: 1f85 763c fa9a 323e ab37 733d 7741 3dbe
00000270: 2905 cf3d 2f2c fbbd f9cb bdbc 5a28 823b
00000280: 5d03 9fbd be6a 5c3e 11d2 9c3d 6bdd 7d3e
00000290: daa4 c1bd 6719 37bd 102d 3b3c 3305 3fbd
000002a0: 6c01 db3d d940 253e c1d9 7fbd de22 51bc
000002b0: 62ee 213e aba4 85bc 3433 363c 8b5e 3ebc
000002c0: 2bb9 31bd c40f 9f3d dad5 a9bd aea4 81be
000002d0: f2d9 103e 7c87 1a3e 4628 66be 51f7 bc3d
000002e0: a907 c6bd 67a1 4b3e 0121 83bb fc92 233e
000002f0: 0b0e 593d 0766 69bd c7c8 623c 35b6 843e
00000300: 6fca 8cbd f567 443d f907 993d f2c9 5f3e
00000310: 8004 423e a87d 663d 75e6 813e 1e1a cdbd
00000320: f829 773d 43c6 9cbe 3d3f 24be 61de f8bc
00000330: faf8 263e 6063 173e 4c24 8dbe 1006 bb3d
00000340: 6f7a 9d3d 2912 153e d89c a43b eaf2 75bd
00000350: 579a 90be 8259 30be 8930 e23c 491b cd3d
00000360: 46b3 123e f782 cfbd f5c9 5dbd 45bd 063e
00000370: f790 98bc c92d 0b3e bdf1 adbe 784a 693d
00000380: fbbf 93bc 8885 01be b19a b33d 1ec2 7dbd
00000390: f1e2 833d fe29 8abd 6078 09be 7bb3 b43d
000003a0: 41d6 513d b807 373d 53b6 fd3d c195 233d
000003b0: ebc8 7a3e 24c7 cfbd 89db 243e c15f 163e
000003c0: b057 dcbc 072b a9be da44 0fbe a4f1 96bd
000003d0: 2f14 5f3d 838b d83d dc71 723a de8c 523e
000003e0: 38ae 0e3d 4fda 5f3e 3c13 573e 15ac 153e
000003f0: 2398 edbd 1814 90bd 89e4 83bd 0919 2d3e

bias f4 [64]
-0.10295996 -0.12368566 -0.090054326 -0.20022906 -0.14979096 -0.12888545 -0.1489497 -0.14043598
-0.15277492 -0.11686543 -0.14570698 -0.13297625 -0.075326264 -0.084209085 -0.11084995 -0.043221384
-0.1525586 -0.15408802 -0.32948261 -0.14529449 -0.16469748 -0.11677648 -0.06133764 -0.3237068
-0.14243056 -0.07998998 -0.11621359 -0.20610395 -0.13843781 -0.12790854 -0.09930915 -0.15073574
-0.16825852 -0.1293989 -0.07862564 -0.13687392 -0.22968026 -0.1562788 -0.28870153 -0.14797755
-0.067265846 -0.11710681 -0.15276667 -0.08679493 -0.15428425 -0.22666024 -0.13290183 -0.32247198
-0.11332792 -0.09316142 -0.13781363 -0.2132988 -0.10589001 -0.110426575 -0.10110309 -0.0451396
-0.15362057 -0.06786951 -0.14637107 -0.17787674 -0.12048296 -0.1880435 -0.1697708 -0.12503324
00000000: acdc d2bd e84e fdbd 676e b8bd d908 4dbe
00000010: cd62 19be 8cfa 03be 4586 18be 73ce 0fbe
00000020: 0771 1cbe 2457 efbd 3634 15be ed2a 08be
00000030: a844 9abd d075 acbd 4c05 e3bd e808 31bd
00000040: 5238 1cbe 40c9 1dbe f2b1 a8be 14c8 14be
00000050: 75a6 28be 8228 efbd 2d3d 7bbd e6bc a5be
00000060: 51d9 11be c9d1 a3bd 6401 eebd ea0c 53be
00000070: a4c2 0dbe 75fa 02be 9862 cbbd 785a 1abe
00000080: f64b 2cbe 2581 04be 7b06 a1bd ad28 0cbe
00000090: 4d31 6bbe 8d07 20be b0d0 93be 6d87 17be
000000a0: adc2 89bd b2d5 efbd de6e 1cbe 8ac1 b1bd
000000b0: b1fc 1dbe 9f19 68be 6b17 08be 0c1b a5be
000000c0: 7818 e8bd 6acb bebd 041f 0dbe 006b 5abe
000000d0: dddc d8bd 5427 e2bd 230f cfbd 4de4 38bd
000000e0: b64e 1dbe 2bff 8abd 4ce2 15be 5225 36be
000000f0: c5bf f6bd 7a8e 40be 66d8 2dbe b708 00be

weight f4 [64, 64, 7]
-0.006195624 0.21982421 0.011705157 0.13679239 0.20444016 -0.21131442 -0.15869498 0.019046176
0.121152446 0.03680201 -0.14831516 -0.1505402 0.0315245 -0.036447726 0.0921871 0.053162925
-0.16535503 -0.029780712 0.0057760505 0.13162504 0.19238141 0.09795877 -0.028986853 0.24423222
-0.084078416 0.021994384 0.110021494 0.092375726 0.21746859 -0.009588634 0.17458302 0.42500845
0.30576593 0.16014744 0.2368226 -0.17131902 -0.22089256 0.04287166 -0.15959013 -0.1409323
-0.041235052 -0.08316501 0.13999234 0.2529761 0.003345603 0.3338111 0.2681987 -0.00035702123
0.11334771 -0.060158562 0.26587436 0.09029779 -0.0663671 -0.046271563 0.20308045 -0.24167152
-0.12407927 0.08778555 0.012548881 -0.08483751 -0.085441366 -0.15946981 -0.19352168 0.21234676
-0.0017903557 -0.1288985 0.030867854 0.0969391 0.17759271 -0.12790796 -0.14878032 0.26328492
-0.17527093 -0.17789212 -0.19637926 0.15959455 -0.13428847 0.15291843 0.4082007 0.17595917
-0.14326407 -0.06470976 0.2482745 0.29324654 0.17957488 0.04806226 -0.010759226 -0.19927965
-0.17571951 -0.24151072 -0.057819843 -0.06501951 0.008569561 0.14719477 0.12214062 -0.07428546
0.16284387 0.16694213 0.039882887 0.14338274 0.16790067 0.1619304 0.03286626 -0.10077842
0.109838486 0.114756376 -0.2720611 -0.2650096 0.24430996 0.030845108 0.16973512 0.11720515
-0.17666444 0.07526919 0.08000803 -0.21915324 -0.01157081 -0.05569311 -0.11180604 -0.29947326
-0.03498199 -0.19238879 -0.20638663 -0.1669643 -0.18671778 -0.057466976 -0.13335982 0.084158085
-0.12249228 0.12359041 0.0033505645 -0.01398451 -0.24659197 0.12928048 0.07541253 0.028067749
0.032490067 0.18028122 -0.0025061686 0.2264873 -0.1496773 0.070563905 0.08708844 -0.091307625
-0.016119814 -0.04570265 -0.07719655 -0.0089969905 0.040943343 -0.098514035 0.03230933 -0.13723634
0.08522406 0.023219584 -0.029126735 0.137729 -0.03682873 -0.08414371 0.03262324 -0.037231196
0.059859723 -0.35489234 -0.17016575 0.046593253 0.23066014 0.2086407 -0.07442699 -0.020248383
0.012276336 -0.014004348 0.049193263 0.04710113 -0.014308536 -0.13298772 -0.04539323 -0.2048071
0.08678175 0.02754978 -0.03489343 -0.24367651 0.053203482 -0.07435802 0.09613855 0.0155913625
0.23511745 -0.06368783 0.2380486 0.23634578 0.053792242 0.04980892 0.26371607 0.20134985
-0.054152805 -0.11395715 -0.07709586 -0.12125691 -0.14060895 0.21164188 -0.01465191 -0.09520145
-0.16315475 -0.01856367 0.07770837 0.037691254 0.0117435055 0.32129192 -0.16359232 0.003367451
0.06833976 0.0015560654 0.123165146 0.36671743 0.1873414 -0.112448655 -0.29715812 0.05799709
0.0074823094 0.018990414 0.22292767 -0.12662438 0.04106152 0.09275737 -0.017181408 0.20410332
0.008585853 0.012853741 -0.057943113 0.18158402 0.32796803 0.09043222 0.042579163 0.012578643
-0.15086249 0.03816546 -0.011444385 -0.021357529 0.13804619 -0.016839081 -0.1755958 -0.16722706
0.11471006 -0.12492259 0.067312784 0.14196132 0.18312371 0.070623145 0.16815291 0.07319869
0.20326297 0.14699891 0.10729414 -0.028942974 0.14117536 -0.10780708 -0.03266053 -0.115774624
00000000: a904 cbbb 9919 613e fdc6 3f3c 4e13 0c3e
00000010: c358 513e cf62 58be f080 22be ba06 9c3c
00000020: c61e f83d b4bd 163d eedf 17be 3627 1abe
00000030: d61f 013d 364a 15bd 97cc bc3d 5ec1 593d
00000040: d452 29be aef6 f3bc 0645 bd3b b7c8 063e
00000050: a2ff 443e 9c9e c83d d675 edbc 0318 7a3e
00000060: 4e31 acbd 912d b43c f352 e13d 7c2f bd3d
00000070: 16b0 5e3e a519 1dbc e4c5 323e b59a d93e
00000080: 5a8d 9c3e b1fd 233e a081 723e 416e 2fbe
00000090: a931 62be 329a 2f3d 986b 23be 8f50 10be
000000a0: 16e6 28bd 6b52 aabd 275a 0f3e 1586 813e
000000b0: e741 5b3b 4ae9 aa3e 5751 893e 942e bbb9
000000c0: d822 e83d d368 76bd af20 883e 0cee b83d
000000d0: 79eb 87bd 4087 3dbd 52f4 4f3e bd78 77be
000000e0: 461d febd e9c8 b33d d299 4d3c 4abf adbd
000000f0: e2fb aebd 0e4c 23be 8c2a 46be 6e71 593e
00000100: 5eaa eaba f8fd 03be 95de fc3c 0288 c63d
00000110: ddda 353e 4efa 02be de59 18be 48cd 863e
00000120: 397a 33be 5a29 36be a517 49be c16c 233e
00000130: eb82 09be a696 1c3e afff d03e a42e 343e
00000140: d1b3 12be 8d86 84bd ac3b 7e3e 6924 963e
00000150: 7ae2 373e efdc 443d 7747 30bc f70f 4cbe
00000160: d1ef 33be 964e 77be 80d4 6cbd f328 85bd
00000170: 5867 0c3c 3aba 163e dd24 fa3d fa22 98bd
00000180: 8bc0 263e e1f2 2a3e 3d5c 233d edd2 123e
00000190: 27ee 2b3e 15d1 253e c59e 063d eb64 cebd
000001a0: 00f3 e03d 6405 eb3d 984b 8bbe 57af 87be
000001b0: 642c 7a3e e1ae fc3c 0bcf 2d3e 4109 f03d
000001c0: 86e7 34be bc26 9a3d 40db a33d b569 60be
000001d0: 7f93 3dbc 751e 64bd 91fa e4bd 8f54 99be
000001e0: 4649 0fbd 9101 45be 0457 53be b1f8 2abe
000001f0: f232 3fbe 7e62 6bbd 7a8f 08be 135b ac3d
00000200: 3cdd fabd f81c fd3d 2595 5b3b 491f 65bc
00000210: 9b82 7cbe 1a62 043e e271 9a3d 56ee e53c
00000220: 4e14 053d a49b 383e 883e 24bb 49ec 673e
00000230: 0245 19be cf83 903d 6d5b b23d 7eff babd
00000240: b30d 84bc b432 3bbd 3a19 9ebd 1d68 13bc
00000250: 35b4 273d bac1 c9bd ca56 043d af87 0cbe
00000260: f489 ae3d ff36 be3c 319b eebc d508 0d3e
00000270: b9d9 16bd 8a53 acbd f29f 053d bd7f 18bd
00000280: 782f 753d 73b4 b5be ee3f 2ebe 91d8 3e3d
00000290: 2c32 6c3e e8a5 553e 2d6d 98bd f0df a5bc
000002a0: af22 493c 7e72 65bc e07e 493d 1ded 403d
000002b0: 5a6e 6abc ef2d 08be 40ee 39bd f4b8 51be
000002c0: a1ba b13d 14b0 e13c 6aec 0ebd 5686 79be
000002d0: e5eb 593d 0549 98bd 4ae4 c43d ea72 7f3c
000002e0: a1c2 703e c46e 82bd 03c3 733e a104 723e
000002f0: 4155 5c3d 7004 4c3d cb05 873e a82e 4e3e
00000300: 55cf 5dbd 5e62 e9bd 6fe4 9dbd 8b55 f8bd
00000310: cbfb 0fbe a6b8 583e 910e 70bc faf8 c2bd
00000320: 0a12 27be d612 98bc 9125 9f3d 2562 1a3d
00000330: d567 403c 6080 a43e bf84 27be 74b0 5c3b
00000340: b7f5 8b3d e4f4 cb3a 023e fc3d 63c2 bb3e
00000350: 6dd6 3f3e 7b4b e6bd 1c25 98be 5b8e 6d3d
00000360: 292e f53b c991 9b3c 2747 643e d2a9 01be
00000370: 2030 283d 93f7 bd3d 06c0 8cbc 7600 513e
00000380: adab 0c3c 7f98 523c c255 6dbd 29f1 393e
00000390: 6deb a73e 8734 b93d 7d67 2e3d a716 4e3c
000003a0: b27b 1abe 6353 1c3d 3b81 3bbc fcf5 aebc
000003b0: fb5b 0d3e 1df2 89bc 63cf 33be 923d 2bbe
000003c0: 1ced ea3d 6ad7 ffbd 49db 893d 4f5e 113e
000003d0: c884 3b3e dea2 903d 4730 2c3e 32e9 953d
000003e0: 2b24 503e e286 163e 08bd db3d d119 edbc
000003f0: 4690 103e f5c9 dcbd 0cc7 05bd 3f1b edbd

bias f4 [64]
-0.2366371 -0.08764444 -0.07546828 -0.13121474 -0.13066332 -0.11173514 -0.21942529 -0.15189032
-0.123481445 -0.08718017 -0.049527664 -0.11300291 -0.19115949 -0.13800496 -0.1259018 -0.17025971
-0.15136503 -0.10804404 -0.17010823 -0.18182871 -0.15820622 -0.1148147 -0.09163753 -0.104817405
-0.0717866 -0.12413897 -0.12722008 -0.087868914 -0.14930703 -0.21864851 -0.1777182 -0.03592312
-0.112547345 -0.13347115 -0.08567017 -0.102911286 -0.117783524 -0.15851456 -0.108581275 -0.1314947
-0.12647308 -0.14374706 -0.131074 -0.18973745 -0.112134084 -0.19523469 -0.15400693 -0.099927045
-0.11916113 -0.090235524 -0.12630036 -0.13280436 -0.15601838 -0.10231163 -0.16094545 -0.1471759
-0.17892185 -0.09438902 -0.13330302 -0.17569207 -0.11240599 -0.18993217 -0.16737665 -0.25621372
00000000: ff50 72be ee7e b3bd 1d8f 9abd 285d 06be
00000010: 9bcc 05be 65d5 e4bd 06b1 60be 2389 1bbe
00000020: d7e3 fcbd 848b b2bd 85dd 4abd 126e e7bd
00000030: 50bf 43be 2c51 0dbe 67ec 00be 9058 2ebe
00000040: 6fff 1abe 3246 ddbd da30 2ebe 4e31 3abe
00000050: d000 22be f823 ebbd 75ac bbbd 82aa d6bd
00000060: da04 93bd 933c febd fb45 02be 9ef4 b3bd
00000070: f1e3 18be 65e5 5fbe c3fb 35be 1f24 13bd
00000080: 397f e6bd a9ac 08be d873 afbd 27c3 d2bd
00000090: 7d38 f1bd a451 22be dc5f debd 8ca6 06be
000000a0: 2982 01be 6e32 13be 4338 06be 894a 42be
000000b0: 8ea6 e5bd 9aeb 47be feb3 1dbe 8da6 ccbd
000000c0: c00a f4bd 67cd b8bd e254 01be defd 07be
000000d0: 48c3 1fbe c388 d1bd e2ce 24be 47b5 16be
000000e0: 4a37 37be 084f c1bd 9680 08be 9fe8 33be
000000f0: 1d35 e6bd 947d 42be c964 2bbe 722e 83be

weight f4 [64, 192]
-0.05448186 -0.028944705 -0.07937308 -0.030563805 -0.055558726 -0.021699715 -0.039975006 -0.04874876
-0.026778607 -0.06293328 0.020029793 -0.051481493 -0.071297556 -0.05220352 -0.093680225 0.018602999
-0.005517696 -0.039326552 -0.037296195 0.03233607 -0.08779904 -0.06823679 -0.04825096 -0.025496943
-0.05613126 -0.06972639 -0.06866184 0.00019913509 0.031189196 -0.07427745 -0.04577395 -0.11323395
0.020170147 5.4436896e-05 -0.079141766 -0.033099025 0.0011047329 -0.09102006 0.009210152 0.0350337
-0.0075726495 -0.024574585 -0.09857469 0.02960465 -0.06864022 -0.031775914 -0.10275364 -0.0198386
0.016805653 -0.029595545 -0.03335902 -0.030313255 -0.032819137 0.025582727 -0.07022827 -0.04715692
0.0071273814 -0.07958134 -0.05659037 -0.092036955 -0.05983105 -0.10460159 0.0067422204 -0.043333124
0.013004757 -0.023098364 -0.033934813 0.02238166 0.04237019 -0.009335646 -0.08942996 -0.049659263
-0.007514061 0.008035831 -0.07121735 -0.042980857 0.012877968 -0.063215904 0.0074661393 -0.07019652
-0.0711062 0.027936203 -0.047908474 -0.041799195 -0.033455297 0.023909952 0.021736361 -0.08628299
-0.051765997 0.010273249 0.04792191 -0.054302473 -0.012667717 -0.030171478 -0.08121127 -0.05234529
-0.08372302 -0.06702741 -0.022049397 -0.046272222 -0.07345799 -0.03448658 -0.09082825 0.020085026
-0.09850064 -0.05256339 0.012375815 -0.08230311 0.0030587525 -0.02160117 -0.04246139 -0.06975196
0.019122835 0.026229274 -0.003639124 -0.035744816 0.025576318 -0.02644219 -0.09740837 0.011149693
-0.010331847 -0.082589775 -0.06371541 0.013674284 -0.09435325 -0.080824025 -0.033170845 -0.043916903
0.007223962 -0.036133867 -0.059025854 -0.021283567 -0.07458489 -0.06888716 -0.08204282 -0.09533926
-0.011714725 0.016521292 0.027717419 0.004738415 -0.087335855 0.040830944 -0.032969132 0.029153677
-0.057105977 -0.015859209 -0.0029560844 0.015978554 -0.051793944 0.018084763 -0.045029443 -0.052825216
0.00058794767 -0.031425316 -0.06049253 -0.026775189 -0.06910227 -0.0191041 -0.08903589 0.07898974
-0.05479626 -0.04663429 -0.09117707 -0.007032421 0.026598962 -0.025851075 -0.093715996 -0.104737006
-0.011939163 -0.08430608 0.009162754 -0.091838025 -0.04297677 -0.07564216 -0.08602575 0.014776707
-0.08699574 -0.068629615 -0.08842531 -0.027316188 -0.00062930665 -0.08498778 -0.05940926 -0.09355442
-0.028450668 -0.069574766 -0.042737637 -0.04266563 0.006507571 0.011344661 -0.019257491 -0.047939986
0.039100844 -0.01939317 0.010830122 0.034960605 -0.045610838 -0.00917808 0.043668453 -0.013432944
-0.04552391 0.0049672644 -0.010994708 -0.02170338 -0.022066036 -0.027312577 -0.0077599967 -0.0762509
0.0028497055 0.031188462 0.026737643 0.026626125 0.04764329 0.011538676 -0.034907997 -0.06595026
0.04281458 0.043844905 -0.03602697 0.066597514 0.04684412 0.042417623 -0.029592432 0.05390305
0.018914927 0.008005052 -0.019667346 -0.059021957 -0.019600688 0.014108808 -0.02988393 0.060237277
-0.027345603 -0.05079615 0.04224292 -0.060145993 0.011202896 -0.03462144 0.020602996 -0.0134557625
-0.0015820098 -0.027669035 0.04456529 0.051566105 -0.008527777 -0.0174555 -0.05325918 -0.05917577
0.032313865 -0.068261236 0.018364262 -0.057199772 -0.063578084 -0.002125218 0.0067257932 0.017427498
00000000: 5f28 5fbd 721d edbc 5a8e a2bd f260 fabc
00000010: 8c91 63bd 9ac3 b1bc d5bc 23bd c8ac 47bd
00000020: cf5e dbbc 2ae3 80bd 8515 a43c 42de 52bd
00000030: 7404 92bd 5cd3 55bd 6bdb bfbd 5165 983c
00000040: cacd b4bb e114 21bd e5c3 18bd d472 043d
00000050: fccf b3bd bbbf 8bbd cca2 45bd f7de d0bc
00000060: e4e9 65bd b6cc 8ebd 949e 8cbd ebce 5039
00000070: 7c80 ff3c c71e 98bd 777d 3bbd 34e7 e7bd
00000080: dd3b a53c 2c53 6438 1415 a2bd d892 07bd
00000090: afcc 903a ba68 babd 2de6 163c 7f7f 0f3d
000000a0: fd23 f8bb a450 c9bc 87e1 c9bd 7385 f23c
000000b0: 3e93 8cbd 7627 02bd 8070 d2bd 8f84 a2bc
000000c0: 02ac 893c 5b72 f2bc 78a3 08bd 8153 f8bc
000000d0: 5c6d 06bd de92 d13c d7d3 8fbd 9d27 41bd
000000e0: cf8c e93b 8bfb a2bd 4ecb 67bd df7d bcbd
000000f0: 6711 75bd 5c39 d6bd d8ed dc3b 137e 31bd
00000100: e811 553c c838 bdbc 3bff 0abd be59 b73c
00000110: 5d8c 2d3d 8af4 18bc 0e27 b7bd 8367 4bbd
00000120: 8338 f6bb b8a8 033c 67da 91bd b20c 30bd
00000130: 1dfe 523c 5777 81bd 84a6 f43b 31c3 8fbd
00000140: 21a0 91bd 77da e43c ad3b 44bd a235 2bbd
00000150: 6c08 09bd cede c33c 7410 b23c 23b5 b0bd
00000160: 9508 54bd 2151 283c c449 443d 456c 5ebd
00000170: 428c 4fbc 2d2a f7bc 1852 a6bd 0468 56bd
00000180: fa76 abbd ab45 89bd f0a0 b4bc f187 3dbd
00000190: 2571 96bd cd41 0dbd 2904 babd 5a89 a43c
000001a0: b4ba c9bd b64c 57bd eec3 4a3c 888e a8bd
000001b0: 5a75 483b f0f4 b0bc ffeb 2dbd 1eda 8ebd
000001c0: 7ea7 9c3c c6de d63c 5f7e 6ebb 2869 12bd
000001d0: 6d85 d13c 4b9d d8bc 0a7e c7bd 34ad 363c
000001e0: e846 29bc d424 a9bd 3a7d 82bd 1b0a 603c
000001f0: 473c c1bd 1187 a5bd 27de 07bd 36e2 33bd
00000200: fcb6 ec3b 1b01 14bd 18c5 71bd e05a aebc
00000210: f6bf 98bd b614 8dbd 1106 a8bd 3b41 c3bd
00000220: 1eef 3fbc a957 873c a40f e33c b544 9b3b
00000230: 24dd b2bd 593e 273d a40a 07bd b1d3 ee3c
00000240: f5e7 69bd 2ceb 81bc deba 41bb 75e5 823c
00000250: e325 54bd 7f26 943c cb70 38bd 415f 58bd
00000260: 8020 1a3a d5b7 00bd 04c7 77bd a457 dbbc
00000270: 7e85 8dbd 3480 9cbc 7358 b6bd 5fc5 a13d
00000280: 0b72 60bd 9903 3fbd 0bbb babd 3970 e6bb
00000290: 11e6 d93c a2c5 d3bc 2cee bfbd 5b80 d6bd
000002a0: 7b9c 43bc aba8 acbd 601f 163c 9315 bcbd
000002b0: 6908 30bd 47ea 9abd 452e b0bd 001a 723c
000002c0: d32a b2bd af8d 8cbd 5418 b5bd 33c6 dfbc
000002d0: 0ef8 24ba 130e aebd 2057 73bd 7699 bfbd
000002e0: 6011 e9bc 377d 8ebd a90d 2fbd 28c2 2ebd
000002f0: 763d d53b f5de 393c e3c1 9dbc b85c 44bd
00000300: 3528 203d 6dde 9ebc d370 313c da32 0f3d
00000310: 6ed2 3abd a85f 16bc b1dd 323d da15 5cbc
00000320: 4877 3abd 6fc4 a23b 2623 34bc 49cb b1bc
00000330: d5c3 b4bc a0be dfbc 9247 febb 6f29 9cbd
00000340: 20c2 3a3b f27e ff3c e708 db3c 081f da3c
00000350: 9c25 433d b70c 3d3c b0fb 0ebd ee10 87bd
00000360: 575e 2f3d b796 333d 0491 13bd 4764 883d
00000370: 9fdf 3f3d 1abe 2d3d d46b f2bc 72c9 5c3d
00000380: 7af3 9a3c 9f27 033c 6a1d a1bc 02c1 71bd
00000390: 9f91 a0bc a128 673c 25cf f4bc 5dbb 763d
000003a0: e303 e0bc a00f 50bd e906 2d3d a55b 76bd
000003b0: 5a8c 373c 36cf 0dbd 9dc7 a83c 8f75 5cbc
000003c0: 715b cfba 2caa e2bc 188a 363d fb36 533d
000003d0: 17b8 0bbc d6fe 8ebc 4c26 5abd 4b62 72bd
000003e0: 8b5b 043d 8ccc 8bbd a670 963c 4f4a 6abd
000003f0: 3a35 82bd 3e47 0bbb 0b64 dc3b 1dc4 8e3c

bias f4 [64]
-0.09368381 0.02954405 -0.011429408 0.020572925 0.032796487 -0.045935832 0.038941156 -0.042333532
0.025790669 -0.02269914 -0.050651193 -0.049977086 0.06187544 0.06140627 -0.09143509 -0.028968578
-0.090067916 -0.032480303 -0.046595424 -0.059983056 0.017558105 -0.061190225 -0.015717948 -0.027353035
-0.046588358 0.002923308 -0.005377875 -0.05330851 -0.06293975 0.03545764 0.03218698 -0.034683317
-0.09516936 -0.027796114 0.0068988274 0.03213855 -0.05830765 -0.071462005 -0.07399938 -0.046804123
0.00650843 -0.0011117848 -0.006912763 0.037131526 -0.06881189 0.030234952 -0.021792373 -0.042721476
0.027355833 -0.06774931 0.018093014 0.0024633892 0.050069127 -0.044927772 -0.10351504 0.038517088
-0.085702084 -0.04618186 -0.07722035 -0.034885604 -0.026825497 -0.027187672 -0.07084685 -0.09131985
00000000: 4cdd bfbd 5d06 f23c 6942 3bbc 8d88 a83c
00000010: 9c55 063d 3627 3cbd c380 1f3d ed65 2dbd
00000020: f446 d33c 8cf3 b9bc a077 4fbd c6b4 4cbd
00000030: 1a71 7d3d 2485 7b3d 5242 bbbd 834f edbc
00000040: 8775 b8bd 110a 05bd d8da 3ebd cbb0 75bd
00000050: 04d6 8f3c 9aa2 7abd edc2 80bc 7913 e0bc
00000060: 6fd3 3ebd f894 3f3b e338 b0bb 065a 5abd
00000070: 8ee6 80bd 083c 113d 7fd6 033d 1810 0ebd
00000080: 27e8 c2bd adb4 e3bc 8f0f e23b b6a3 033d
00000090: 01d4 6ebd ac5a 92bd fd8c 97bd aeb5 3fbd
000000a0: ab44 d53b 4fb9 91ba 7684 e2bb 3a17 183d
000000b0: 40ed 8cbd 4aaf f73c eb85 b2bc b7fc 2ebd
000000c0: 5719 e03c 26c0 8abd cd37 943c d070 213b
000000d0: 4915 4d3d 2f06 38bd b1ff d3bd 18c4 1d3d
000000e0: 9384 afbd 3129 3dbd b425 9ebd 35e4 0ebd
000000f0: 25c1 dbbc aeb8 debc 2718 91bd e705 bbbd

weight f4 [1, 64]
-0.0144601595 0.008681702 -0.1168768 0.02923046 -0.008526539 -0.10288627 0.115229525 0.080283694
0.11766344 0.108447134 -0.09162133 -0.029817611 -0.07341964 0.030605003 0.0017653371 -0.04534201
0.110344924 -0.037774067 0.1195555 -0.019349052 -0.08430033 -0.05822701 -0.109355494 0.10971081
0.092344165 -0.09283965 -0.101737246 -0.0983771 0.049892657 0.071500055 0.005073207 0.11871241
0.11401763 -0.09448698 0.108379744 -0.10853379 0.095208235 0.13022795 0.118908525 0.008663051
-0.09690553 0.1080333 -0.10541872 -0.11214583 0.10916177 -0.09954463 0.082934506 0.20933779
-0.087025516 -0.025002664 -0.07903202 -0.11735555 0.07873133 -0.10140469 0.023444783 -0.120208174
0.11280827 0.062162712 0.115524136 0.116394304 -0.10576522 -0.088254765 0.12952486 0.11923379
00000000: 4eea 6cbc b33d 0e3c 1b5d efbd b874 ef3c
00000010: e6b2 0bbc 09b6 d2bd 75fd eb3d c76b a43d
00000020: 88f9 f03d 8819 de3d f7a3 bbbd 1044 f4bc
00000030: 095d 96bd 58b7 fa3c e262 e73a 8bb8 39bd
00000040: 85fc e13d fbb8 1abd 84d9 f43d e781 9ebc
00000050: a7a5 acbd 727f 6ebd c6f5 dfbd 10b0 e03d
00000060: f01e bd3d b722 bebd 9e5b d0bd ef79 c9bd
00000070: 3e5c 4c3d 9f6e 923d 253d a63b 7e1f f33d
00000080: 1382 e93d 6482 c1bd 33f6 dd3d f746 debd
00000090: 89fc c23d 7a5a 053e 5086 f33d 78ef 0d3c
000000a0: 6876 c6bd 9040 dd3d c5e5 d7bd b7ac e5bd
000000b0: 3590 df3d 0ede cbbd 91d9 a93d a55c 563e
000000c0: 6f3a b2bd 63d2 ccbc 8adb a1bd 1b58 f0bd
000000d0: e43d a13d 43ad cfbd 460f c03c b42f f6bd
000000e0: 0608 e73d 549e 7e3d eb97 ec3d 2360 ee3d
000000f0: 709b d8bd eabe b4bd 2aa2 043e d830 f43d
